model/model.pth (torch, 319367 bytes, 10 tensors)

linear1.weight f4 [128, 37]
000000 4f 2d 8e 3d f0 1e ee bc ad b5 20 be 80 a6 95 3d
       0.06942236 -0.029067487 -0.15694304 0.07307148
000010 2d 0c 25 3e ec 78 17 be 59 17 36 3d dc a2 e9 bd
       0.16117926 -0.14792222 0.04445586 -0.11408016
000020 7e f6 c8 bd 5f 98 2a 3c f3 60 85 3d 68 c0 5b bd
       -0.0981264 0.010412305 0.06512632 -0.05365029
000030 88 fe 69 bd 47 e7 df bd 94 86 bb bd 8b b8 1f bd
       -0.057127506 -0.109327845 -0.09156528 -0.038994353
000040 e4 88 d5 3b 2b 7e b9 bc eb ef df 3c 8d 31 00 3e
       0.006516563 -0.02264317 0.027336081 0.12518902
000050 96 52 d8 3d 91 93 c6 bd 68 5e ba 3c c8 a4 d0 bc
       0.10562627 -0.09696115 0.022750095 -0.025469199
000060 0b 68 d9 bd 1d 84 0f 3e 30 0d 50 bc 88 e0 e4 3d
       -0.10615548 0.14015241 -0.012698457 0.111756384
000070 4c be a3 bd b1 f1 06 be d1 db 19 3e f2 a4 d6 3d
       -0.079952806 -0.13178135 0.1502526 0.104806796
000080 0a f9 1e be 19 4b ca bd 6a 7c 00 be 40 5a 87 bb
       -0.15524688 -0.09877605 -0.1254746 -0.0041306317
000090 1e 07 02 3e a0 09 c5 bd bd f7 41 3c f1 2f 65 bd
       0.12698027 -0.096209764 0.011838851 -0.055953924
0000a0 57 a4 d6 3c 8a d0 17 3c b5 cc f1 bd c7 49 ef 3d
       0.02620141 0.009266028 -0.11806623 0.11683994
0000b0 a6 ab 74 3b d7 35 ea bd 1a c7 f7 3d 71 81 ee bc
       0.0037333756 -0.114360504 0.120985225 -0.029114457
0000c0 be 7d ed bd 07 db e0 ba 66 6d 2f 3e 37 e6 bb 3d
       -0.11596249 -0.0017155119 0.17131576 0.09174769
0000d0 f5 25 79 3a 62 43 f3 bd 76 42 ec 3d 61 4a bf 3d
       0.0009504252 -0.118780866 0.11536114 0.093403585
0000e0 bd 6d e7 3d 0f 90 01 3e 52 fd 5a bd 63 1e 03 3e
       0.11300228 0.1265261 -0.05346424 0.1280456
0000f0 cb 79 ce 3d ae b1 b3 3d cb c3 0e 3c 40 77 2b be
       0.10081824 0.08774124 0.008713673 -0.16744709
000100 aa 46 54 bc c0 65 70 bb 34 7f 23 3d 16 99 f6 3d
       -0.012956301 -0.0036681741 0.039916232 0.120409176
000110 e3 2d fe 3d 5e b3 13 be 0e 69 d8 bd cc 07 4c 3d
       0.12411096 -0.14423892 -0.105669126 0.049812123
000120 71 ee a5 3d cf 7d d8 3a 84 7f 80 bd fc 8a 75 3d
       0.0810212 0.0016516986 -0.06274322 0.059947
000130 be 29 11 bd bc 27 2c 3e 24 20 02 be 5a 65 d6 bd
       -0.0354402 0.16812032 -0.12707573 -0.1046855
000140 eb 6a 2a 3e 67 3e 19 be 9d b1 c7 bd f1 8d 8e 3d
       0.16642348 -0.14965211 -0.09750674 0.06960667
000150 9a 47 a4 3c 91 22 b4 3c ed 9e ef 3d 82 49 ee bd
       0.020053674 0.021989139 0.117002346 -0.11635114
000160 25 6f 22 3e cd 87 ca bd 83 4b 34 3e d7 07 1e be
       0.15862711 -0.09889183 0.1760693 -0.15432678
000170 ac 4e 94 bd bd 6f c0 bd bf 63 1b 3e aa 95 f0 bd
       -0.07241568 -0.093963124 0.15174769 -0.11747296
000180 62 d3 f3 3d 4f 63 a4 3d 2f 94 d8 bd 14 93 6a 3d
       0.119055524 0.08026754 -0.10575139 0.05726917
000190 32 43 5e 3d 0c 51 05 be 46 f7 e4 3d 27 ef 07 bd
       0.0542633 -0.13019198 0.11179976 -0.033187058
0001a0 8d 42 08 3e 38 ea 40 bd 11 61 07 3e 2c 2b 69 3d
       0.13306637 -0.04709837 0.13220622 0.056925938
0001b0 4a 23 fc 3d 22 b9 d2 3d e6 2f 77 bd 60 50 05 be
       0.12311418 0.102892175 -0.060348414 -0.13018942
0001c0 f0 c7 6a 3c 0a b0 8f 3d ce fe af 3d 1f d3 58 bd
       0.014329895 0.07015999 0.08593522 -0.052935716
0001d0 5f 59 14 be 00 92 fc 3a 1f b6 f3 3d 31 24 21 be
       -0.14487217 0.0019269586 0.11899971 -0.15736462
0001e0 a7 2e 42 3d 36 02 ef bd ee 57 33 bd 12 80 f7 bd
       0.047407772 -0.116703436 -0.04378503 -0.12084974
0001f0 40 ce f2 bd 82 4a c4 3d 03 eb 1b 3e 16 7c 22 bd
       -0.11855745 0.09584524 0.15226369 -0.03966912
000200 de 65 a5 3c ab 5e 96 bd bb 77 4a bd ae e0 b0 bd
       0.020190176 -0.07342275 -0.04943059 -0.08636604
000210 2e 6d 1b 3e 3f 69 f5 bd b5 bf 13 3e 72 99 3c bd
       0.15178367 -0.11982965 0.14428599 -0.046044774
000220 d4 51 f3 bd 1b ed 02 bc cb 89 91 bd 32 9a fe bd
       -0.11880842 -0.007991101 -0.0710636 -0.12431754
000230 4d aa 84 bd c3 be 09 3e f0 32 81 3c d1 fc 10 3e
       -0.06477795 0.13451676 0.01577136 0.14158942
000240 8c 57 54 3d e8 db e4 bd 98 f0 01 bd e0 2d 26 bc
       0.051841304 -0.11174756 -0.03172359 -0.010142773
000250 bc 1e 0e be ee 13 9e bd 0b db 80 3d 8a f7 1f 3e
       -0.13878912 -0.07718645 0.06291779 0.15621772
000260 40 61 6e bc 20 92 51 bc d3 e9 bf bd 35 a6 0d be
       -0.014549553 -0.012791187 -0.0937077 -0.13832934
000270 e1 9c d4 3d 2a 52 dc 3d b6 78 39 bd 23 a2 d0 bd
       0.10381485 0.10757859 -0.045281135 -0.10187175
000280 77 cb ff bd aa 14 f3 3d cd 3b 11 be a5 38 fd 3d
       -0.1248998 0.11869176 -0.14182968 0.1236432
000290 37 c5 20 3e 74 58 0e bd e7 6d 1d 3e 80 85 4b bc
       0.15700231 -0.034752324 0.15373956 -0.012421966
0002a0 a8 3f a3 3d f4 7b 8c 39 ab d7 48 3e e4 a0 17 3c
       0.07971126 0.00026795233 0.19613521 0.009254668
0002b0 e6 87 f3 3d 84 64 6b bd 77 ef cd 3d b6 d3 10 3d
       0.11891155 -0.057468906 0.1005544 0.035358153
0002c0 00 6e c7 3b 12 b2 64 bd 0c 7b 37 3e a0 9d 0f be
       0.006086111 -0.055833884 0.17918032 -0.14024973
0002d0 f0 59 55 bc 81 14 81 3d cb d7 0d 3e c9 0c 7f 3d
       -0.013021931 0.06302739 0.1385185 0.062268052
0002e0 38 5d b9 bc 23 5e 5e 3d 67 c0 35 3d 0f f0 51 3d
       -0.022627458 0.054288995 0.044372942 0.05125433
0002f0 4b 8e 97 3d 1b 48 3a 3d 5c f4 00 3d e5 a6 17 bd
       0.07400187 0.04547892 0.03148304 -0.037024397
000300 18 0d 16 3d e5 e5 0f 3d b6 34 b6 bd 95 a4 89 bb
       0.03663358 0.035131354 -0.088967726 -0.004200528
000310 ba 4a 27 be c5 34 1e be b4 ca 39 be f0 f7 08 3e
       -0.163371 -0.15449817 -0.18143731 0.1337583
000320 dc 77 ef bc 5e 63 28 be 36 ac 55 bd 1a b6 73 3d
       -0.029231958 -0.16444156 -0.052166186 0.059499837
000330 0e b0 bc 3d 55 3c 96 bd 72 cb 89 bd 29 3a 8e bd
       0.09213267 -0.07335726 -0.06728257 -0.06944687
000340 55 68 0f 3c 43 60 25 bd ac cb cf 3c 51 4f f1 bb
       0.008752902 -0.040375005 0.025365673 -0.0073641916
000350 04 b8 05 3d 5e d2 47 bd ba 04 57 bd bb b9 a3 3d
       0.032646194 -0.048784606 -0.052494742 0.0799441
000360 29 66 2e be c9 47 af 3d 8d 31 13 3a c0 0d 5d 3c
       -0.17031159 0.08558614 0.00056149886 0.013492048
000370 2a f7 3c 3c 16 5e f3 3d 2a d5 d9 3d 8b 6d b3 bd
       0.011533538 0.1188318 0.10636361 -0.08761128
000380 67 2c 14 bc c6 aa a8 3d 72 5d 78 3d 0b 16 0b 3e
       -0.0090437895 0.082356974 0.06063599 0.13582627
000390 19 d2 34 bb 42 ad 04 3e 0b 47 15 be 94 04 3e 3e
       -0.0027591048 0.12956718 -0.14577882 0.18556434
0003a0 c2 f6 b5 bd 13 dd 0a 3e 0a 69 84 bd 51 7a c4 bb
       -0.08884956 0.13560896 -0.06465347 -0.0059960266
0003b0 00 6c a1 3d 92 47 95 3d 1d 56 bf bd de 12 35 bd
       0.078819275 0.072890416 -0.09342597 -0.044207446
0003c0 cb bb d6 bd 74 51 05 bd 84 85 16 3d 71 29 90 3d
       -0.104850374 -0.032548383 0.036748424 0.07039154
0003d0 26 aa ee 3d aa 00 24 3e 15 85 02 be e2 1c 85 3c
       0.11653547 0.16015878 -0.1274608 0.016249124
0003e0 89 f0 78 bd d9 60 2d 3e e0 6c d2 bc ae 75 c9 3d
       -0.060776267 0.16931476 -0.025686681 0.09836899
0003f0 24 03 1f bd 11 bb 65 bc 00 12 61 3c 89 c1 bf bd
       -0.038821355 -0.014021651 0.013737202 -0.09363086

linear1.bias f4 [128]
000000 96 55 3f be 29 3a 5b bd bb ce f3 bd 9d 1c fc bd
       -0.18684992 -0.053522263 -0.11904665 -0.12310145
000010 78 45 40 be cb 3e ed 3d e0 15 1a bd eb 93 10 3d
       -0.187765 0.115842424 -0.037618518 0.035297316
000020 b4 e4 de bd ba cb 34 be 7b a3 e0 bc 5c 98 e8 bc
       -0.108834654 -0.1765584 -0.027421704 -0.028392963
000030 29 b8 8c bd 34 cc 72 be 4a eb c3 3c b5 12 5d bd
       -0.06871063 -0.2371071 0.023915906 -0.05397292
000040 36 a5 d5 bd f5 af f7 bd 91 44 ef 3c b5 e9 95 bd
       -0.10431902 -0.12094108 0.0292075 -0.07319967
000050 85 67 aa 3d bf 58 9a bd a8 78 6d 3c d8 f4 d0 bd
       0.08320526 -0.07536458 0.014494099 -0.1020295
000060 72 f9 06 3e c1 1f 0c be 6b 50 58 be 95 8c 8c bd
       0.13181093 -0.13683988 -0.21124427 -0.068627514
000070 f1 8a b7 bd dd 1b 91 bd c4 f4 75 bc 6d a5 fe bc
       -0.08962048 -0.070853926 -0.01501197 -0.03108474
000080 d5 63 1f be e0 1b 96 3d ef 73 dd bd b6 ac a9 bd
       -0.15565427 0.073295355 -0.10813128 -0.08284895
000090 b4 a6 9c bd cb d4 24 be a6 ea 32 be 6c a8 bd bd
       -0.076489836 -0.16096799 -0.17472324 -0.092606395
0000a0 b7 37 38 be c9 aa e1 bc 2c d3 60 3d 1e 7f c5 bd
       -0.17990004 -0.027547257 0.05488889 -0.09643386
0000b0 48 dc 9c bd cf bd 80 3c 9a 01 12 be 0f 08 bc bd
       -0.07659203 0.015715508 -0.14258423 -0.091812246
0000c0 23 4f d6 bd d5 37 0c be 4f 8b b5 bc 79 9e 32 be
       -0.10464313 -0.13693173 -0.022161154 -0.17443265
0000d0 da b8 3b bd 17 cd 1b bd c7 51 92 bd 62 48 18 be
       -0.045830585 -0.038037386 -0.07144504 -0.14871362
0000e0 f4 b3 c9 3c 84 8d 33 be f6 e9 01 be 65 c1 23 bc
       0.024621941 -0.17534453 -0.12686905 -0.009994839
0000f0 bf a5 63 3d a5 0a 71 3d 2c 8d 77 bd 5a 4c 24 be
       0.05557799 0.058848042 -0.060437366 -0.16044751
000100 16 10 5e 3d 4f da 21 be f8 28 d4 3b 73 16 04 be
       0.05421456 -0.15805934 0.0064746104 -0.12899189
000110 95 6b 43 3d 7a a5 88 3d 27 13 38 bd 08 f9 24 3d
       0.04771002 0.06672187 -0.04494014 0.040276557
000120 5f 79 27 bb 34 85 34 be 63 db b8 bd c4 4f f6 3b
       -0.002555452 -0.17628938 -0.0902622 0.007516833
000130 cb ee 25 ba 76 21 58 bd 11 ed bb bd 5f eb 07 bd
       -0.00063298334 -0.052766286 -0.09176076 -0.03318345
000140 f3 9a e2 3b 43 ca 00 be a5 38 31 bd 0e 53 22 be
       0.006915444 -0.12577157 -0.04326691 -0.15851995
000150 a8 85 d6 bd 0b 54 57 be 6d 9e de 3d 66 86 f0 bd
       -0.10474712 -0.21028154 0.10870061 -0.117443845
000160 7c 58 08 be bc 36 c2 bd 0f 65 88 3d cd 15 6c bc
       -0.13315004 -0.09483096 0.066599004 -0.014409495
000170 e5 38 0a be 66 40 40 bd 06 28 e9 bd da d2 86 bd
       -0.13498266 -0.046936415 -0.11384587 -0.065831855
000180 2b 7c 3e be 88 46 21 3d e0 f1 6b 3d b2 7c f2 3c
       -0.18602054 0.039373904 0.057603717 0.029600475
000190 53 83 7c 3d 7d 64 cd bd 89 0f 99 bd d6 ad 4a be
       0.061648678 -0.10028932 -0.07473666 -0.19792876
0001a0 8a aa 83 3d 3e 97 0c bd 47 c7 37 be a9 47 1b be
       0.06429012 -0.034323923 -0.17947112 -0.15164055
0001b0 1c 26 19 be e5 82 e6 bd 96 ae 8c 3c 93 da d6 bd
       -0.14955944 -0.11255435 0.017173093 -0.104909085
0001c0 58 ed 06 be 86 3f 17 be 3e e0 d4 bc 46 f5 1b be
       -0.13176477 -0.14770326 -0.025985833 -0.15230283
0001d0 04 9c 44 3d 70 38 5d 3d 03 9e 00 be ab 19 89 bd
       0.04800035 0.0540089 -0.12560277 -0.06694349
0001e0 8f fa d1 bd 8c ae 56 3c ba 0e 25 be ae d8 34 be
       -0.102528684 0.013103139 -0.16118899 -0.17660782
0001f0 c9 5a 28 be 03 56 1b be 5f c3 e5 bd f1 3b 42 be
       -0.16440882 -0.1516953 -0.11218905 -0.18968178

linear2.weight f4 [256, 128]
000000 06 de 16 bd 87 67 c4 3d 0c 7f 97 bd 20 b3 8d 3d
       -0.03683283 0.09590059 -0.07397279 0.06918931
000010 a7 15 b0 3d a1 fd a6 3d 9f d0 34 3d 2a 74 1a bd
       0.0859788 0.081538446 0.04414427 -0.03770844
000020 bc 5b 42 3d 8f 8a 95 3d 89 03 99 3d a2 94 45 3b
       0.047450766 0.073018186 0.074713774 0.0030148407
000030 9e 96 10 3d 08 be 7c bd 8b 8b a9 bb 52 f9 a9 3c
       0.03529989 -0.061704665 -0.0051741055 0.020748768
000040 5d 44 52 3c 81 41 0f 3d 7a c4 43 3d 1d e7 84 3c
       0.012833682 0.03497458 0.047794797 0.016223485
000050 36 2c 2c 3d cb c1 8f bd 63 6a 5b bb 42 78 03 3d
       0.04203435 -0.07019385 -0.003348016 0.03209711
000060 13 b0 8a bd d8 e9 59 bd 97 63 96 3d 74 9d f5 3c
       -0.06771865 -0.053201526 0.07343214 0.029982306
000070 8b fa 0d bd c7 95 3b bc 2c 98 7f 3c fd f4 6b 3d
       -0.034662765 -0.011449284 0.015600245 0.057606686
000080 97 dc 88 3c 09 0e 14 bc e7 59 ab 3c b3 c9 a5 bd
       0.016706748 -0.009036549 0.020916892 -0.08095112
000090 c2 f6 ac bc fc 67 8b 3d a3 6b 35 3d b0 a1 a6 bc
       -0.021113757 0.06806943 0.044292103 -0.02034077
0000a0 59 cc df bb e4 7d 71 bd a2 f1 fb 3c 3e e7 a1 bd
       -0.00682978 -0.05895795 0.030754868 -0.07905434
0000b0 6d 7e 71 bc 26 79 8a 3b 1a 49 7d bd 43 c2 d0 3c
       -0.014739615 0.004225868 -0.061837293 0.025483256
0000c0 df 88 4b bc 17 a8 11 3d d8 55 a8 bd 4d c0 c7 3d
       -0.012422769 0.035560694 -0.082194984 0.09753475
0000d0 2b 07 63 bc 98 31 95 bd a0 5a bd bd dc bc 9e 3d
       -0.013856689 -0.0728485 -0.09245801 0.07750866
0000e0 dd e5 0e bd 26 7a 9d bd 85 81 b2 3d 60 a8 4c 3c
       -0.034887183 -0.076893136 0.0871611 0.012491316
0000f0 f4 76 8d 3d f0 38 c1 3a 0d b0 54 bd 0a f2 39 3c
       0.06907454 0.00147417 -0.051925708 0.0113492105
000100 e5 7d 19 3d b1 3f 94 bd e6 8b 9e bd aa 6f 9d 3d
       0.037473578 -0.07238711 -0.07741527 0.07687314
000110 7b e5 17 bc 5c eb ca bd 0b 4f fe 3c 60 38 53 bd
       -0.009271021 -0.099081725 0.03104355 -0.051567435
000120 15 f6 ad 3d 3c 1d ce bc e0 87 27 bd 6c 12 b8 3d
       0.08494202 -0.025160424 -0.040901065 0.08987889
000130 fe 01 21 bd f3 8d 9f bd 78 d4 92 bc 4f 1f 39 bd
       -0.03930854 -0.077907465 -0.017923579 -0.045195874
000140 8d 04 4c 3d 6b 3c d1 3c cb 25 75 bd 21 05 87 bd
       0.049809027 0.025541505 -0.059850495 -0.06592775
000150 ca 71 bb 3d a0 c6 92 3c 21 35 9a 3b 8c 12 bf 3c
       0.09152563 0.017916977 0.0047060405 0.023324274
000160 e2 a2 4f 3c 70 5f be bc c2 5b a9 3c 6d 0e 0a bc
       0.012673112 -0.023238868 0.020673636 -0.008426291
000170 3f d5 84 3d 7a 8e 22 bd 3d 7b ab 3d ab 97 58 3d
       0.06485986 -0.039686657 0.08373115 0.052879017
000180 5f 6d 0c 3d 0d d9 18 bb ec 36 84 bd 4e 6a 30 bd
       0.034283992 -0.0023322732 -0.06455788 -0.04307013
000190 07 b1 0c 3d da 8d 2f bd 24 53 9d bd df 32 6e bc
       0.034348514 -0.04285989 -0.076818734 -0.014538496
0001a0 31 5d b3 bc 33 65 07 bc b7 67 b1 bd fb cf 3c 3c
       -0.021895023 -0.008263874 -0.0866236 0.011524196
0001b0 9e 8b 6e bd 91 5c fb bd 1a e3 e2 bb 40 d6 6a bc
       -0.058238618 -0.12273515 -0.0069240453 -0.014333308
0001c0 88 11 f8 bd 31 65 58 3d f5 53 f9 39 64 88 7f 3b
       -0.12112719 0.05283088 0.00047555534 0.0038991207
0001d0 c3 25 6c 3d 22 3a a9 3d 08 c5 f5 bc 02 a2 a4 3d
       0.0576532 0.08263041 -0.030001178 0.08038713
0001e0 c9 ed bd bc 0b 63 b2 3c f4 54 2a bd 98 a1 9a bc
       -0.023184674 0.021775743 -0.041584924 -0.018875882
0001f0 c9 16 96 3d c6 b0 1b bd a3 58 83 bd f9 61 c7 bc
       0.07328565 -0.03801038 -0.064133905 -0.02433871
000200 70 df fa bc 7f 0f 91 3d 80 01 19 3b ea fa 04 bd
       -0.030624121 0.07083034 0.0023346841 -0.032465853
000210 31 2b 80 bd 90 ae ff 3c 80 2c e7 3c dd 26 8d bd
       -0.06258238 0.031211168 0.028219461 -0.06892178
000220 2b 4d 06 bd 60 b7 48 3c da db 17 3d ec c6 0d 3d
       -0.032788437 0.012250751 0.0370749 0.034613535
000230 8b 12 9d bd 30 4e 8a bb 35 29 af 3d c7 e7 dc 39
       -0.076695524 -0.0042207465 0.085527815 0.00042134357
000240 ef 4f a7 bd 9c 4c 55 bd 6c c8 d9 3c 18 b5 35 3c
       -0.08169543 -0.052075014 0.026584826 0.011090539
000250 d8 4b 8f 3d e8 25 e5 3c e6 be 86 bd ce d2 90 bd
       0.06996888 0.027972177 -0.0657938 -0.07071458
000260 17 d5 b1 3d 40 6b 26 bd 50 68 93 3b 10 6d 9c 3b
       0.08683222 -0.040629625 0.004498519 0.0047737435
000270 e6 3e 5b bd 53 ec 2b bd 49 40 a3 bd 41 cf 49 3d
       -0.05352678 -0.041973423 -0.07971246 0.04926992
000280 38 1c 5c 3c 94 d9 fa bc d4 dd 75 bd 30 68 3d 3d
       0.013434462 -0.030621327 -0.060026005 0.04624194
000290 b1 2b 64 bd 32 ea 1b 3d 0c 2a 40 bd e1 64 99 3d
       -0.05570573 0.038065143 -0.0469151 0.07489944
0002a0 99 be 42 bd 70 db b6 bc 77 11 64 bd 04 35 4b bd
       -0.04754505 -0.022321433 -0.05568072 -0.049611107
0002b0 04 ce 9f bd 30 b0 4e bc 38 fb 46 bd b1 75 ae 3d
       -0.07802966 -0.012615249 -0.048579425 0.085185416
0002c0 fc 97 0b 3d 29 71 94 3d 12 26 a7 bd a7 62 dc 3c
       0.03408049 0.07248146 -0.08161558 0.02690251
0002d0 e6 7e 40 3d 76 0b fa bc 7d 0c b4 3d 1e f9 43 3d
       0.04699602 -0.030523043 0.087914445 0.047845
0002e0 bc 4e 84 bb fe 9f f7 bc 33 55 85 3d 75 cc 3f 3d
       -0.004037706 -0.030227657 0.06510391 0.046825845
0002f0 b4 ca 7c bd 79 89 8c 3d 46 2a 66 3d 0b 35 91 3d
       -0.06171675 0.06862158 0.05619266 0.07090195
000300 f8 b0 50 bd 64 31 b2 bd 2e 53 b8 bc df 95 05 bd
       -0.05095002 -0.08700827 -0.0225006 -0.03261363
000310 6e 80 32 3d 57 89 a5 3b 32 16 ab bd 6b 17 4e 3d
       0.04357951 0.0050517726 -0.08353843 0.050315302
000320 c8 4b 9c 3d c0 d2 ea 3b 9a 69 af bd 5d 74 a9 bd
       0.076316416 0.0071662366 -0.08565064 -0.08274148
000330 3b 78 a0 bd 20 69 0d bd 43 c3 a4 bc f6 86 a3 3d
       -0.07835432 -0.034524083 -0.02011264 0.07984726
000340 41 4a 18 bd c8 d9 8b bd fb fc c9 bc 00 e4 ed 38
       -0.03718019 -0.06828648 -0.024656763 0.00011343509
000350 dc d0 24 bd 46 b3 6d 3d 8a d3 02 bd 90 9b 6d 3d
       -0.040238246 0.058032297 -0.03194002 0.058009684
000360 ff a0 81 bd ea c7 a1 bd 2d e4 b1 3d d2 e7 a3 bd
       -0.06329536 -0.07899459 0.08686099 -0.080032006
000370 f0 b5 69 bc d2 e5 56 3d ed 82 a0 3d d4 5b ab bc
       -0.014264569 0.052465267 0.07837472 -0.02091781
000380 6f 31 b4 3d eb 65 94 3d 09 ca 94 bd 0e 6d 92 bd
       0.08798491 0.07246002 -0.07265098 -0.07149707
000390 f8 56 dc bc 84 f4 02 bd 02 32 5e 3d 60 54 50 3c
       -0.026896939 -0.03197147 0.05424691 0.012715429
0003a0 be 4d 44 bd 89 a9 af bd 62 05 a4 bd 2f fd 27 bd
       -0.047925703 -0.08577258 -0.08008839 -0.04101294
0003b0 7f 91 72 bd 76 24 bb 3c 0e 7c 21 bd af 86 83 3d
       -0.059220787 0.022844534 -0.03942495 0.06422173
0003c0 a8 b8 97 bd 58 78 06 bc 18 dd 00 bd a0 c4 8d bc
       -0.07408267 -0.008207403 -0.03146085 -0.017305672
0003d0 11 53 78 bd fe 85 cf bb 18 d8 fe 3c 35 cf 9c bd
       -0.060626093 -0.006333112 0.0311089 -0.07656709
0003e0 70 3a 21 bc 55 df d9 3c a5 d5 92 3d 38 92 60 bc
       -0.009840593 0.02659575 0.07169656 -0.013706736
0003f0 42 35 14 3d d3 cd 84 3d 20 e4 20 bb f6 59 4d 3d
       0.036183603 0.0648457 -0.0024550036 0.05013462

linear2.bias f4 [256]
000000 0f bb 88 bd e7 e9 48 bd a0 86 10 3d ce d6 4d bd
       -0.066763036 -0.04905119 0.03528464 -0.05025368
000010 e6 a4 b5 bd a3 2e 7c bd f3 11 71 3d 03 e5 c3 3d
       -0.088693425 -0.061567914 0.05885501 0.09565165
000020 f4 29 3f bd cf fd d8 3c e5 b7 91 bd c9 6f a8 bd
       -0.04667087 0.026488213 -0.07115153 -0.08224446
000030 56 20 68 3c 22 63 96 3c 80 87 00 bc 6b cc 31 bd
       0.014167866 0.018357817 -0.007844806 -0.04340784
000040 a7 c9 92 bd a1 ec de bd 60 1f 17 bd c7 c6 0a bd
       -0.071673684 -0.10884977 -0.036895156 -0.033880975
000050 0c 28 a9 bc e9 94 a4 3d d9 09 b9 bd f0 eb 16 bb
       -0.020648979 0.08036215 -0.090350814 -0.0023028813
000060 fe dd 0b bc 41 d5 c8 bd 82 1f a1 bd bb f6 ab bd
       -0.008536814 -0.098063 -0.07867338 -0.083966695
000070 7c 81 44 bd 31 08 4e bb b6 21 a5 3d 83 7b d8 bd
       -0.04797505 -0.0031437988 0.080630705 -0.10570433
000080 50 a2 a2 3d c5 43 43 bd 03 95 0a 3d cf 07 70 bd
       0.07941115 -0.047672052 0.033833515 -0.058601197
000090 9d 85 d5 bc 8f 9e 05 3d 00 e3 93 bd 71 a4 97 bd
       -0.026064688 0.032621916 -0.07221031 -0.074044116
0000a0 a5 41 cc 3d 4f b9 b0 bc 4a c1 6b bc 8e a0 44 3c
       0.09973458 -0.021572737 -0.014389345 0.01200117
0000b0 37 b9 38 bd 09 7f b8 3b e5 92 c1 bc 2d 10 90 3d
       -0.04509851 0.005630378 -0.023629615 0.07034335
0000c0 f7 0f ac bd 98 b4 72 bb 69 ef c2 bc 4f 5d 85 bd
       -0.084014826 -0.0037033912 -0.0237958 -0.06511938
0000d0 8f cf 8c 3c 12 06 94 3b 9b f2 ab 3c 69 0e d5 3c
       0.017188815 0.004517325 0.020989707 0.026007848
0000e0 ea e7 8c bd 7f 91 40 bb 68 ea 77 3d ff 1c 18 bd
       -0.068801716 -0.0029383597 0.06052628 -0.037137028
0000f0 8f 7f 97 bd 0b 2d b3 3d 2f 10 5a bd d3 3b 8c bc
       -0.07397377 0.08748826 -0.05323809 -0.01711837
000100 f7 09 dc 3c d6 24 d1 3d 3c 9f 99 3b 79 5f bb 3d
       0.02686022 0.10212104 0.0046881717 0.09149069
000110 32 2b a6 bd c8 eb fe 3c 1b a6 9f 3d ba bd 41 bd
       -0.081137076 0.031118289 0.07795354 -0.047300078
000120 7b 62 62 bd 9d 62 e9 bc 44 e4 86 bc 13 69 85 3d
       -0.0552697 -0.028489405 -0.016466267 0.06514182
000130 c2 88 3c 3e 0a fb a2 bd cc 6d 29 bd bf c5 f0 bb
       0.18411544 -0.07958038 -0.041364476 -0.007347792
000140 c3 d2 15 3e 23 3f 3b 3e c1 05 8b bd 3c 1a 85 bd
       0.1463118 0.18285803 -0.06788207 -0.064991444
000150 93 8b 2d bd 62 a4 ae bd 8e ea c2 bd 47 22 61 bd
       -0.042369436 -0.08527447 -0.09517394 -0.05496433
000160 fa 37 23 bd 43 b4 d9 3a 0f 21 a8 3d e3 e7 44 3a
       -0.039848305 0.0016609508 0.082094304 0.00075113605
000170 1b 58 7d bd 63 42 ef bc 6b a1 04 3e dd 24 d3 3d
       -0.061851602 -0.02920646 0.12952201 0.103097655
000180 b4 ca 59 bd 33 2d 0c bd b4 c3 d8 3d bb be 2d 3c
       -0.05317183 -0.034222793 0.105842024 0.010604556
000190 40 ec 51 bd 5b 54 dc 3d e2 c3 6c bc f2 da a7 bc
       -0.051250696 0.10758277 -0.014450999 -0.020490143
0001a0 fe 1b f0 bc 66 b8 05 3e 37 e9 8f bd 73 21 0a 3c
       -0.029310223 0.13058624 -0.07026904 0.0084308265
0001b0 8e 38 b3 bd 0d e0 a2 bd 37 2f bc 3d 57 df b5 bc
       -0.08751021 -0.079528905 0.09188693 -0.022201223
0001c0 a8 fe 20 3d 7d 98 09 3e 0b f4 cd 3d 1f 23 58 3e
       0.03930536 0.13437076 0.10056313 0.21107148
0001d0 8a d5 f3 bb 14 f5 b9 bc 8b 24 1b bc 6b 5f 92 3b
       -0.0074412273 -0.02269987 -0.009469162 0.004466941
0001e0 b8 75 5e bd 97 73 f5 bc 64 92 0f 3d c7 26 70 3c
       -0.054311484 -0.029962344 0.03505172 0.014657683
0001f0 7b d7 f8 ba 85 56 c7 3d a8 90 1f bd 27 79 62 bd
       -0.0018985117 0.09733299 -0.038956314 -0.05529132
000200 ae e3 6e 3c ae 02 0f bd 43 96 d3 3c 5e 27 80 bd
       0.01458065 -0.034914665 0.025828486 -0.06257509
000210 7d 9c 6e bd c4 1f 95 3b dd 6d a7 bd 1c d3 b6 3c
       -0.058254708 0.004550906 -0.08175252 0.022317462
000220 64 24 87 bd 32 26 91 bd ee db ce 3b 88 9d 88 bd
       -0.06598738 -0.07087363 0.0063128388 -0.06670672
000230 d1 62 5e bd 56 73 9a bc 7a 72 2a bd e5 30 a3 3d
       -0.054293457 -0.018853825 -0.04161308 0.0796831
000240 0b 0b a9 bb 00 07 22 bd b8 13 8b 3a 20 40 3b bc
       -0.005158787 -0.039557457 0.0010610735 -0.011428863
000250 ee 2e ea bd ac 6d 53 bc e0 67 83 bc a9 c9 fd bc
       -0.114347324 -0.012904566 -0.016040742 -0.030979948
000260 39 40 b0 bc 73 4f 48 bc b8 f9 d7 bc 40 9d 05 3d
       -0.021514999 -0.012225973 -0.026364192 0.03262067
000270 7f 58 df bc 7b 88 80 3d d2 71 dd 3c 35 de ac bd
       -0.027263878 0.062760316 0.027031813 -0.0844082
000280 76 ed 5b bd e1 0d 91 bc 23 c9 cc bc a8 c6 18 bd
       -0.053693257 -0.017706813 -0.024998253 -0.03729883
000290 38 d4 85 3c d4 4f c6 bd c2 42 6c 3d 50 2d 49 bc
       0.016336545 -0.09683195 0.057680853 -0.01227887
0002a0 74 a8 71 bd 28 64 ae 3c 9d a8 ad bd 1d 20 95 bd
       -0.05899854 0.021287993 -0.08479426 -0.07281516
0002b0 38 80 cc bd ff 41 c5 bd 67 ed ab bd 3b 47 f5 b8
       -0.09985393 -0.096317284 -0.0839489 -0.00011695778
0002c0 20 8c a5 bd 10 21 83 3a 1d 80 9f bd 83 28 3f 3e
       -0.08083367 0.001000436 -0.077881075 0.18667798
0002d0 75 8e ef bb 17 10 69 3d 55 af 13 3d c1 ef 8a bd
       -0.0073106834 0.05690011 0.03605588 -0.06784011
0002e0 b8 25 3f bd 51 76 00 bd 93 a5 8e bc e6 2a d7 bd
       -0.04666683 -0.031362835 -0.017412936 -0.10506229
0002f0 50 3b ac bd 8f 4f 82 3d 75 50 a2 bd 19 97 8c 3b
       -0.084097505 0.06362831 -0.07925502 0.004290473
000300 7c 88 c8 3c 68 8d 9a bd 2f 3c 9f 3d 35 81 ee bc
       0.024479143 -0.07546502 0.07775151 -0.029114345
000310 60 37 d5 3c 59 41 b6 bc 49 8b 80 3b 32 ef c6 bc
       0.026027381 -0.022247957 0.003922854 -0.02428398
000320 38 96 d6 bc 15 82 13 bd d7 76 0e 3e 29 9f 98 3d
       -0.026194677 -0.036012728 0.13912521 0.074522324
000330 89 c2 6a bd d5 e4 12 3e 70 99 f1 ba 5c 8e 84 3c
       -0.05731443 0.14345105 -0.0018432569 0.016181163
000340 7f 2e 23 bd 80 17 57 bb f6 fa 8c 3c de 2b 19 bd
       -0.039839264 -0.0032820404 0.017209511 -0.03739535
000350 5e 63 48 bd 99 08 1f bd 8c 08 a0 bd f6 51 a8 bd
       -0.04892289 -0.03882656 -0.0781413 -0.08218758
000360 91 b1 51 3c da a3 6f bd 10 b4 5a bd 14 a3 39 3e
       0.012798683 -0.05850587 -0.053394377 0.18128616
000370 23 81 85 bd fc 73 eb 3a 29 49 05 bd ae c2 1b bd
       -0.065187715 0.0017963643 -0.032540474 -0.038027458
000380 56 32 c2 ba 43 1a 85 3d 41 77 92 bd 11 6e 5d 3b
       -0.0014816027 0.0649915 -0.07151652 0.0033787529
000390 10 d7 c6 bc ac dd a9 bd 9f 89 81 3c 98 4e 62 bb
       -0.024272472 -0.08294234 0.015812693 -0.0034531709
0003a0 11 8d 0b 3e 40 4f ac bd ea a5 94 bd ce 8d 1f 3e
       0.13628031 -0.08413553 -0.07258208 0.15581438
0003b0 d0 9d 8d bb fa c6 bc bd 7d c1 e1 ba ff fd 1d 39
       -0.004321791 -0.09217639 -0.0017223802 0.00015067308
0003c0 68 38 4a 3d 4a 89 2d bd 06 a9 bb 3d 9e 0d da bc
       0.0493702 -0.042367257 0.09163098 -0.026617821
0003d0 82 6c 3c bc b9 36 e5 3c 07 14 69 bc 9b 7b e4 bd
       -0.01150048 0.027980195 -0.014225966 -0.11156388
0003e0 b9 b6 38 3e 57 a7 ea 3d 32 d6 cc 3d 67 fa 2c 3c
       0.18038453 0.11457699 0.10001792 0.010557747
0003f0 1c 86 2f bb 63 f0 41 3c 33 b8 83 3d 80 74 c5 bc
       -0.0026782816 0.011837098 0.064316176 -0.024103403

linear3.weight f4 [128, 256]
000000 bd e9 70 3d 18 ed 9f 3c 76 15 8f bd 90 fb 9b bc
       0.05881666 0.019522235 -0.06986515 -0.019040853
000010 ab 09 3a bd 68 43 b5 bc 2a 27 80 bc 37 d9 2e 3d
       -0.045419376 -0.022126868 -0.015643675 0.04268762
000020 82 4e 7a bd 1c e5 0c bc 59 d4 a4 3c 00 bd 21 3a
       -0.061110027 -0.008599546 0.020120787 0.0006169826
000030 09 ef b3 bb 5f b7 95 3c 08 fb df bb 24 06 2c bd
       -0.0054911417 0.018275915 -0.006835345 -0.041998044
000040 55 36 96 bc d9 6c bb bd 53 ea 17 3d ff 71 13 3d
       -0.018336454 -0.091516204 0.037088703 0.035997387
000050 9c de b9 3c f4 41 0e bd 39 70 4a 3d d4 09 54 3d
       0.022689156 -0.034730867 0.04942343 0.051767185
000060 c0 96 32 3d c7 32 c4 bc dc 1b 5b 3d 94 0c fe 3c
       0.043600798 -0.023949994 0.053493366 0.031011857
000070 3a 6a 7b bd 33 bf 08 3d 6f 74 20 3c 34 11 15 bd
       -0.061380602 0.033385467 0.009793385 -0.03639336
000080 21 c4 ed bc 9f a3 9e bc ef 22 de bc 31 8b 5e bd
       -0.029024186 -0.01936513 -0.027116267 -0.054331962
000090 80 59 93 3c ae d9 0a ba e1 fa 63 bb e4 e3 ba bc
       0.017987013 -0.0005296719 -0.0034786987 -0.022813745
0000a0 f8 c3 99 bc d4 2c e7 3c 5e 29 2c 3d 24 bc 94 bb
       -0.018770203 0.028219618 0.04203164 -0.0045390297
0000b0 94 d4 13 3d c9 8c 11 3c 24 32 3a 3d de 3f 5a bd
       0.036091402 0.008883663 0.045457974 -0.053283565
0000c0 de e9 57 3c 17 7a e7 3b 24 e2 51 bd 42 82 2a 3d
       0.013178317 0.007064115 -0.051241055 0.04162813
0000d0 4f be a2 3c 50 b4 79 3d f0 73 7f 3b ba 3e 36 bd
       0.019866137 0.060962975 0.0038979016 -0.044493414
0000e0 50 42 65 bd 68 73 0a 3b 68 34 28 bc fc 46 7d bd
       -0.055971444 0.0021125916 -0.010266401 -0.061835274
0000f0 c0 1a 7c 3c 7d 49 82 bd ae 56 34 3d 36 47 97 38
       0.015387237 -0.06361673 0.044027977 7.213505e-05
000100 61 4d 7b bd 8f 94 cc 3c 71 6f 26 bd aa b4 88 bd
       -0.06135309 0.024973182 -0.040633623 -0.06675084
000110 98 56 36 bd c9 a2 65 3d 0c dc 0c 3c ab e0 b7 3c
       -0.044516176 0.056063447 0.008597385 0.022445997
000120 00 95 03 3a 1f 10 13 bd 0d 40 9f b8 aa 2b 78 bc
       0.0005019456 -0.035904046 -7.593641e-05 -0.015147129
000130 8e d7 2f bd 74 dc 3b 3d b0 1c a7 3b 67 32 2e bc
       -0.04293018 0.045864537 0.0050998554 -0.010632134
000140 57 c8 2c 3b e7 9f 5c bd 3e bf 58 3d 90 0a 1f bd
       0.002636453 -0.053863432 0.052916758 -0.038828433
000150 20 3b f2 bc 40 09 46 3b ae fd 71 3d 80 49 42 3d
       -0.029569209 0.0030217916 0.05907982 0.047433376
000160 fc e2 fb bc 74 82 ba bc 97 b8 f1 bc 0c 29 24 bd
       -0.030747883 -0.022767283 -0.029506965 -0.040078208
000170 4c 35 cf bc 15 1a d9 bc a9 98 fc 3c d1 86 2d 3c
       -0.025293969 -0.026501695 0.030834513 0.010591225
000180 80 34 09 3a 38 87 06 bc c1 9d 20 bd 17 82 0e 3c
       0.00052339584 -0.00821095 -0.039212946 0.008698008
000190 d0 81 2e bb c0 58 d5 3c 12 c7 81 bc c2 50 13 bd
       -0.0026627667 0.026043296 -0.015841994 -0.03596569
0001a0 42 01 a1 3c a6 ee 07 bd c6 44 b0 3c 48 85 3b 3d
       0.01965392 -0.033186577 0.021517169 0.045781404
0001b0 44 a7 85 3c fc eb f6 3c 51 d9 69 bd 5e 5c f7 bc
       0.01631511 0.030141823 -0.057092015 -0.030195411
0001c0 00 2c d0 3b 8f a5 d3 bc 1e 4e 9d bb 2f 52 55 bd
       0.0063529015 -0.02583578 -0.004800572 -0.05208033
0001d0 b0 53 5d bd 73 1f a7 bc 20 39 65 bb 26 0e 21 bd
       -0.05403489 -0.020400738 -0.0034976676 -0.039320134
0001e0 30 e2 c2 bc 08 3c 2e bd 32 aa 26 bd 58 ad 4e bd
       -0.023789495 -0.04253772 -0.040689655 -0.050458282
0001f0 35 c6 ae 3a 82 f1 21 3d 15 e0 94 bc b2 08 2b bd
       0.0013334217 0.03953696 -0.018173257 -0.04175634
000200 f4 6d ba bc 66 da b1 bc 42 e8 43 bb d0 c6 85 bc
       -0.022757508 -0.021710586 -0.0029893075 -0.016330153
000210 4d 62 03 3d a9 25 95 bc f4 0c 0e 3d 6b d9 5e 3d
       0.03207617 -0.018206434 0.03468032 0.054406565
000220 89 a2 33 bd 9e a7 6b 3d ab c0 ba 39 91 0b 10 bd
       -0.043856177 0.0575329 0.00035620233 -0.03516728
000230 7c 51 b1 bc e9 a0 1c 3d d5 41 84 3c 31 6d 94 3c
       -0.0216453 0.038239393 0.016144672 0.018118473
000240 41 6e 99 3b 59 13 67 3c ce a2 a6 bb 40 14 87 3b
       0.0046823327 0.014103734 -0.005085326 0.004122287
000250 d8 0e 22 3d 4c c9 de bc 00 fa 02 bc 23 59 d6 bc
       0.039564937 -0.027195595 -0.007994175 -0.02616555
000260 6c f5 ef bc 5c 02 87 bd 24 84 70 3c 73 a2 54 3c
       -0.029291831 -0.06592247 0.014679942 0.012978184
000270 40 c8 60 3c b1 68 96 ba 98 93 73 bd 59 98 18 b8
       0.013719618 -0.0011475292 -0.05946693 -3.638151e-05
000280 b5 5f 60 bd b1 4c 41 bd 4a cb 5a bd 28 16 59 3c
       -0.054778773 -0.04719228 -0.053416528 0.013249911
000290 15 93 8a 3c 8e fd a5 39 f7 47 6d bd f6 3e f8 bb
       0.016915837 0.00031660165 -0.05792996 -0.007575865
0002a0 b4 57 80 bc 58 71 3f bd aa 9a 4e 3d 80 01 b9 bc
       -0.01566682 -0.046738952 0.050440468 -0.022583723
0002b0 6c e3 9f bd 5e 6f cf bb 68 be 3f bd 1e 3f 17 bd
       -0.07807049 -0.0063304147 -0.046812445 -0.036925428
0002c0 2f c8 6b 39 71 98 b6 3c a6 24 19 3d 79 e4 7b bd
       0.0002248592 0.022289487 0.037388466 -0.061497185
0002d0 64 a7 28 3d cc bc c5 bc fe da 69 3d d8 38 31 3c
       0.04117526 -0.024137877 0.057093613 0.010816775
0002e0 0c aa 99 bc 62 65 7c 3d a8 c4 ff 3c 4f b1 9c bc
       -0.018757842 0.061620124 0.031221703 -0.019127516
0002f0 20 9d 60 bb 19 99 e2 bc af 5a 31 bd 8d 93 61 bd
       -0.0034273341 -0.027660893 -0.043299373 -0.055072356
000300 22 a1 be bc 92 55 30 3d 58 5b f0 bc dc 7f 85 bd
       -0.023270193 0.043050356 -0.029340431 -0.06518528
000310 b8 fc 01 3d 2e 1d 3e 3d 10 3b a5 3c 9e bf 37 bd
       0.031735152 0.046414547 0.020169765 -0.044860475
000320 4c 60 92 bc 30 95 0e 3d 6b 58 41 bd 7d 1a cc bc
       -0.017868184 0.034810245 -0.047203463 -0.024914974
000330 40 12 40 3d 91 e2 33 3d 23 7c 5a 3d 6c 7a 1b bd
       0.046892405 0.043917242 0.053341042 -0.037958547
000340 70 d1 e9 3c 8a ff 0d bd 09 ac a6 bc 88 e0 0a 3c
       0.02854225 -0.03466753 -0.020345705 0.008476384
000350 70 06 7b 3c 08 8b 59 3b 6c dc 77 3d c8 ef 42 3d
       0.015321359 0.0033194441 0.060512945 0.047591954
000360 33 77 88 bc d2 67 12 3d a8 f6 d8 bc 09 98 49 3d
       -0.016658401 0.035743542 -0.026484802 0.049217258
000370 54 33 d2 bc 40 41 a0 bb 82 8a 0d bd 63 b1 06 3d
       -0.02565924 -0.004890591 -0.03455592 0.032884013
000380 ed fc fa bb 56 d0 76 bd 40 28 2c 3d 4d cf 1d bc
       -0.0076595456 -0.06025728 0.042030573 -0.009631944
000390 04 33 a7 bc f0 48 74 3d c1 0e e6 bc cc 42 ab bc
       -0.020410068 0.05963987 -0.028083207 -0.020905875
0003a0 d1 63 e1 3c 20 71 57 bc 90 eb 8b bb 3b b6 bc bc
       0.027513416 -0.01314953 -0.0042700246 -0.023036113
0003b0 5c 5a db 38 30 e8 dd bb 70 65 6d 3c 37 09 56 bb
       0.000104595645 -0.0067720637 0.014489517 -0.00326593
0003c0 1a ff df 3c 02 30 37 bd f9 02 82 bd d4 c7 18 bd
       0.027343322 -0.04472352 -0.06348223 -0.037299946
0003d0 44 38 b1 bc 3c ae 2c 3b b8 c0 2a 3d 9b 2c 72 3c
       -0.021633275 0.002634897 0.041687697 0.014781143
0003e0 11 20 41 bd 47 8e 3b 3d 46 d2 d4 3c 25 ed 96 3c
       -0.04714972 0.045789983 0.025979172 0.018423626
0003f0 ed 59 10 bd fa d3 6e bd 04 35 f1 bc 65 69 96 bd
       -0.03524201 -0.058307625 -0.029444225 -0.07344321

linear3.bias f4 [128]
000000 8b 20 0b 3d 6f 7d a6 bc 7a 7c 92 3d 71 37 49 3c
       0.033966582 -0.020323483 0.07152648 0.012281285
000010 ce 10 2c 3d 4b 40 07 bd 3b 1a 5a bd 19 1b a7 3c
       0.042008214 -0.0330203 -0.05324767 0.020398663
000020 59 a7 cb bb cb 30 5e 3d c9 c6 b9 bd ee b8 46 3d
       -0.0062150178 0.05424575 -0.090711184 0.048516206
000030 c5 28 4c bd bb 16 da 3b 18 85 ce bc 22 0c 2f bd
       -0.04984357 0.0066555417 -0.025209948 -0.04273618
000040 b8 af 6d bc 2b 27 69 3d a9 00 17 bd 28 ea 16 bd
       -0.014507227 0.05692212 -0.036865864 -0.036844403
000050 62 14 16 bc cc e2 5d bd 9b 34 67 bd 92 75 bb 3c
       -0.009160133 -0.05417137 -0.056446653 0.02288321
000060 81 17 2a bd 06 0d bf 3b e3 a9 e5 bc 2d 3e 95 bd
       -0.04152632 0.00583041 -0.02803511 -0.0728725
000070 5b 8d a5 bd 15 b5 3b bd 32 9a ee bc dc b6 89 bd
       -0.08083602 -0.04582699 -0.02912626 -0.06724331
000080 81 d3 0a bd d6 42 71 bc 17 e7 11 bd a1 cd e8 3c
       -0.033893112 -0.014725408 -0.035620775 0.028418364
000090 1b 36 ba bd ee ee 33 bd fe 64 86 bd e4 81 f7 3c
       -0.09092351 -0.043929033 -0.065622315 0.030213304
0000a0 ad 27 9a bd 9c af 08 bd 72 f7 7a bd 05 80 08 bc
       -0.07527099 -0.0333706 -0.06127114 -0.0083313035
0000b0 34 1e 4e bc 82 68 fe ba 3e 5e 24 3d 4f b3 3f bc
       -0.012580443 -0.0019409808 0.04012894 -0.011700465
0000c0 5f 5a 1f bd ac 40 78 3d d6 d5 95 bc cd e1 4f 3d
       -0.038904544 0.06060855 -0.018290441 0.05075245
0000d0 7a 4e 5e 3d d6 1c 4d bd 42 aa 0e bd ba 6c 95 3c
       0.05427406 -0.05007633 -0.03483034 0.018240321
0000e0 f1 6f 5c 3b 90 67 dd bd ce 8f ef bb 31 84 d0 38
       0.0033636058 -0.108107686 -0.007310844 9.9428355e-05
0000f0 10 a4 a4 3c 09 ae 7e 3d dd 48 15 bd 54 85 cf bc
       0.020097762 0.06217769 -0.03644644 -0.02533213
000100 f4 4a 40 bd 33 bb d5 bb e8 3f a2 3c 6d d7 fd 3c
       -0.04694648 -0.00652256 0.019805863 0.030986512
000110 b4 33 56 bd 38 b2 82 3c e8 04 17 bd 6e 3c a5 3d
       -0.0522954 0.015954122 -0.036869913 0.08068167
000120 45 d1 83 bd b2 7f a8 bc 3e f8 85 bc 4e d1 d8 bc
       -0.06436399 -0.020568702 -0.016353723 -0.026466992
000130 16 a0 b7 3c 6e 76 a1 bc c8 2d 5e bd bd 98 30 3c
       0.022415202 -0.019709792 -0.05424288 0.010778603
000140 de 51 15 bd 53 d8 1a bd f6 19 11 bd 89 3c c6 bb
       -0.036455028 -0.03780396 -0.03542515 -0.006049697
000150 42 a3 34 3d c5 19 87 bc 30 33 55 bd 63 22 6e bd
       0.044101007 -0.01649178 -0.05205077 -0.058138262
000160 30 f3 9e 3c d9 a8 15 3d 35 cc ee bc 89 b5 22 3c
       0.01940307 0.03653798 -0.029150108 0.009930977
000170 32 6e a5 bc 19 49 9e 3d 56 51 56 bd d4 84 2c bd
       -0.020194147 0.07728786 -0.05232366 -0.042118862
000180 2b 34 fd bc 00 a7 b2 3c ae 38 6e bd e1 4a b2 3c
       -0.030908665 0.021808147 -0.058159523 0.02176422
000190 85 48 1e bd 53 b7 71 bd 3c cb 7e bc 8f 31 f7 3b
       -0.03864338 -0.059012722 -0.015551385 0.0075437496
0001a0 9b c3 95 bc a0 7b 91 3d a0 48 94 3c e7 21 90 bd
       -0.018281749 0.07103658 0.018101037 -0.07037716
0001b0 7d 29 28 bd c3 42 95 bd 5f 19 36 bb d9 64 fa 3c
       -0.04105519 -0.072881244 -0.0027786118 0.030565666
0001c0 75 ab 13 bd 21 28 9f bd 13 59 0c 3d a8 af c2 bc
       -0.036052186 -0.07771326 0.034264635 -0.0237654
0001d0 e6 21 b1 3d 38 68 89 bb 4f 3c 20 39 11 4a 5c 3c
       0.08649044 -0.004193332 0.00015281256 0.013445393
0001e0 1b ae 3f bd b8 78 57 bd 7d 38 2e bb f0 5c 89 bd
       -0.0467969 -0.05260536 -0.0026583963 -0.067071795
0001f0 33 74 b4 bc c4 a7 2e bd bd 30 a6 3b 27 5a d4 3c
       -0.022028064 -0.042640463 0.005071728 0.025921894

linear4.weight f4 [64, 128]
000000 db 13 c5 3c b0 8f 84 3d 1b a7 4f 3d 37 5b 29 3d
       0.02405732 0.06472719 0.050696474 0.041346755
000010 63 e3 3e bd 63 a6 79 bd d6 dd 3e 3d d0 9b 56 3d
       -0.04660357 -0.060949694 0.046598278 0.052394688
000020 3e a0 20 3d 43 ae 63 bd 6a 23 3c 3d b9 4d 01 bc
       0.03921532 -0.05558611 0.04593221 -0.007892066
000030 71 24 ad 3d 61 b6 12 be 03 cd c3 bc 9b fc 96 3c
       0.08454216 -0.14327385 -0.023901468 0.018430999
000040 cc d3 8d 3d 49 11 9d 3d 75 41 90 3d e8 ae 14 3c
       0.06925163 0.076693125 0.07043735 0.009074904
000050 4c 4a 3a bd be 9d c1 3d 41 dc 5c 3c 8f f1 1d 3d
       -0.04548101 0.09453915 0.013480247 0.038560446
000060 ee 8b 2e 3c a0 c5 86 bd 6f d1 f1 39 18 68 70 bc
       0.010653479 -0.06580663 0.00046123142 -0.014673255
000070 05 76 a8 3d 5c e6 b4 bc ff d3 b9 3c 90 20 91 3d
       0.082256354 -0.0220825 0.022684095 0.07086289
000080 31 8b a6 bd d5 93 e9 bd f6 69 dd 3c 9e 5a 83 3d
       -0.081320174 -0.1140515 0.027028065 0.06413768
000090 24 10 c2 3d 6c 17 a7 3c 7b 28 06 3b fc 04 9b bd
       0.09475735 0.02039691 0.0020470906 -0.0756931
0000a0 70 2a cb bc 2c c7 9d bd bc 7d d3 bc 12 d8 59 bd
       -0.02480051 -0.07704005 -0.02581679 -0.053184576
0000b0 5b 6b 61 3d b0 84 05 3b a8 77 48 3d 3f 06 88 bd
       0.055034023 0.0020373277 0.048942238 -0.06641816
0000c0 e3 2b dc bc 33 ce 4f 3d 80 a9 2e bb 67 4d df bc
       -0.026876396 0.050733756 -0.0026651323 -0.027258588
0000d0 c5 ee ca 3d d0 3e 3e bc 08 b6 7b 3d cb 1f 2d bd
       0.09908823 -0.011611655 0.061452895 -0.04226665
0000e0 86 7c bb 3d ca ee 6e 3d 76 de b8 bd 00 5d d3 bd
       0.0915461 0.058333196 -0.09026806 -0.10320473
0000f0 4a f6 17 3d 79 8c 43 bd ca fd 57 bd fb 2b f8 bc
       0.037100114 -0.047741387 -0.052732266 -0.030294409
000100 ce db 2c 3d cf db 8b 3d ee 4c ca 3c d7 bf ce bd
       0.04220181 0.068290345 0.024694886 -0.10095184
000110 63 a3 5f bc 30 70 04 3c fd d3 65 bd be 6c 86 bd
       -0.013649794 0.008083388 -0.05611037 -0.0656371
000120 35 1b 17 ba f3 af c7 bd 32 4c 9a bd 0a c5 ee bc
       -0.0005764247 -0.097503565 -0.07534064 -0.02914669
000130 6a 94 22 bd 61 33 a9 bd 64 44 8e bd 2b 7b 71 bd
       -0.03969232 -0.08261753 -0.06946638 -0.058955353
000140 4a 68 8d bc 0f 77 0a bd 36 ce 6f 3d 15 73 25 bd
       -0.017261643 -0.03380495 0.058546267 -0.040392954
000150 5e df c3 bc 84 1c 91 3c 3f 97 6b bd 4c cc 73 bd
       -0.02391022 0.017713793 -0.057517286 -0.059521005
000160 17 e2 13 3d 34 98 17 bd 64 79 a2 3c a4 ec bf bb
       0.036104288 -0.037010387 0.019833274 -0.005857067
000170 38 2e da 3c 6d 4d 4d 3d 3c c4 ae bd e3 b0 39 3d
       0.026633367 0.050122667 -0.085335225 0.045334708
000180 dc 0b 95 bd de b5 7c 3d a6 2e 19 3d ca 9a 82 bd
       -0.072776526 0.06169688 0.037398003 -0.0637718
000190 17 b0 a4 3d 7d 91 a9 bd 41 32 98 3d 2a 24 6c 3d
       0.08041399 -0.08279703 0.0743146 0.057651676
0001a0 e2 56 95 bd cc 99 5f bb f8 0f 10 3d 2e 82 e3 bb
       -0.07291962 -0.003411877 0.03517148 -0.006943009
0001b0 d0 6e 38 bd a0 ec 2c bc a5 21 13 bd f5 ce 55 3a
       -0.045027554 -0.010554463 -0.035920758 0.0008156144
0001c0 af 51 2f bd 34 17 ab 3c 2b 75 82 bd 9a 98 c4 3d
       -0.04280251 0.020885088 -0.06370004 0.09599419
0001d0 1f 0b ea bd cd 2c b3 3d 91 b0 a8 3d 48 9e 77 3c
       -0.114279024 0.087487794 0.08236802 0.015113421
0001e0 02 ca 61 3b 74 70 4c bd b3 7e 5e bd 97 cc 1b 3d
       0.0034452681 -0.04991193 -0.05432005 0.03803691
0001f0 d4 4e 7a bd 60 c8 03 3d f2 05 78 3a 7a 4c 4e bc
       -0.061110333 0.032173514 0.0009461335 -0.012591476
000200 9e 5c 9d bd 65 6c 90 3d 84 a6 09 bb 30 12 40 3d
       -0.07683681 0.070519246 -0.0021003792 0.046892345
000210 b7 50 67 bd 80 41 77 3b fb f0 a7 bd 4b 7a 97 3b
       -0.05647346 0.003772825 -0.0820026 0.0046227328
000220 5e 3d 67 bd 79 10 2d bd c2 5c 2c 3d 88 3e bf 3d
       -0.05645501 -0.042252038 0.04208065 0.09338099
000230 d7 44 34 bd de eb 02 3e 5f 46 8e 3d d5 9b fa 3c
       -0.044010963 0.12785289 0.06947016 0.030591885
000240 ee 8b a4 bd d8 2d bf 3b 78 5d 70 3d 90 35 39 bd
       -0.08034502 0.0058343224 0.05868289 -0.045217097
000250 ab 9d 95 bc b0 32 17 3d 8f ce 8d bd 41 aa 85 bb
       -0.018263659 0.036913574 -0.069241636 -0.0040791337
000260 6a 41 18 3c 77 8b bb bd 1d b2 b0 bc 20 f4 20 3b
       0.00929294 -0.0915746 -0.021569306 0.0024559572
000270 fe 5e 5d 3d 88 6e 4c 3c 4f 6b 12 be 87 70 a9 bd
       0.05404567 0.012477525 -0.14298747 -0.08273416
000280 45 73 55 bd f7 be b3 bc b3 64 42 3d 6d eb d7 bd
       -0.052111883 -0.021941645 0.047459316 -0.10542951
000290 1b 13 dc bd 98 b5 4e bd a0 ff 95 bc d0 25 24 bd
       -0.107458316 -0.05046615 -0.018310368 -0.040075123
0002a0 e7 8a 70 bd 7c 4d 00 bd c7 51 7b bd 24 4f 4b 3d
       -0.058726218 -0.031323895 -0.061357286 0.04963602
0002b0 42 2d 6e bd 7d 49 4d 3c d1 aa 9a 3c 56 f2 73 bd
       -0.05814863 0.012529728 0.01888028 -0.05955728
0002c0 7b e8 a7 3d f6 a3 ca bd 1a f5 6f 3d c9 3b d5 3c
       0.08198639 -0.09894554 0.058583356 0.026029484
0002d0 6d f3 bb 3d 8a ad 45 3d 6d 51 86 bb 25 c5 0f bd
       0.09177289 0.048261203 -0.004099062 -0.03510012
0002e0 9f ca 0d 3d 98 9c 20 bc 24 f9 50 3d 1d 96 c3 3d
       0.034617063 -0.00980296 0.05101885 0.09550116
0002f0 5b 93 f4 3d b9 98 ad 3d 36 37 4b 3c 80 f4 b0 3d
       0.11942168 0.08476395 0.0124033 0.08640385
000300 78 c1 25 3d 5c 9e 24 bc 1e d8 90 bd 73 1f 21 3d
       0.04046771 -0.010047521 -0.07072471 0.039336633
000310 76 ed 1a bc 8a 6a 3c bd dc 7d a1 3c 34 cf e9 bc
       -0.009456029 -0.04600004 0.019713335 -0.028541185
000320 78 1a 88 bc c2 9a 57 bd c0 48 9e bd 69 9f 1b 3c
       -0.016614184 -0.052637823 -0.0772872 0.009498456
000330 dd 62 c9 3d 02 83 6d bd c0 07 43 3c 93 e1 8d 3d
       0.0983331 -0.057986267 0.011903703 0.069277905
000340 08 57 a9 3c 8a a9 24 bd d0 95 1b bc 18 76 0b bd
       0.020671383 -0.040200748 -0.009496167 -0.03404817
000350 2c e4 a8 3d b1 98 c2 3d 09 a3 84 bd 45 70 4d bd
       0.08246645 0.0950178 -0.06476409 -0.050155897
000360 98 ed b5 3c dc 4e 42 3c 08 37 af bc d5 ae 2b 3d
       0.02220802 0.011859622 -0.021388546 0.04191478
000370 7b 22 04 bc c4 37 42 3b 95 ee b0 3d 6c 0b a1 bc
       -0.008064861 0.002963529 0.08639256 -0.019658767
000380 82 bb b0 bd a5 8b 2d bb 34 67 a0 bd bc 52 ae 3d
       -0.08629514 -0.002648094 -0.078321844 0.08511874
000390 40 58 a7 3d c8 64 ab bd 9d da ca bd 4c 60 8f 3d
       0.08171129 -0.08368832 -0.099049784 0.07000789
0003a0 14 1b 4d 3c b8 d2 eb 3d ff 52 72 bd f2 5b 7f 3d
       0.012518663 0.11514801 -0.059161182 0.062343545
0003b0 ac 33 09 bc 12 e0 08 3d 10 8b 21 bd 59 a1 99 bc
       -0.008374136 0.033416815 -0.03943926 -0.018753694
0003c0 e0 70 ca 3c 1f 49 b2 bc ab 16 d3 3d 5d e5 81 3c
       0.024712026 -0.021763382 0.10307058 0.01585644
0003d0 34 47 86 3d 48 86 c5 3c f5 70 e5 bd ab 4a 17 bd
       0.0655655 0.024111882 -0.112031855 -0.036936443
0003e0 f9 a6 87 3d 40 71 a0 bb 05 ab a2 bb 97 cc 84 bd
       0.066236444 -0.004896313 -0.004964235 -0.06484335
0003f0 f0 8a 13 3c 6f b8 3b 3d c9 2d 70 bd 3a 70 0b 3d
       0.009005293 0.045830186 -0.058637414 0.034042574

linear4.bias f4 [64]
000000 e4 ee bb bb 12 40 ce bc 8a 65 a7 bd b6 89 b2 3d
       -0.005735265 -0.025177035 -0.08173664 0.087176725
000010 18 0e a3 bc a4 9c 74 3d ab 84 e9 bc ac 5e d2 bc
       -0.019904181 0.059719697 -0.028505644 -0.025679909
000020 46 91 b8 3d eb 3d b0 bc 76 55 9a bc d9 87 a0 bd
       0.09012084 -0.0215139 -0.01883958 -0.07838411
000030 fb 51 49 bd a3 dd 81 bd 97 75 a5 bd 2e 08 19 bc
       -0.04915045 -0.06341102 -0.08079069 -0.009340329
000040 f0 5e a8 bc e9 69 b0 bc 61 ba 89 bd dd 0c 82 bb
       -0.020553082 -0.021534877 -0.06725002 -0.0039688186
000050 8e f6 0d bd 8e 49 5f bc 92 e5 ab bd 1e 37 4f 3d
       -0.03465896 -0.013628377 -0.083933964 0.050589673
000060 61 3a 7b 3d 90 8c 98 bc 16 da 3d 3d 70 09 85 3d
       0.06133497 -0.018621713 0.04635056 0.06495941
000070 61 b2 84 bd f8 ad 8c bd 8d c4 b9 bd ba 9d 1b bd
       -0.064793356 -0.068691194 -0.09070692 -0.037992217
000080 cb 7d 66 bd df f7 b5 bc c8 1e be 3d 18 47 c3 3b
       -0.05627231 -0.02221292 0.09283215 0.005959403
000090 91 11 8e bd 5f 75 ce 3c 54 ea aa 3d 69 33 26 3d
       -0.06936944 0.025202451 0.08345476 0.040576372
0000a0 28 57 80 37 b4 ea e4 3c c2 56 25 bd 65 23 a2 bd
       1.5299374e-05 0.027943946 -0.04036594 -0.07916907
0000b0 bb ce 52 3d 9a a5 ae bd ec e2 25 3d 59 82 b2 3d
       0.051466685 -0.0852768 0.040499613 0.08716268
0000c0 9d 03 01 3d c9 a7 ab 3b e9 f3 b3 bd 29 e6 b5 bd
       0.031497587 0.0052385074 -0.087867565 -0.0888179
0000d0 25 de c1 bd dc be fa bc 1b ed 8a bd a0 86 4b bd
       -0.09466199 -0.030608587 -0.067835055 -0.049688935
0000e0 32 58 09 bb 17 f5 c4 3a 18 6a 03 3e 0d 0e e0 bc
       -0.002095711 0.0015026656 0.1283344 -0.02735045
0000f0 3a bd 0b 3c cd 16 f4 bc 78 72 43 3d d9 1b f7 bc
       0.008529002 -0.029796029 0.047716588 -0.030164646

linear5.weight f4 [2, 64]
000000 56 f0 9d 3b 0a b0 5e bd 80 0f 97 bb c7 92 ef 3d
       0.00481991 -0.054367103 -0.004610002 0.116979174
000010 4f 01 cf bc f6 9a 05 3e 6f 58 fa 3d 04 ad 62 3d
       -0.025269179 0.13047394 0.122238986 0.05534078
000020 e8 a1 c2 3d 26 8a 09 be 73 08 f7 bd 50 b7 a2 3c
       0.095035374 -0.13431606 -0.120621584 0.0198628
000030 63 14 54 3d 6a e1 7e bd 04 7e 25 bd c9 24 aa bd
       0.051777255 -0.06222669 -0.04040338 -0.083077975
000040 f2 c1 c7 bd a3 01 52 bd 48 a8 89 3d bf 25 45 bc
       -0.09753789 -0.051271092 0.0672155 -0.012032925
000050 79 66 1c bc 5a 87 20 3d 76 97 d0 bd 98 8a be 3d
       -0.009545916 0.03919158 -0.10185139 0.093037784
000060 07 35 1a 3d d8 6e f1 bc d2 2d 61 3c 22 36 08 3e
       0.037648227 -0.0294718 0.013743835 0.133019
000070 86 b2 a7 3d c0 bb 67 3c 27 44 cc 3d 7c ee 92 bd
       0.081883475 0.014143884 0.099739365 -0.071743935
000080 eb 13 9c 3d 1e f8 4e 3d 00 24 0a 3e d2 38 8f 3b
       0.076209866 0.05052959 0.13490295 0.004370787
000090 10 1e b6 bd 81 e4 e9 3d 6f e1 95 3d ef c7 b7 3d
       -0.08892453 0.11420537 0.07318389 0.08973681
0000a0 da b0 40 bd ef dc 0f 3c 3c 96 30 bd 62 8f d5 bd
       -0.04704366 0.008780702 -0.043112025 -0.10427739
0000b0 53 47 25 3d 2d f8 dd 3d 56 6a 70 bc cf 9e b3 bc
       0.040351223 0.108383514 -0.01467379 -0.021926312
0000c0 49 ee b7 bd f4 07 14 bb 6e c2 ef 3d 51 b5 6b bd
       -0.08980996 -0.0022587748 0.117070064 -0.057545964
0000d0 b0 e0 44 bd bc c2 72 bd cc 81 30 3d 00 5e ce 3c
       -0.04806584 -0.059267744 0.043092534 0.025191307
0000e0 0e 3e ea 3b a6 07 e9 bd 8f 9e fe 3d aa ab 63 bd
       0.007148511 -0.11378412 0.124325864 -0.055583633
0000f0 1b dd 65 3b 59 a3 bf 3d bf 98 e5 bc eb 3e 53 bc
       0.0035074416 0.09357328 -0.028026937 -0.012893419
000100 0e 04 8a bd 4d 9e bb 3c cc 09 d9 bd b0 a1 30 bc
       -0.067390546 0.022902632 -0.10597572 -0.010780737
000110 6a 19 9a 3d cf ca cb bd 2a ed 70 bd 4b eb 83 bb
       0.075243786 -0.09950792 -0.058819927 -0.004025852
000120 8f 96 14 3e 53 ce 6f bc 0d de d0 bd 49 eb a5 3d
       0.14510559 -0.014636594 -0.10198603 0.08101518
000130 93 59 99 bd 66 de 2a 3d 24 87 62 bd 58 b2 03 be
       -0.07487788 0.041716002 -0.05530466 -0.12861001
000140 68 82 fb 3c 53 a1 15 3c 06 2a a2 3d 5a 23 90 bd
       0.030701831 0.009132701 0.079181716 -0.07037993
000150 22 f9 ea bc d1 4d 76 3b 10 fb 12 3c 6e d0 1a 3d
       -0.028683249 0.0037583003 0.008970991 0.03779643
000160 73 c9 87 3d 78 08 ee bd ea c0 67 3d e2 e9 6b 3d
       0.0663022 -0.11622709 0.05658046 0.057596095
000170 97 2d d9 bc 02 9b d8 3c e3 f5 83 3d cf e1 42 3d
       -0.026510997 0.026441101 0.064433835 0.04757863
000180 ee 81 b5 3d 15 e5 6a 3a fa 98 c9 3d 9d 7e db 3b
       0.08862673 0.00089605275 0.09843631 0.006698443
000190 b0 0b 06 3d 96 07 4f 3d 1e 53 0b 3d dd 03 f4 bc
       0.03272599 0.050544344 0.034014814 -0.029786998
0001a0 fc 6a be bd ea d7 ca 3c e7 90 de bc a2 4d f2 3c
       -0.092977494 0.024761159 -0.027168704 0.029578034
0001b0 5a a4 01 3e 2e de b5 bd ae eb e1 3d 15 0c c7 3d
       0.12660351 -0.08880268 0.110312805 0.09719101
0001c0 07 a6 5b 3b ea 0a 1f 3b d0 81 32 bc 84 d6 9c 3d
       0.0033515708 0.002426798 -0.0108952075 0.07658103
0001d0 ef 79 d6 bc e4 26 a5 bd b0 5e f4 bc 53 02 e9 3c
       -0.02618119 -0.080640584 -0.029830307 0.028443491
0001e0 43 93 e8 3d 56 1b 1b 3d 97 a2 8d 3d ee fb 73 3b
       0.11356213 0.037867866 0.06915777 0.003722902
0001f0 02 48 53 bd 13 50 34 bd 0b 35 45 3d 25 58 32 3b
       -0.051582344 -0.044021677 0.04814629 0.0027213183

linear5.bias f4 [2]
000000 e2 c3 e1 3c 90 9a 46 bd
       0.027559225 -0.048487246
