model/model.pth (torch, 319879 bytes, 10 tensors)

linear1.weight f4 [128, 38]
-0.21200256 -0.1311172 -0.0767541 0.09585469 0.111523256 0.043071456 -0.1167686 -0.055896286
0.0026097228 0.05234963 0.059022985 -0.0975278 -0.029371958 -0.023250815 0.08239644 0.09747676
0.054275908 -0.118234955 -0.09519393 0.15618096 -0.08029353 -0.008351616 -0.062268272 -0.20023496
0.04193707 0.07563066 0.010914073 -0.07420262 0.058969293 -0.04890656 0.08668771 -0.07085414
-0.084951304 0.06846232 -0.09263484 0.18992639 -0.12967804 -0.12562229 -0.11778946 -0.017394219
0.05818832 -0.14987181 -0.12729636 0.027385011 -0.12346563 -0.114839524 0.0072704107 -0.0021185083
0.079762034 0.14010437 -0.025183976 0.072952464 0.010691643 0.014877715 0.08750869 -0.009901486
-0.13646762 0.06645393 -0.07377424 -0.09120941 -0.12712303 0.09986153 -0.119400054 0.056522284
0.09212628 0.070349105 -0.06177487 -0.040512405 0.020690314 0.03720258 0.009103874 0.09524488
0.0704796 -0.17744264 -0.13697223 -0.016191304 -0.10301263 0.043942675 0.051608473 0.051847354
-0.020831317 0.084657036 0.014089346 -0.026752591 0.033518106 0.09104051 -0.10024172 0.13329147
-0.08125708 0.01624769 -0.058011286 -0.20439057 -0.066283666 0.09166518 -0.07085009 -0.094340965
0.10229926 0.0020851863 -0.10599361 0.019968122 0.12994917 0.08380108 0.13170011 0.06916157
-0.03504111 -0.121304944 0.04894042 -0.1647453 -0.016366705 0.112731114 0.055884182 -0.053894505
-0.013165802 -0.052425206 -0.050465707 0.033906564 -0.06891346 0.05714588 -0.025338724 -0.02550712
-0.12392405 0.023750031 0.06926003 -0.06633567 -0.14172313 -0.00083525624 0.045736857 0.012885241
-0.06401422 0.17251341 -0.19506907 0.13687132 -0.028870514 -0.0806935 0.026190132 0.07519073
0.08588612 0.07667647 -0.09417841 0.03946937 -0.06044512 0.053281322 0.12829627 0.10491281
-0.013121506 0.05626082 0.04077519 -0.06189203 -0.03311169 0.048225414 -0.027923748 -0.14160344
-0.06336491 -0.08684902 -0.13743973 0.09201757 0.048363596 0.11425512 -0.042250358 -0.031751424
-0.019243978 -0.073803544 0.07678401 0.073322654 -0.10649211 -0.12252372 -0.124779895 -0.07510402
-0.036736235 0.07118703 -0.10870588 0.0030377572 0.014415368 0.1215698 -0.122514255 0.07934308
0.01511197 -0.12018488 -0.15820114 -0.029040197 0.12535833 0.03338318 -0.11029457 0.1172599
-0.115449905 0.00050598383 -0.050891045 0.11224511 0.007389769 0.13999122 0.035126984 -0.13947207
0.016780868 0.08230176 0.16990803 -0.024277877 -0.115001544 -0.11814137 0.08246865 0.11565393
-0.12417528 -0.11052322 -0.14421242 -0.17848296 0.072661705 -0.016962344 0.07066444 -0.112381965
-0.03012696 -0.07131029 0.054891016 -0.047247406 -0.15865397 -0.14553979 -0.05502466 -0.15872467
0.04595045 -0.06618365 0.022608453 0.12006279 0.019898556 0.08936565 0.043679476 -0.10640615
0.03474021 0.07423684 0.06952134 -0.07612663 -0.1402932 -0.03597386 0.08692405 0.0028442144
-0.002888605 -0.13872246 0.017257353 0.07403857 -0.12818255 0.11278607 -0.124417886 0.06644239
0.033107918 -0.0727598 -0.015193477 -0.11545394 -0.06367278 0.1305333 0.014133672 0.08239575
-0.11448409 -0.11603817 0.044047933 -0.10872019 0.059509095 -0.10715313 -0.12342351 -0.12738821
00000000: 3317 59be 9643 06be 4131 9dbd 774f c43d
00000010: 4e66 e43d b26b 303d 6024 efbd 81f3 64bd
00000020: e207 2b3b 916c 563d 16c2 713d a8bc c7bd
00000030: 769d f0bc 7e78 bebc 77bf a83d e5a1 c73d
00000040: 6a50 5e3d 2b25 f2bd 09f5 c2bd e7ed 1f3e
00000050: ef70 a4bd 37d5 08bc 040d 7fbd 650a 4dbe
00000060: 35c6 2b3d 3fe4 9a3d f1d0 323c 8bf7 97bd
00000070: c989 713d 3f52 48bd 5389 b13d fa1b 91bd
00000080: f3fa adbd f935 8c3d 56b7 bdbd 107c 423e
00000090: 52ca 04be 21a3 00be 9a3b f1bd 527e 8ebc
000000a0: e056 6e3d ff77 19be fa59 02be 8856 e03c
000000b0: 8cdb fcbd fc30 ebbd a03c ee3b acd6 0abb
000000c0: 475a a33d 8577 0f3e a04e cebc 1a68 953d
000000d0: 002c 2f3c a9c1 733c c237 b33d d839 22bc
000000e0: 2bbe 0bbe 0019 883d f316 97bd 00cc babd
000000f0: 8a2c 02be 3484 cc3d 0488 f4bd e983 673d
00000100: b4ac bc3d 3113 903d a507 7dbd 56f0 25bd
00000110: bc7e a93c bc61 183d 6a28 153c bf0f c33d
00000120: 9c57 903d 86b3 35be 7342 0cbe a0a3 84bc
00000130: 49f8 d2bd 3cfd 333d 6863 533d e45d 543d
00000140: 70a6 aabc ab60 ad3d 00d7 663c 4028 dbbc
00000150: 484a 093d 7273 ba3d 884b cdbd 8f7d 083e
00000160: 1d6a a6bd e019 853c 3e9d 6dbd c34b 51be
00000170: bbbf 87bd f4ba bb3d da19 91bd d635 c1bd
00000180: 4682 d13d 9fa7 083b 2e13 d9bd 3094 a33c
00000190: 6511 053e e79f ab3d 65dc 063e 95a4 8d3d
000001a0: 4487 0fbd ba6e f8bd c075 483d feb2 28be
000001b0: 7813 86bc 92df e63d d0e6 643d 7cc0 5cbd
000001c0: 60b5 57bc d0bb 56bd 21b5 4ebd 9ce1 0a3d
000001d0: 8022 8dbd cc11 6a3d 2893 cfbc 4ff4 d0bc
000001e0: e4cb fdbd 6d8f c23c 34d8 8d3d ffda 87bd
000001f0: de1f 11be 19f5 5aba 9256 3b3d 9e1c 533c
00000200: e319 83bd 5ba7 303e 30c0 47be ff27 0c3e
00000210: db81 ecbc a242 a5bd b08c d63c 99fd 993d
00000220: 10e5 af3d 8e08 9d3d 9ce0 c0bd a2aa 213d
00000230: 4d95 77bd 843d 5a3d 1960 033e 87dc d63d
00000240: 96fb 56bc bf71 663d e303 273d 7f82 7dbd
00000250: 20a0 07bd 0388 453d 58c0 e4bc 7e00 11be
00000260: 76c5 81bd e6dd b1bd 00bd 0cbe b573 bc3d
00000270: e818 463d 97fe e93d b60e 2dbd c80d 02bd
00000280: 8ca5 9dbc 5026 97bd ef40 9d3d 302a 963d
00000290: 8918 dabd b7ed fabd 9a8c ffbd 23d0 99bd
000002a0: bc78 16bd 81ca 913d 30a1 debd 1c15 473b
000002b0: 702e 6c3c 96f9 f83d c1e8 fabd a07e a23d
000002c0: 3298 773c 7e23 f6bd 7bff 21be b5e5 edbc
000002d0: ef5d 003e cdbc 083d 1fe2 e1bd f525 f03d
000002e0: 0071 ecbd 00a4 043a 2173 50bd c4e0 e53d
000002f0: e025 f23b dc59 0f3e 50e1 0f3d c4d1 0ebe
00000300: 0878 893c d38d a83d 5ffc 2d3e 66e2 c6bc
00000310: ee85 ebbd 1af4 f1bd 53e5 a83d f8db ec3d
00000320: 9c4f febd ff59 e2bd 6cac 13be 3dc4 36be
00000330: a9cf 943d 9df4 8abc 85b8 903d 8428 e6bd
00000340: d0cc f6bc 210b 92bd 67d5 603d 7f86 41bd
00000350: 3076 22be 6208 15be 8a61 61bd b888 22be
00000360: 8a36 3c3d 4b8b 87bd 5d35 b93c 7be3 f53d
00000370: 4c02 a33c 5705 b73d 40e9 323d 78eb d9bd
00000380: c04b 0e3d 7c09 983d 3461 8e3d 47e8 9bbd
00000390: 05a9 0fbe 5459 13bd 3c05 b23d 0066 3a3b
000003a0: c04e 3dbb 430d 0ebe 4b5f 8d3c 89a1 973d
000003b0: 4942 03be 62fc e63d cece febd f312 883d
000003c0: 2b9c 073d 1703 95bd 10ee 78bc 1e73 ecbd
000003d0: e066 82bd 85aa 053e eb90 673c 1abf a83d
000003e0: a276 eabd 6ca5 edbd 9b6b 343d b1a8 debd
000003f0: cfbf 733d 1a73 dbbd 77c5 fcbd 0e72 02be

linear1.bias f4 [128]
-0.03447447 -0.17871554 -0.19338988 -0.016928345 -0.073528804 -0.07845005 -0.15411477 -0.030908786
0.090652004 -0.017590515 0.016080562 -0.029806571 -0.04841718 0.06089794 -0.10368448 -0.0013536533
-0.04336539 -0.036551192 -0.05920836 -0.027314164 -0.15710992 -0.06460792 -0.14319453 -0.07153338
-0.024241457 -0.027715905 -0.09787683 -0.021034898 -0.00019689491 -0.064653635 -0.12104437 0.043411046
-0.17974 0.10194742 -0.05229951 0.049244072 0.026344772 -0.00786329 -0.017105488 -0.21072432
-0.027696515 0.018723404 -0.2015957 -0.14166526 -0.025183659 0.021468136 -0.105739705 -0.031991225
0.04460328 -0.061252393 -0.08074506 -0.009788303 0.0105652 -0.11669825 -0.016714633 0.053550582
-0.14539628 0.042642534 -0.17199665 0.0030740448 -0.11801551 -0.18440005 -0.005200795 -0.12198573
-0.07053137 -0.06839852 -0.12283414 0.0051383255 -0.00824225 -0.11203745 0.01819887 -0.13113265
-0.117957614 -0.03698825 -0.19040912 -0.16627556 -0.012793249 0.011736271 0.0568553 -0.018575404
-0.14394106 -0.12582083 -0.19026509 -0.13222001 -0.17899022 -0.040834107 0.091377996 0.03461686
-0.16779009 -0.0013185547 0.016990537 -0.014541655 -0.18242739 0.10986385 -0.03801787 -0.07139219
-0.095997095 -0.029751431 0.03566794 -0.15057203 -0.089197084 -0.23410021 -0.06722645 -0.08688878
-0.12151427 -0.063758776 -0.03651499 -0.021191463 -0.15210643 -0.020924723 -0.12042942 0.014036625
0.049888305 -0.10502827 0.004621663 -0.060928546 -0.084278695 -0.14442655 -0.102965765 -0.20535721
-0.18302369 0.0013540685 -0.014820577 -0.07407402 -0.22351733 0.01560307 -0.011475152 -0.16553703
00000000: 1a35 0dbd 3501 37be ff07 46be 50ad 8abc
00000010: 4596 96bd 6baa a0bd 43d0 1dbe 6c34 fdbc
00000020: c2a7 b93d fc19 90bc 62bb 833c e92c f4bc
00000030: 1851 46bd 1e70 793d 8758 d4bd 116d b1ba
00000040: e89f 31bd b4b6 15bd 7784 72bd f4c1 dfbc
00000050: 6ce1 20be 2851 84bd 96a1 12be 1880 92bd
00000060: 0596 c6bc 770c e3bc a673 c8bd 6151 acbc
00000070: 9375 4eb9 2069 84bd 1ce6 f7bd c8cf 313d
00000080: c30d 38be cfc9 d03d 0338 56bd 27b4 493d
00000090: fed0 d73c 07d5 00bc cf20 8cbc 1ec8 57be
000000a0: cde3 e2bc d361 993c 1a6f 4ebe b310 11be
000000b0: f64d cebc f2dd af3c 0f8e d8bd 3b09 03bd
000000c0: eeb1 363d cae3 7abd ab5d a5bd 1e5f 20bc
000000d0: a919 2d3c 7eff eebd 20ed 88bc db57 5b3d
000000e0: c3e2 14be f0a9 2e3d e41f 30be ea75 493b
000000f0: 1eb2 f1bd 5ed3 3cbe 6e6b aabb a8d3 f9bd
00000100: c072 90bd 8614 8cbd 7790 fbbd 665f a83b
00000110: 810a 07bc e473 e5bd cc15 953c a347 06be
00000120: c393 f1bd fe80 17bd 9cfa 42be 2444 2abe
00000130: c79a 51bc 7d49 403c 1ae1 683d 722b 98bc
00000140: 4965 13be 2dd7 00be dad4 42be af64 07be
00000150: 3649 37be aa41 27bd 6324 bb3d 69ca 0d3d
00000160: 2ad1 2bbe 5bd3 acba bd2f 8b3c 1f40 6ebc
00000170: 3fce 3abe 4c00 e13d a0b8 1bbd 1236 92bd
00000180: 209a c4bd 46b9 f3bc 8c18 123d 8e2f 1abe
00000190: f6ac b6bd f7b7 6fbe 05ae 89bd bff2 b1bd
000001a0: 79dc f8bd f693 82bd be90 15bd b899 adbc
000001b0: cac1 1bbe 536a abbc b3a3 f6bd dff9 653c
000001c0: ae57 4c3d 1019 d7bd 5271 973b 3690 79bd
000001d0: 4f9a acbd 8ee4 13be b7df d2bd 2949 52be
000001e0: 906a 3bbe 007b b13a 01d2 72bc 1fb4 97bd
000001f0: bae1 64be 05a4 7f3c 4702 3cbc 8a82 29be

linear2.weight f4 [256, 128]
-0.006958618 0.058379203 -0.043905508 0.04658319 0.019361958 0.016429745 -0.043320976 0.08603889
0.022219388 -0.046130784 0.06135582 0.024396759 0.026693663 0.05525977 0.029533854 0.04690051
-0.008856506 0.0068772035 0.10209039 0.076541394 0.017278576 0.043626577 0.045158383 -0.00016546003
-0.07493501 -0.05325698 -0.025476074 -0.02480519 -0.058280937 0.0031343417 0.07707052 -0.055997342
-0.017656172 0.042107187 0.06591207 -0.07605635 -0.052622877 0.04953369 -0.029023016 0.0021110105
-0.05302654 -0.01909033 -0.07912927 0.10172335 0.031610165 0.072097644 0.00558486 -0.039736167
-0.06418702 0.034088343 -0.06805286 -0.09191284 -0.105019055 -0.106470086 -0.10329352 -0.03290303
0.1096302 0.053434018 -0.007994249 0.07404808 -0.0038221749 -0.06953552 -0.012188332 -0.05111783
0.059194934 -0.055201445 -0.09018314 -0.047902685 0.039500546 -0.04355078 0.09408535 0.02845772
0.01975994 -0.059814595 0.079647385 -0.10379703 0.025480518 -0.0348385 -0.056375243 -0.086912155
-0.027200516 -0.061841436 0.040419016 -0.052701373 -0.0123444935 0.0025156098 -0.010753472 0.01198222
0.017315226 -0.08161165 0.016713798 -0.09656572 -0.008063693 -0.0010935816 0.038661387 0.0535023
-0.057687636 0.0013402697 0.016177686 0.015985468 0.0050007203 0.056313727 -0.052691262 0.035629902
0.05513057 -0.07057813 0.08538041 -0.08687812 0.061587695 -0.10149827 0.06739808 0.056470536
0.011799286 0.04725409 -0.060599983 -0.040054277 0.07372013 0.016756503 -0.07439489 0.028290167
0.06428144 0.06159893 0.020566892 0.009436852 -0.045703102 0.048189934 -0.103825524 -0.0010380372
-0.021643529 0.012951956 -0.024685688 -0.09891434 0.00089969055 -0.03937218 -0.00818517 0.056495856
-0.004017948 -0.13509095 -0.03869799 -0.061460763 -0.08737473 0.029969232 -0.111728355 0.058062304
-0.09500576 -0.06433291 0.020524992 -0.112834476 -0.090627015 -0.12974904 0.03809722 -0.05633329
-0.04988404 0.0003927578 0.03173747 0.026344517 -0.10300711 0.07343191 0.034238186 -0.07640314
-0.03197654 0.036120493 -0.016415827 -0.12574133 -0.029324887 -0.078096546 -0.071487695 0.08111246
-0.025328027 -0.14609851 0.0321981 -0.018419366 0.08362811 -0.066813685 0.021193584 0.025178744
-0.01921686 0.021323249 0.0010595956 0.004275122 -0.06062517 0.07575977 -0.042062916 -0.080465086
-0.070703566 -0.031317506 -0.039231855 0.046884626 0.02317111 -0.07325994 -0.057459153 -0.09427697
-0.017497893 0.077109516 -0.10808463 -0.07359925 -0.025907772 -0.06541364 -0.0029014235 0.027562195
-0.008302029 -0.03963802 0.05026773 -0.10177647 -0.050669655 -0.1134466 -0.058393154 -0.06020398
-0.028201481 0.028881341 -0.016782178 -0.14303647 0.014891354 0.07184896 -0.16566986 0.014481097
0.01873013 -0.0021284195 -0.02665952 -0.049722806 0.048967604 -0.15111423 -0.11990627 -0.020552902
-0.071549475 -0.058939066 0.018032296 0.01082697 -0.115515105 0.008267771 0.009575478 -0.090692535
0.013246734 -0.06283918 0.10008192 0.011437027 0.008102129 0.029634755 0.084382474 -0.10527093
-0.061867155 -0.024292236 -0.13058804 -0.062805764 0.018445492 -0.115005806 -0.07921462 -0.04330681
-0.07024375 0.050214548 -0.02188922 0.030517098 0.031253234 -0.06273597 -0.08970006 -0.0722142
00000000: 1e05 e4bb 081f 6f3d 43d6 33bd 04ce 3e3d
00000010: f89c 9e3c ac97 863c 5671 31bd 2835 b03d
00000020: 6f05 b63c a2f3 3cbd 3e50 7b3d b6db c73c
00000030: abac da3c 1258 623d fbf0 f13c c01a 403d
00000040: e11a 11bc 2a5a e13b c414 d13d bcc1 9c3d
00000050: cd8b 8d3c c8b1 323d fff7 383d 577f 2db9
00000060: 8777 99bd fe23 5abd 33b3 d0bc 4134 cbbc
00000070: feb7 6ebd 8769 4d3b 26d7 9d3d 785d 65bd
00000080: ada3 90bc 9678 2c3d e8fc 863d 6ec3 9bbd
00000090: 168b 57bd d7e3 4a3d adc1 edbc e158 0a3b
000000a0: 5b32 59bd 5363 9cbc 870e a2bd 5554 d03d
000000b0: a979 013d eea7 933d 3401 b73b 64c2 22bd
000000c0: 7c74 83bd 38a0 0b3d 4c5f 8bbd cd3c bcbd
000000d0: 3b14 d7bd fd0c dabd 8e8b d3bd 54c5 06bd
000000e0: cc85 e03d a1dd 5a3d 50fa 02bc 85a6 973d
000000f0: 747d 7abb a468 8ebd 92b1 47bc ee60 51bd
00000100: 6376 723d e91a 62bd f0b1 b8bd 9b35 44bd
00000110: 53cb 213d 4d62 32bd d2af c03d 2a20 e93c
00000120: 99df a13c 2600 75bd 2b1e a33d 8a93 d4bd
00000130: 85bc d03c d1b2 0ebd bae9 66bd 00ff b1bd
00000140: 9ed3 debc 724d 7dbd 698e 253d 65dd 57bd
00000150: 8f40 4abc eedc 243b 552f 30bc 1351 443c
00000160: a9d8 8d3c 0224 a7bd 60eb 883c 40c4 c5bd
00000170: 941d 04bc 8256 8fba 675b 1e3d 3a25 5b3d
00000180: df49 6cbd fdab af3a 1187 843c f5f3 823c
00000190: 15dd a33b 39a9 663d cbd2 57bd a9f0 113d
000001a0: 98d0 613d 448b 90bd eddb ae3d 28ed b1bd
000001b0: 6143 7c3d 53de cfbd 0108 8a3d a64d 673d
000001c0: cb51 413c 818d 413d b037 78bd f40f 24bd
000001d0: 94fa 963d ef44 893c 595c 98bd c8c0 e73c
000001e0: fda5 833d 294f 7c3d e67b a83c 079d 1a3c
000001f0: 2d33 3bbd cf62 453d 7aa2 d4bd c00e 88ba
00000200: c54d b1bc 7134 543c a439 cabc 9a93 cabd
00000210: 36d9 6b3a b944 21bd 171b 06bc 3368 673d
00000220: fea8 83bb 4855 0abe c981 1ebd 48be 7bbd
00000230: 86f1 b2bd 0982 f53c d6d1 e4bd bdd2 6d3d
00000240: 6192 c2bd f9c0 83bd 0724 a83c c315 e7bd
00000250: a89a b9bd efdc 04be d50b 1c3d bcbd 66bd
00000260: 3553 4cbd 0feb cd39 26ff 013d 75d0 d73c
00000270: 64f5 d2bd 7863 963d 573d 0c3d 4079 9cbd
00000280: d5f9 02bd 15f3 133d 7c7a 86bc 56c2 00be
00000290: bf3a f0bc 15f1 9fbd 2468 92bd 4a1e a63d
000002a0: b97c cfbc d99a 15be 28e2 033d 36e4 96bc
000002b0: 3745 ab3d 9dd5 88bd 2b9e ad3c a743 ce3c
000002c0: ad6c 9dbc 18ae ae3c 21e2 8a3a 5316 8c3b
000002d0: 1952 78bd f027 9b3d 2a4a 2cbd e1ca a4bd
000002e0: 08cd 90bd c946 00bd 95b1 20bd 180a 403d
000002f0: 57d1 bd3c 4f09 96bd 4a5a 6bbd 4914 c1bd
00000300: be57 8fbc 98eb 9d3d 795b ddbd 34bb 96bd
00000310: 893c d4bc 96f7 85bd cf25 3ebb 1dca e13c
00000320: 3c05 08bc 7a5b 22bd 89e5 4d3d 2f70 d0bd
00000330: fc8a 4fbd b156 e8bd a92d 6fbd 7398 76bd
00000340: cb06 e7bc 9098 ec3c c77a 89bc 2778 12be
00000350: defa 733c 8c25 933d 5ca5 29be 2042 6d3c
00000360: ee6f 993c f47c 0bbb 1165 dabc 24aa 4bbd
00000370: 4192 483d b0bd 1abe 6b91 f5bd 8f5e a8bc
00000380: 8888 92bd 176a 71bd 77b8 933c 9b63 313c
00000390: 2f93 ecbd 8c75 073c 77e2 1c3c 02bd b9bd
000003a0: d408 593c d4b1 80bd c0f7 cc3d 5e62 3b3c
000003b0: cbbe 043c 96c4 f23c b8d0 ac3d 4998 d7bd
000003c0: 6a68 7dbd 8300 c7bc dfb8 05be 4fa0 80bd
000003d0: 001b 973c 2a88 ebbd 463b a2bd 7b62 31bd
000003e0: f5db 8fbd c5ad 4d3d 0651 b3bc fefe f93c
000003f0: 6403 003d b77b 80bd aab4 b7bd 0ae5 93bd

linear2.bias f4 [256]
-0.034930702 0.038497746 -0.017847922 0.0002634949 -0.08090501 -0.049274895 -0.05321834 -0.0028958858
0.08571254 -0.08097378 0.07830416 0.1132811 -0.07656654 -0.07420945 -0.067585595 -0.033561464
0.014999496 -0.008977084 0.040063564 -0.030435324 -0.04014009 -0.032369394 0.004876733 -0.01591651
0.014909393 0.005107624 0.009464091 0.053301245 0.0080482 -0.0052180435 -0.0796229 -0.019114858
0.02471714 -0.08517894 0.02279379 -0.0343145 -0.071240515 -0.070508234 0.004648513 0.011470637
0.018322755 0.006089508 -0.013901057 0.006379614 -0.051862177 -0.07879964 0.019589959 0.015744822
-0.07881205 -0.081227176 -0.02654858 -0.018822264 0.032041937 0.0148194255 -0.10722926 -0.10538155
0.050006878 0.070276484 0.047329947 -0.0040486585 0.005779842 0.012285257 -0.089449614 0.0073187216
0.0005291803 0.0067225127 -0.044667643 0.0077892384 -0.06357789 0.0011453452 -0.023323877 -0.09831238
0.09892829 0.022944316 -0.043763377 0.13549887 -0.04746537 -0.051483635 0.022792852 -0.045176975
-0.008300846 0.009720987 -0.011485987 0.0011984524 -0.08657443 0.06375824 -0.08257803 0.027658211
-0.05340382 0.013596103 0.008824134 -0.07844558 -0.091094844 -0.041574698 0.009176033 -0.036795877
-0.031036954 -0.013697625 -0.08537763 -0.086403586 -0.04695511 -0.026313407 -0.032147653 -0.10244083
-0.0068223774 -0.04318862 0.01801636 0.021763952 -0.016271167 -0.07795776 0.02350338 -0.0007310578
0.002850209 0.033675384 -0.004847031 -0.025986051 -0.058740754 0.013263946 -0.008806775 -0.12336234
0.012465124 -0.05254859 0.009043538 -0.06078923 -0.064239845 -0.109751485 0.0124745965 -0.034191515
-0.00027498798 -0.017246595 0.017502 -0.0024601277 -0.04733881 -0.0024864418 -0.05135374 0.031134978
-0.018348191 -0.03362154 -0.048424244 -0.06587256 -0.058408637 -0.07647115 -0.080949835 0.05036401
-0.0033392499 -0.025549814 -0.02445243 -0.020779101 -0.08560042 -0.067379445 -0.018434921 0.013261761
-0.06687959 -0.10285602 0.0031136854 -0.030174648 -0.053082723 -0.03437087 -0.062007915 -0.031355184
-0.008892778 0.000423265 -0.00665678 -0.018140608 0.0116195 0.04124163 -0.063042946 -0.07905957
0.014113126 0.009766015 -0.02053625 -0.07268916 -0.021504648 -0.002719313 -0.039168805 -0.016679222
-0.07302725 -0.07909098 -0.09892898 -0.06859112 -0.023326138 0.06872907 0.03729785 -0.015828859
-0.009607682 0.019403497 -0.015653118 -0.047020707 -0.07912869 -0.0069907317 -0.05645286 0.012435359
-0.022630965 -0.09214101 0.009991782 -0.07398783 -0.0009830777 -0.05374279 0.07852554 -0.004913948
-0.0208792 0.0034550598 0.012815574 -0.004476325 -0.054029014 -0.016598886 -0.04356418 -0.0916285
0.013367606 -0.016044933 -0.060925987 0.1085078 0.00714518 0.044844426 -0.046045255 -0.07447731
-0.07313944 -0.10501061 -0.1052303 -0.0036207193 -0.081100546 -0.009734369 0.026025012 -0.11538776
-0.033628378 -0.05338478 0.029924512 -0.099511504 -0.036658756 0.05070125 -0.07636831 -0.04556673
-0.032576434 0.011195497 -0.07972889 -0.10531731 -0.017388092 -0.022621162 0.001249334 -0.028196175
0.026109204 0.008449747 -0.09085337 -0.10537039 -0.05851515 -0.06820292 -0.067311406 -0.053096008
-0.052889176 0.024754474 0.010745716 0.015542902 -0.01586006 -0.0009688925 -0.0834299 -0.058721703
00000000: 7f13 0fbd d0af 1d3d ce35 92bc b025 8a39
00000010: 87b1 a5bd 79d4 49bd 79fb 59bd e7c8 3dbb
00000020: 0e8a af3d 95d5 a5bd ee5d a03d ecff e73d
00000030: ebce 9cbd 20fb 97bd 516a 8abd bf77 09bd
00000040: 72c0 753c 9f14 13bc b119 243d 8053 f9bc
00000050: ef69 24bd c595 04bd 00cd 9f3b 5763 82bc
00000060: 8746 743c db5d a73b 460f 1b3c 6852 5a3d
00000070: 99dc 033c 1ffc aabb 5511 a3bd c396 9cbc
00000080: 997b ca3c 4c72 aebd 0bba ba3c 5c8d 0cbd
00000090: 8ce6 91bd 9f66 90bd 8e52 983b 57ef 3b3c
000000a0: 9a19 963c 7f8a c73b 42c1 63bc 150c d13b
000000b0: 6f6d 54bd b561 a1bd 1f7b a03c 49fb 803c
000000c0: 3668 a1bd 6f5a a6bd 687c d9bc 2631 9abc
000000d0: 683e 033d 2dcd 723c 049b dbbd 48d2 d7bd
000000e0: 03d4 4c3d 1eed 8f3d 0cdd 413d 9caa 84bb
000000f0: d464 bd3b 1a48 493c 5c31 b7bd e3d1 ef3b
00000100: b0b8 0a3a 8648 dc3b 6bf5 36bd de3c ff3b
00000110: 2035 82bd 681f 963a b711 bfbc 0058 c9bd
00000120: ea9a ca3d b8f5 bb3c 3a41 33bd 37c0 0a3e
00000130: 0c6b 42bd 81e0 52bd 13b8 ba3c 7e0b 39bd
00000140: 4600 08bc c644 1f3c b92f 3cbc 6415 9d3a
00000150: ef4d b1bd ae93 823d ac1e a9bd 7993 e23c
00000160: f7bd 5abd 30c2 5e3c 1a93 103c 14a8 a0bd
00000170: ef8f babd 3b4a 2abd 1257 163c 46b7 16bd
00000180: 3641 febc 016c 60bc 78da aebd 5df4 b0bd
00000190: 0054 40bd 378f d7bc 42ad 03bd 7fcc d1bd
000001a0: 408e dfbb 8de6 30bd 0c97 933c 514a b23c
000001b0: 1c4b 85bc 51a8 9fbd 298a c03c 75a4 3fba
000001c0: 92ca 3a3b 33ef 093d d8d3 9ebb b3e0 d4bc
000001d0: 259a 70bd 0651 593c 4b4a 10bc 65a5 fcbd
000001e0: 853a 4c3c 313d 57bd 592b 143c 21fe 78bd
000001f0: 2e90 83bd 63c5 e0bd 4062 4c3c 670c 0cbd
00000200: 432c 90b9 bb48 8dbc 5b60 8f3c 183a 21bb
00000210: 57e6 41bd 92f3 22bb 4d58 52bd c80e ff3c
00000220: f24e 96bc bdb6 09bd 8058 46bd 31e8 86bd
00000230: e53d 6fbd e89c 9cbd 07c9 a5bd 7e4a 4e3d
00000240: 51d7 5abb d84d d1bc 7650 c8bc ef38 aabc
00000250: 464f afbd 3cfe 89bd d504 97bc db47 593c
00000260: 2bf8 88bd 2da6 d2bd f90e 4c3b d330 f7bc
00000270: 456d 59bd 78c8 0cbd 03fc 7dbd 4b6e 00bd
00000280: 04b3 11bc abe9 dd39 1e21 dabb 9d9b 94bc
00000290: b75f 3e3c fcec 283d a91c 81bd fce9 a1bd
000002a0: be3a 673c a301 203c a33b a8bc 0ede 94bd
000002b0: 842a b0bc 8036 32bb 786f 20bd dda2 88bc
000002c0: 508f 95bd 74fa a1bd 479b cabd 8079 8cbd
000002d0: 7516 bfbc d4c1 8c3d a1c5 183d 86ab 81bc
000002e0: 8a69 1dbc 15f4 9e3c f83a 80bc c998 40bd
000002f0: 390e a2bd 8212 e5bb 1d3b 67bd adbd 4b3c
00000300: 9364 b9bc 6db4 bcbd 92b4 233c ee86 97bd
00000310: 9dda 80ba 6621 5cbd 00d2 a03d 2f05 a1bb
00000320: db0a abbc 496e 623b 6af8 513c 23ae 92bb
00000330: 874d 5dbd 63fa 87bc 5b70 32bd b9a7 bbbd
00000340: ce03 5b3c aa70 83bc 878d 79bd 5639 de3d
00000350: 1d22 ea3b caae 373d f399 3cbd 8f87 98bd
00000360: 21ca 95bd cd0f d7bd fc82 d7bd 9749 6dbb
00000370: 0b18 a6bd e77c 1fbc 6832 d53c 6b50 ecbd
00000380: e9bd 09bd 00aa 5abd 4024 f53c b0cc cbbd
00000390: 7e27 16bd 1dac 4f3d fd66 9cbd 2ea4 3abd
000003a0: de6e 05bd 516d 373c e648 a3bd 9ab0 d7bd
000003b0: 7971 8ebc 0450 b9bc b1c0 a33a aafb e6bc
000003c0: f8e2 d53c cf70 0a3c 5511 babd 6ecc d7bd
000003d0: 95ad 6fbd f9ad 8bbd 90da 89bd 337b 59bd
000003e0: 52a2 58bd e5c9 ca3c cd0e 303c a8a7 7e3c
000003f0: f5ec 81bc 46fd 7dba 4cdd aabd 2b86 70bd

linear3.weight f4 [128, 256]
0.028437197 0.026643977 0.047030315 0.00991269 -0.032357365 0.04257436 0.036127813 0.0428114
0.03591542 -0.020753905 0.0050066113 0.007141106 0.0346179 -0.047093958 0.031482607 -0.0035862923
-0.016426653 0.012844943 0.021582171 -0.014506258 -0.018736523 -0.075925976 -0.05437451 -0.04764194
0.0015092641 0.06162346 -0.062450513 0.036530554 0.040860288 -0.02249293 0.057728074 0.031841606
-0.030485366 -0.005522169 -0.011622287 -0.044963837 -0.01071021 0.0012276322 0.013246886 -0.068018295
0.0005604997 -0.07972885 -0.015142521 -0.023600511 0.028266035 -0.034576282 -0.043273844 -0.026707795
0.041287377 0.038719334 -0.026050672 -0.05048745 0.028635472 -0.037711658 -0.048638605 0.022653185
0.0012498408 -0.0050907508 -0.038288638 -0.05407056 -0.0033099651 0.051200606 -0.027749557 -0.050138444
-3.6008656e-05 -0.04193911 -0.04548396 0.014262646 -0.002580516 0.03666152 -0.039553717 -0.00057692826
0.01497835 -0.0045974255 -0.011264488 -0.027198166 0.039825253 -0.021081977 0.04253774 -0.023461297
-0.00992687 -0.023466699 0.038428325 0.015624434 -0.057075523 0.056357592 0.061684668 -0.009599723
-0.04192523 -0.054669663 0.028857574 -0.037733264 -0.058588356 -0.057476163 -0.044649933 0.013525419
-0.04387454 -0.050391756 0.05015298 0.020261377 0.060839616 0.039361663 -0.069644526 0.04225363
0.041380145 0.0077633266 -0.028782986 0.016737394 -0.005519375 -0.019729905 0.049505115 -0.015690237
-0.029885791 0.01583295 0.046031505 -0.04391218 -0.004632935 0.014550857 0.027646907 0.0144774765
0.020799845 -0.030456364 -0.03087373 0.04232476 -0.0022230074 0.019212417 0.0368068 -0.004457377
0.03188758 -0.032617286 -0.061855145 0.016443722 0.043152638 -0.01057712 0.052391484 0.0406124
-0.011229314 -0.005515352 -0.05302287 0.024449974 0.038236067 0.031149134 0.047499478 0.015520677
-0.0010680562 0.041063413 0.025459483 0.025709845 -0.044390135 -0.03370001 0.061368525 -0.042435944
-0.0069268793 -0.055222377 -0.039028175 -0.030369826 -0.054556295 -0.016375035 0.059929386 0.0033431873
0.03393264 -0.061948605 0.014434904 -0.0011230931 -0.03238877 0.043591253 -0.0043704733 0.02423925
0.056880966 0.03375005 -0.05390252 -0.043461338 0.00053019077 0.006316498 -8.555381e-05 0.024225563
-0.060880683 0.024241611 -0.0064457282 -0.0013339669 -0.045200013 -0.03119467 -0.007911755 -0.05637356
0.05062782 0.01805495 -0.04994294 0.043036938 0.042561747 0.028276064 0.057209246 0.0082912
0.012077548 -0.03455887 0.050201684 0.007456109 -0.017316276 -0.025810063 0.016610347 0.016232386
0.014896527 0.045203738 -0.047825616 0.022773823 0.030452184 0.011725249 -0.02142445 0.025999226
-0.0773824 -0.0021856949 0.0059315786 -0.019832537 0.032289118 -0.058025733 -0.042973533 0.024616167
0.0025081777 0.055570617 0.018564485 -0.034712713 0.042253993 -0.017410696 -0.0032773912 -0.03979329
0.060195573 0.011902824 -0.048493102 0.056924835 -0.04364101 0.01123458 -0.05491572 0.03365718
0.031692877 -0.05359799 0.0033111274 0.04977858 0.0008880645 -0.033466592 -0.05853662 0.052571274
-0.0028345957 -0.0022293504 0.05155707 0.056091525 0.01849503 -0.0018644482 -0.038259715 0.0234157
-0.040340304 0.021109618 -0.008023351 -0.0245917 0.012613061 0.054700285 -0.020429194 -0.02770961
00000000: 20f5 e83c 7844 da3c dca2 403d d668 223c
00000010: 2889 04bd 7462 2e3d c2fa 133d 025b 2f3d
00000020: 0c1c 133d 1804 aabc 800e a43b f0ff e93b
00000030: 80cb 0d3d 98e5 40bd e8f3 003d 0008 6bbb
00000040: 3091 86bc 9973 523c 18cd b03c a8ab 6dbc
00000050: 567d 99bc 147f 9bbd ceb7 5ebd 3224 43bd
00000060: 80d2 c53a e268 7c3d 1ccc 7fbd 10a1 153d
00000070: 1e5d 273d 1843 b8bc 4674 6c3d 586c 023d
00000080: 72bc f9bc 50f3 b4bb 686b 3ebc 002c 38bd
00000090: e079 2fbc 80e8 a03a 7809 593c 2d4d 8bbd
000000a0: 80ee 123a e148 a3bd 5618 78bc dc55 c1bc
000000b0: 2c8e e73c dc9f 0dbd ea3f 31bd 4eca dabc
000000c0: f41c 293d 2a98 1e3d 3868 d5bc eecb 4ebd
000000d0: f094 ea3c 8a77 1abd 4639 47bd 2c93 b93c
000000e0: b3d1 a33a 50d0 a6bb 8cd4 1cbd 1779 5dbd
000000f0: 00ec 58bb bab7 513d 0a53 e3bc f85d 4dbd
00000100: 0008 17b8 58c8 2bbd 644d 3abd e0ad 693c
00000110: e01d 29bb 642a 163d 1403 22bd 003d 17ba
00000120: c167 753c 00a6 96bb b08e 38bc b0ce debc
00000130: ce1f 233d 1cb4 acbc 0e3c 2e3d e831 c0bc
00000140: 50a4 22bc 3c3d c0bc 0567 1d3d a0fd 7f3c
00000150: 06c8 69bd 38d7 663d 10a9 7c3d 2848 1dbc
00000160: cab9 2bbd 4ced 5fbd b866 ec3c 328e 1abd
00000170: 58fa 6fbd 206c 6bbd d9e2 36bd b899 5d3c
00000180: cab5 33bd 9667 4ebd 366d 4d3d 30fb a53c
00000190: f632 793d b239 213d caa1 8ebd 2412 2d3d
000001a0: 3a7e 293d 8163 fe3b 4cca ebbc dc1c 893c
000001b0: e0db b4bb 9ca0 a1bc e0c5 4a3d d088 80bc
000001c0: 0cd3 f4bc 1ab4 813c 888b 3c3d 42dd 33bd
000001d0: e0cf 97bb b866 6e3c c47b e23c f032 6d3c
000001e0: 7064 aa3c a07f f9bc e8ea fcbc ba5c 2d3d
000001f0: e0af 11bb 5c63 9d3c bac2 163d 300f 92bb
00000200: 8d9c 023d b499 05bd d25b 7dbd fcb4 863c
00000210: d2c0 303d a84b 2dbc 7498 563d 3059 263d
00000220: 28fb 37bc 20ba b4bb 822e 59bd 504b c83c
00000230: 6c9d 1c3d 782c ff3c d08e 423d 704a 7e3c
00000240: 05fe 8bba 1c32 283d 6890 d03c 749d d23c
00000250: 6ed2 35bd 0609 0abd 905d 7b3d 50d1 2dbd
00000260: e0fa e2bb dc30 62bd 02dc 1fbd 24ca f8bc
00000270: 6c76 5fbd f024 86bc 8478 753d 6019 5b3b
00000280: f4fc 0a3d d2bd 7dbd 6080 6c3c c034 93ba
00000290: 16aa 04bd be8c 323d 3036 8fbb 6491 c63c
000002a0: 04fc 683d 7e3d 0a3d e4c8 5cbd 8404 32bd
000002b0: 80fc 0a3a a0fa ce3b 5a6b b3b8 b074 c63c
000002c0: 065e 79bd 5896 c63c b036 d3bb 80d8 aeba
000002d0: a623 39bd f78b ffbc 4ea0 01bc f6e7 66bd
000002e0: 1e5f 4f3d f9e7 933c f890 4cbd 8047 303d
000002f0: 3a55 2e3d 34a3 e73c 3e54 6a3d d0d7 073c
00000300: e8e0 453c 9a8d 0dbd 48a0 4d3d 6052 f43b
00000310: ddda 8dbc a06f d3bc 6c12 883c c8f9 843c
00000320: 9010 743c 8e27 393d cbe4 43bd 2b90 ba3c
00000330: dc76 f93c 421b 403c 5482 afbc 54fc d43c
00000340: aa7a 9ebd e03d 0fbb b05d c23b d877 a2bc
00000350: 9841 043d 64ac 6dbd 0405 30bd d8a7 c93c
00000360: 3d60 243b 049e 633d 8c14 983c eb2e 0ebd
00000370: 8612 2d3d e0a0 8ebc 80c9 56bb 4afe 22bd
00000380: a28f 763d 1004 433c b4a0 46bd 042a 693d
00000390: eac0 32bd 3e11 383c 4eef 60bd 1cdc 093d
000003a0: 64d0 013d 9189 5bbd 80ff 583b a0e4 4b3d
000003b0: 00cd 683a 4414 09bd 18c4 6fbd fa54 573d
000003c0: a0c4 39bb 4b1a 12bb 822d 533d 3ac0 653d
000003d0: e482 973c 8060 f4ba 38b6 1cbd 48d2 bf3c
000003e0: e03b 25bd 14ee ac3c 6074 03bc 8874 c9bc
000003f0: 03a7 4e3c 680d 603d 205b a7bc 44ff e2bc

linear3.bias f4 [128]
-0.09151668 -0.05357612 -0.039069835 -0.020819256 -0.07350898 -0.034597885 -0.040044174 -0.026413068
-0.01943519 0.028156785 -0.046967965 0.06840515 0.041207008 -0.095910825 -0.071233794 -0.058311656
-0.06315199 0.069349 0.013990245 0.0013920151 -0.026480667 0.044061214 -0.031739105 0.05902996
-0.013108955 -0.0053994167 -0.028877772 -0.038880028 -0.011717694 0.006368831 -0.09094648 -0.05233369
-0.0029759016 0.028420094 0.04444947 -0.050724305 0.002082529 -0.059648324 -0.014315679 -0.057223387
-0.019887028 0.02921841 0.006309356 0.03854249 -0.024974588 -0.009501645 0.0164449 -0.06660876
0.05215811 -0.06861908 0.025298465 0.0313057 0.06015091 -0.052358303 -0.0010487917 -0.04228481
-0.019894075 -0.04336396 0.02177852 0.0785479 0.0030092055 -0.067718744 -0.0395459 0.07212395
0.033102088 0.04011679 -0.052727845 0.010331145 -0.015212059 0.0069907084 0.00047811097 -0.051767733
0.07875905 -0.009585078 0.025435796 -0.068306915 -0.069653854 -0.0036571317 -0.022234803 -0.06503484
-0.03933907 -0.011785469 -0.051033452 -0.0820173 -0.007606053 -0.0046013114 0.018848637 -0.047931116
-0.063994 0.025433538 -0.030506007 0.026838342 0.035260387 -0.04920035 -0.038440853 0.021394797
-0.010697149 -0.023077326 0.034107454 -0.016939515 0.02844967 -0.035744913 -0.018697603 0.042269707
-0.008187742 -0.028616304 -0.06317767 0.011037843 -0.0310919 -0.027899286 -0.08495303 -0.015645264
-0.04946538 -0.0056976625 -0.004721762 -0.022822578 0.029635016 -0.012957955 -0.067039005 0.027765894
-0.061439235 -0.033686217 -0.0023585819 0.004356232 0.068197064 -0.03151523 -0.0543351 -0.09586687
00000000: 196d bbbd a272 5bbd b107 20bd 258d aabc
00000010: e08b 96bd 83b6 0dbd 5c05 24bd 3860 d8bc
00000020: 8c36 9fbc 0fa9 e63c 7b61 40bd 0018 8c3d
00000030: aec8 283d e56c c4bd 06e3 91bd 34d8 6ebd
00000040: d555 81bd d906 8e3d 5737 653c 4774 b63a
00000050: fced d8bc 8879 343d dd00 02bd 66c9 713d
00000060: f1c6 56bc 97ed b0bb 1491 ecbc aa40 1fbd
00000070: 92fb 3fbc a0b1 d03b 2642 babd da5b 56bd
00000080: 5807 43bb 42d1 e83c a610 363d 4ac4 4fbd
00000090: 0a7b 083b cd51 74bd 4f8c 6abc 1263 6abd
000000a0: 1fea a2bc 725b ef3c b7be ce3b bbde 1d3d
000000b0: 8297 ccbc caac 1bbc 74b7 863c 2c6a 88bd
000000c0: bea3 553d 2988 8cbd ba3e cf3c 683a 003d
000000d0: cd60 763d a975 56bd 9c77 89ba d632 2dbd
000000e0: e6f8 a2bc 689e 31bd de68 b23c b9dd a03d
000000f0: 1736 453b 20b0 8abd e2fa 21bd b9b5 933d
00000100: 0e96 073d 8151 243d 27f9 57bd f643 293c
00000110: 003c 79bc 5012 e53b f8aa fa39 670a 54bd
00000120: 6d4c a13d bb0a 1dbc bb5e d03c 7fe4 8bbd
00000130: aea6 8ebd 7dac 6fbb c325 b6bc fc30 85bd
00000140: 0122 21bd d717 41bc 7408 51bd b0f8 a7bd
00000150: 323c f9bb 99c6 96bb 7568 9a3c 6b53 44bd
00000160: 490f 83bd ff59 d03c bce7 f9bc 15dc db3c
00000170: 326d 103d 4e86 49bd 2874 1dbd 2444 af3c
00000180: 1843 2fbc a90c bdbc 42b4 0b3d bdc4 8abc
00000190: 480f e93c 4269 12bd b72b 99bc 0023 2d3d
000001a0: e125 06bc bd6c eabc 4b63 81bd 12d8 343c
000001b0: 71b4 febc 0b8d e4bc dbfb adbd 7f2a 80bc
000001c0: 369c 4abd 75b3 babb 03b9 9abb 6af6 babc
000001d0: 22c5 f23c 9a4d 54bc bf4b 89bd 4d75 e33c
000001e0: b5a7 7bbd 8ffa 09bd 7092 1abb b9be 8e3b
000001f0: e7aa 8b3d 1d16 01bd 7b8e 5ebd d955 c4bd

linear4.weight f4 [64, 128]
-0.046333507 -0.072837226 -0.08498895 0.08435822 -0.026643408 0.058464903 -0.00939806 0.114099756
0.061946668 0.043239918 -0.02268809 0.0889001 -0.06581359 -0.02128186 -0.063728146 0.04011605
-0.027275624 -0.15811275 0.0007242285 -0.054388616 -0.057663713 0.14653175 0.010021817 -0.015683807
0.01630216 -0.0007631014 -0.06543627 -0.020021878 -0.06023249 0.039637767 0.066575006 -0.012147985
0.05702934 -0.011989809 -0.04808627 -0.010844678 -0.048918344 0.08128417 0.17016359 -0.010023318
0.07140089 -0.05671392 -0.059734747 0.019053956 -0.062343847 -0.080406874 0.036973167 -0.022667656
0.019020252 -0.029442804 -0.03617046 0.060997516 -0.035294253 -0.01454027 -0.07886951 0.024667792
0.012114614 -0.056211766 -0.014361472 -0.03268544 -0.017329797 -0.02669283 0.004034408 0.078635335
-0.03248749 0.027293256 -0.050517242 -0.017910777 -0.040542405 -0.03388539 -0.078223504 0.049055718
0.014514642 0.04186169 0.043755118 0.03706689 0.028892945 -0.12803505 0.023726184 0.07398353
0.06354778 0.0050436114 -0.080852374 0.049373575 -0.07433061 0.024414591 0.0051857284 0.0792646
-0.06569633 -0.03245292 0.022445649 0.0957813 -0.29850677 -0.042018678 -0.02502844 0.09831573
0.005594004 0.014974354 -0.03439869 -0.017370388 0.11096388 -0.011988181 -0.07435557 -0.02029747
-0.055762645 -0.056223974 -0.029907772 0.0066361483 -0.061888464 0.0028373937 -0.05365178 -0.0014795368
0.07619419 0.04277796 -0.08169669 0.06025606 0.092286274 -0.03405438 -0.050726753 0.087454684
-0.042188648 0.06892846 0.11438103 0.07945439 0.0316313 -0.06971452 -0.00932078 0.07820702
-0.04033895 -0.043895785 -0.023531578 -0.019078825 -0.006481983 -0.08501244 -0.038617767 -0.12024157
0.07296962 -0.02374225 0.004393749 -0.03306707 -0.04395887 -0.082545295 0.016942263 0.04501184
-0.015772322 -0.011155106 -0.013310958 -0.11022905 0.035580046 -0.061542 0.0653716 -0.09528206
0.019601285 0.027000807 0.010869121 0.06784255 -0.12788087 -0.08703036 0.05788885 -0.012763254
0.010141209 -0.078360245 -0.0399949 -0.0119745955 -0.10662457 0.07459133 -0.047888305 0.015464359
-0.02118655 0.0035506345 0.034070604 0.024323076 -0.09494451 0.052743014 0.05652394 0.028953612
-0.09854374 0.0830298 -0.11317888 0.023161668 -0.082154855 -0.0704495 0.056208294 0.0037544742
0.025841437 0.070465334 0.016252622 0.04020839 -0.0029279592 0.019106328 -0.054961283 0.024905246
0.016016599 0.0012616775 -0.052680653 -0.041305933 -0.07122562 0.010949131 -0.045588437 0.0710425
-0.04178229 0.011346165 0.007128425 0.0025498685 -0.048278455 -0.11573319 -0.006771199 0.050937958
0.079740874 0.06234362 0.057582356 0.04492844 -0.052472483 -0.11673727 0.026180003 0.012953304
0.03297949 0.0252811 0.029697249 -0.04615601 -0.006414083 0.040960513 -0.011588563 -0.060966283
0.011843582 0.0643973 0.01541279 0.052737363 -0.02765037 -0.10851329 -0.048400093 -0.106676325
-0.06867802 0.049649395 -0.044210393 0.014587054 -0.028295096 -0.03454079 -0.07299151 -0.093856744
-0.08539161 -0.04532514 -0.011461575 0.034578994 -0.035685614 -0.08036631 0.02661682 -0.056683708
-0.07828987 -0.07773776 -0.05313137 -0.073315345 -0.09725801 -0.028643401 -0.066480465 -0.03893571
00000000: 34c8 3dbd af2b 95bd b00e aebd 01c4 ac3d
00000010: 4743 dabc e578 6f3d 52fa 19bc 22ad e93d
00000020: cabb 7d3d 571c 313d 60dc b9bc 4111 b63d
00000030: 47c9 86bd 4c57 aebc e783 82bd ba50 243d
00000040: 2171 dfbc 4fe8 21be 27da 3d3a 99c6 5ebd
00000050: c930 6cbd 6b0c 163e 8c32 243c 547b 80bc
00000060: 1c8c 853c de0a 48ba 7303 86bd ec04 a4bc
00000070: 58b6 76bd 365b 223d 7a58 883d 5808 47bc
00000080: 9997 693d e770 44bc 1cf6 44bd e0ad 31bc
00000090: 9a5e 48bd 5178 a63d 5d3f 2e3e d838 24bc
000000a0: a13a 923d db4c 68bd 6cac 74bd 0b17 9c3c
000000b0: 435c 7fbd 5cac a4bd 2d71 173d 85b1 b9bc
000000c0: 5cd0 9b3c 0932 f1bc 7a27 14bd 88d8 793d
000000d0: b590 10bd 503a 6ebc 5686 a1bd 1c14 ca3c
000000e0: 607c 463c 4f3e 66bd 614c 6bbc 2be1 05bd
000000f0: 38f7 8dbc ecaa dabc 1133 843b 900b a13d
00000100: 9a11 05bd 1b96 df3c 2beb 4ebd 9fb9 92bc
00000110: cb0f 26bd 68cb 0abd a533 a0bd a6ee 483d
00000120: d2ce 6d3c 2a77 2b3d 9138 333d 74d3 173d
00000130: e6b0 ec3c 9f1b 03be 6a5d c23c ad84 973d
00000140: 5725 823d e144 a53b ee95 a5bd f23b 4a3d
00000150: a63a 98bd 1c01 c83c 0bed a93b 7b55 a23d
00000160: cc8b 86bd 5aed 04bd f0df b73c fc28 c43d
00000170: e1d5 98be c71b 2cbd 7108 cdbc c259 c93d
00000180: e84d b73b fe56 753c a4e5 0cbd 584c 8ebc
00000190: 0841 e33d 136a 44bc bc47 98bd e146 a6bc
000001a0: 5f67 64bd 1c4b 66bd 2501 f5bc 0c74 d93b
000001b0: c27e 7dbd 91f3 393b f8c1 5bbd 04ed c1ba
000001c0: b30b 9c3d f137 2f3d 9850 a7bd 0fcf 763d
000001d0: 9600 bd3d 9b7c 0bbd dbc6 4fbd 711b b33d
000001e0: 01ce 2cbd 5d2a 8d3d 9a40 ea3d fcb8 a23d
000001f0: d28f 013d 7cc6 8ebd 2fb6 18bc 012b a03d
00000200: 743a 25bd 11cc 33bd 4cc5 c0bc 324b 9cbc
00000210: d066 d4bb 011b aebd aa2d 1ebd 3641 f6bd
00000220: 1971 953d 1b7f c2bc 70f9 8f3b 5671 07bd
00000230: 370e 34bd 820d a9bd 80ca 8a3c 565e 383d
00000240: f534 81bc e8c3 36bc 3416 5abc c5bf e1bd
00000250: 62bc 113d 7713 7cbd 8ce1 853d 3e23 c3bd
00000260: e092 a03c cc30 dd3c 6614 323c 09f1 8a3d
00000270: 34f3 02be f93c b2bd dc1c 6d3d f81c 51bc
00000280: 5027 263c 567b a0bd b1d1 23bd 1831 44bc
00000290: fc5d dabd 57c3 983d 8726 44bd 395e 7d3c
000002a0: 6a8f adbc c3b1 683b 9e8d 0b3d 3041 c73c
000002b0: 4472 c2bd 0f09 583d a685 673d 2030 ed3c
000002c0: 4dd1 c9bd 870b aa3d 54ca e7bd 8abd bd3c
000002d0: ce40 a8bd d447 90bd ab3a 663d a00d 763b
000002e0: 6cb1 d33c 2150 903d 3824 853c 8eb1 243d
000002f0: 01e3 3fbb e084 9c3c 151f 61bd 1606 cc3c
00000300: 3e35 833c df5e a53a abc7 57bd 6930 29bd
00000310: bdde 91bd fc63 333c f1ba 3abd bb7e 913d
00000320: e823 2bbd 44e5 393c 9095 e93b b21b 273b
00000330: a1bf 45bd 8605 edbd efe0 ddbb 52a4 503d
00000340: 2f4f a33d 065c 7f3d 7adb 6b3d e206 383d
00000350: 63ed 56bd f313 efbd 7277 d63c 183a 543c
00000360: 8015 073d 4f1a cf3c a547 f33c 160e 3dbd
00000370: 3a2d d2bb 36c6 273d f5dd 3dbc c8b7 79bd
00000380: 950b 423c bbe2 833d ed85 7c3c 2203 583d
00000390: 0783 e2bc 373c debd 2d3f 46bd 1e79 dabd
000003a0: 10a7 8cbd 2a5d 4b3d f515 35bd 8afe 6e3c
000003b0: 1ecb e7bc a57a 0dbd 937c 95bd f737 c0bd
000003c0: cce1 aebd dba6 39bd 54c9 3bbc b4a2 0d3d
000003d0: 142b 12bd 1897 a4bd 840b da3c 2d2d 68bd
000003e0: 7056 a0bd fa34 9fbd 48a0 59bd 5b26 96bd
000003f0: 352f c7bd 91a5 eabc e926 88bd 0d7b 1fbd

linear4.bias f4 [64]
0.008841302 0.011646327 -0.04992424 -0.104778886 -0.11124618 0.084822744 -0.0059469645 0.1509443
-0.020988341 -0.10531314 -0.10223553 -0.059168402 -0.007808165 0.010771023 0.007098676 -0.027701491
0.012971224 -0.010625504 -0.07599079 -0.082661524 -0.0502425 0.007939398 0.043454666 0.038695607
0.032441474 0.17524089 0.044016294 0.03977866 -0.038109068 -0.012500489 0.030669127 -0.024846809
0.10042952 -0.07849793 -0.0641475 -0.03584037 0.010941014 -0.082909256 -0.08760448 0.008787687
-0.042068515 -0.076071605 -0.08382273 -0.039321445 -0.015449729 -0.07056744 -0.02817151 -0.0046180263
-0.08108093 0.00028726595 -0.0550897 0.0072505195 0.049853362 -0.08941655 -0.101943865 -0.038742695
-0.0014812903 -0.11546738 -0.08798945 0.017178424 -0.09299678 0.046721824 0.030605283 -0.008124348
00000000: 1cdb 103c 3cd0 3e3c 5c7d 4cbd 5096 d6bd
00000010: 0ad5 e3bd 8cb7 ad3d c1de c2bb 2591 1a3e
00000020: beef abbc 6aae d7bd dd60 d1bd 915a 72bd
00000030: a3db ffbb f278 303c 039c e83b 3dee e2bc
00000040: 4285 543c 9816 2ebc 0fa1 9bbd 724a a9bd
00000050: 14cb 4dbd 4014 023c 85fd 313d 497f 1e3d
00000060: 5ae1 043d 5972 333e 6e4a 343d f3ee 223d
00000070: 4118 1cbd dace 4cbc d23d fb3c 898b cbbc
00000080: fead cd3d 86c3 a0bd c45f 83bd 5acd 12bd
00000090: f041 333c 54cc a9bd fa69 b3bd 3bfa 0f3c
000000a0: 0950 2cbd 6ecb 9bbd 40ab abbd 860f 21bd
000000b0: dc20 7dbc a985 90bd f0c7 e6bc d052 97bb
000000c0: c20d a6bd 2f9c 9639 bda5 61bd c495 ed3b
000000d0: 0a33 4c3d 0620 b7bd f2c7 d0bd a9b0 1ebd
000000e0: db27 c2ba 297a ecbd d033 b4bd c4b9 8c3c
000000f0: 1975 bebd 625f 3f3d eeb7 fa3c fc1b 05bc

linear5.weight f4 [2, 64]
-0.028234566 -0.06740034 -0.028448846 -0.008611318 0.0614194 0.048054874 0.07749995 -0.007005387
-0.09545791 0.06463612 0.10170123 -0.0003100882 0.03707854 0.05064864 -0.0036924528 -0.054582648
-0.04935075 -0.102475785 0.00722863 -0.03399693 0.058601726 0.034980517 0.0465148 0.032581985
0.040612567 -0.019477159 0.040864713 -0.060784552 -0.031025615 -0.0038681603 0.09003825 0.011269027
0.049109623 -0.11310691 0.0767802 0.10634825 0.09444113 -0.11414346 0.021394223 0.028606322
-0.032166902 -0.054873653 -0.08964138 -0.05446866 -0.051225435 -0.0072517116 0.092147514 -0.014274979
0.07271011 0.08040842 -0.1218423 0.15589619 -0.041564442 -0.12658136 0.04408783 0.109345675
-0.14329785 0.015143746 0.043640196 0.086135976 0.010864019 -0.24709766 0.040185403 -0.08555645
0.036470275 0.09186248 0.033247173 -0.03546271 0.12439844 -0.027267233 0.024087625 -0.07340444
-0.09297545 -0.043388218 -0.01377143 0.083463326 -0.048921987 -0.032106195 0.0019740656 -0.073045425
-0.020237688 0.03207994 -0.0038916378 -0.07275165 0.06030441 -0.015256335 0.031741332 0.018903553
0.0050700493 -0.14855085 0.01732348 -0.106818214 -0.037556164 -0.100250795 0.061195448 -0.058945436
-0.064809196 -0.114027865 -0.05464891 -0.0782303 0.049666345 0.11423159 0.042353928 0.03202574
-0.07805199 -0.11906226 0.06408853 -0.07656052 0.022594836 0.008074629 0.101728365 -0.035752416
0.027189434 -0.032246605 -0.069623575 -0.0019623076 -0.16163866 0.07709853 0.06090626 -0.09895411
-0.015722735 0.07688802 -0.045886457 0.037826516 0.04703052 -0.052453242 0.0083844485 -0.05046106
00000000: 2d4c e7bc 3109 8abd 8e0d e9bc 7c16 0dbc
00000010: e992 7b3d 30d5 443d 4bb8 9e3d 728d e5bb
00000020: 707f c3bd f15f 843d bc48 d03d 5593 a2b9
00000030: abdf 173d f374 4f3d 14fd 71bb 0e92 5fbd
00000040: 0324 4abd d3de d1bd 25de ec3b 5d40 0bbd
00000050: 5d08 703d bb47 0f3d 4e86 3e3d b074 053d
00000060: 5d59 263d 908e 9fbc c261 273d 39f9 78bd
00000070: 6e29 febc f680 7dbb f965 b83d baa1 383c
00000080: 2c27 493d 98a4 e7bd f03e 9d3d 1ccd d93d
00000090: 5a6a c13d 0cc4 e9bd f042 af3c ce57 ea3c
000000a0: 71c1 03bd 32c3 60bd e695 b7bd 881a 5fbd
000000b0: c3d1 51bd c49f edbb d6b7 bc3d 9ae1 69bc
000000c0: 0ae9 943d 2bad a43d 7588 f9bd 40a3 1f3e
000000d0: 7a3f 2abd 8b9e 01be 7195 343d a0f0 df3d
000000e0: acbc 12be 791d 783c 10c0 323d 0f68 b03d
000000f0: 00ff 313c 2b07 7dbe 7399 243d 3838 afbd
00000100: db61 153d 6522 bc3d 302e 083d 5941 11bd
00000110: 9cc4 fe3d 885f dfbc 6953 c53c 1155 96bd
00000120: ea69 bebd d8b7 31bd 90a1 61bc d2ee aa3d
00000130: 6c62 48bd c981 03bd 535f 013b d798 95bd
00000140: 82c9 a5bc 4166 033d d90a 7fbb d1fe 94bd
00000150: c201 773d b5f5 79bc 3303 023d a0db 9a3c
00000160: a822 a63b b71d 18be f9e9 8d3c 82c3 dabd
00000170: 7ed4 19bd 4a50 cdbd 14a8 7a3d c570 71bd
00000180: afba 84bd 7187 e9bd 89d7 5fbd 3537 a0bd
00000190: f06e 4b3d 40f2 e93d 507b 2d3d 6c2d 033d
000001a0: b9d9 9fbd ead6 f3bd d940 833d c3cb 9cbd
000001b0: ce18 b93c 734b 043c f656 d03d 2071 12bd
000001c0: 60bc de3c 0415 04bd ce96 8ebd 0f9a 00bb
000001d0: 9b84 25be d6e5 9d3d d878 793d 74a8 cabd
000001e0: f7cc 80bc 7777 9d3d 70f3 3bbd faef 1a3d
000001f0: 13a3 403d 36d9 56bd ed5e 093c 42b0 4ebd

linear5.bias f4 [2]
-0.024092978 -0.0015451198
00000000: a35e c5bc 9e85 caba
