model/model.pth (torch, 9935 bytes, 4 tensors)

linear1.weight f4 [256, 4]
0	0xbe0574fc	-0.13032907
1	0xbe9ceb64	-0.3064834
2	0x3ea3defe	0.32006067
3	0xbe8f76fc	-0.28020465
4	0xbe631a00	-0.22177887
5	0x3dd8e9b8	0.10591453
6	0x3ee54456	0.447787
7	0xbea41e00	-0.32054138
8	0xbe99ab9e	-0.30013746
9	0xbecc80b4	-0.39941943
10	0x3dce8480	0.10083866
11	0xbe8327da	-0.25616342
12	0xbed94d80	-0.4244194
13	0xbe94ec7e	-0.2908668
14	0x3e9c8a68	0.30574346
15	0xbeafc58e	-0.3433041
16	0xbc8544ce	-0.01626816
17	0x3ea279fe	0.31733698
18	0x3cc3e9dc	0.023915224
19	0x3e9135b8	0.28361297
20	0xbd17f440	-0.03709817
21	0xbe87d51e	-0.26529783
22	0xbd0b7c90	-0.03405434
23	0xbe74262c	-0.23842686
24	0xbeefad06	-0.46811694
25	0xbeb49392	-0.35268837
26	0xbef06322	-0.46950632
27	0x3ee74b40	0.451746
28	0xbbf0d5f8	-0.007349726
29	0x3eaf13b0	0.34194708
30	0xbeea63f9	-0.45779398
31	0xbc54d5a1	-0.012990386
32	0xbb3cdbf8	-0.0028817635
33	0x3db04807	0.08607488
34	0xbf601f26	-0.8754753
35	0xbeda25d4	-0.42606986
36	0xbc5131cc	-0.01276822
37	0xbdbc702d	-0.09201083
38	0xbbdb670a	-0.006695633
39	0x3beaace2	0.0071617225
40	0x3d88d3d8	0.06681031
41	0xbe92c3e0	-0.28665066
42	0x3e9d5f80	0.30736923
43	0xb9b61ac6	-0.00034733693
44	0xbe9b2642	-0.30302626
45	0x3e8eb808	0.2787478
46	0x3eabae5a	0.33531457
47	0x3dd4a558	0.10383099
48	0xbea01018	-0.3126228
49	0x3de8c798	0.113661945
50	0x3e5c5a00	0.21518707
51	0x3ef1a5e6	0.47196883
52	0xbd3f17f0	-0.046653688
53	0xbe7001dc	-0.2343821
54	0xbea58fac	-0.32336175
55	0x3ec2ee54	0.38072455
56	0xbabb839a	-0.0014306188
57	0xbe961b1a	-0.29317552
58	0x3db50a7b	0.088398896
59	0xbdfc0008	-0.123046935
60	0xbd8d78b8	-0.06907791
61	0x3e9b7864	0.30365288
62	0xbec109c0	-0.3770275
63	0x3ee83e9a	0.4536026
64	0xbe878a70	-0.26472807
65	0xbe5543a0	-0.20826578
66	0xbee27978	-0.44233298
67	0xbef36536	-0.47538155
68	0xbd6748e0	-0.056465983
69	0xbec2fd4c	-0.38083875
70	0xbe0e2704	-0.13882071
71	0x3eaca1d4	0.33717215
72	0xbeb9a66c	-0.36259782
73	0x3ebb0e76	0.3653447
74	0xbdcbc5e0	-0.09949851
75	0x3e8e58c4	0.27802098
76	0xbd68acd0	-0.05680543
77	0xbde03610	-0.109478116
78	0xbd6736d0	-0.056448758
79	0xbebe466e	-0.3716311
80	0xbccd6a06	-0.02507497
81	0xbd8b8be8	-0.068137944
82	0x3ef17463	0.4715911
83	0xbe46b7a0	-0.19405985
84	0xbb7b8604	-0.003837944
85	0x3f3ee729	0.7457147
86	0xbdb1d263	-0.08682706
87	0xbe66d16b	-0.22540824
88	0xbce91556	-0.028452557
89	0xbd48d4a6	-0.049030922
90	0xbf8b133a	-1.0865242
91	0x3e36935a	0.17829648
92	0xbacce6a3	-0.00156327
93	0xbf01e7a1	-0.5074406
94	0xbebc0ffd	-0.36730948
95	0x3eb9c3e4	0.36282265
96	0x3e6c98bd	0.2310514
97	0x3e3adcb1	0.1824825
98	0x3ee8c8e8	0.4546578
99	0xbf5e8f74	-0.8693764
100	0xbe625544	-0.22102839
101	0x3e9a853e	0.3017978
102	0x3e55c910	0.2087748
103	0x3e231f90	0.15930009
104	0xbbec40ae	-0.007209859
105	0xbf5b035a	-0.8555199
106	0x3db02c59	0.08602209
107	0x3ca5fa59	0.020260977
108	0xbb58f9fa	-0.0033107982
109	0x3c1d2880	0.0095921755
110	0xbeec8072	-0.46191746
111	0x3e4e6b50	0.20158124
112	0xbc94f680	-0.018183947
113	0x3e858a8e	0.2608227
114	0x3d98c878	0.074601114
115	0xbed5cd14	-0.41758025
116	0xbea950ec	-0.3306955
117	0x3ea7fb56	0.32808942
118	0xbd0b07c0	-0.033942938
119	0x3eb7b0ee	0.35877174
120	0xbcebecb0	-0.028799385
121	0x3eac5ce1	0.3366461
122	0x3f0219e0	0.5082073
123	0x3e916aa2	0.28401667
124	0xbb36f41e	-0.0027916501
125	0xbc42faa0	-0.011900574
126	0xbe008c77	-0.12553583
127	0x3ed5c9d9	0.4175556
128	0xbadba099	-0.0016756236
129	0xbee913f6	-0.4552304
130	0xbec0b7e7	-0.37640306
131	0xbe315958	-0.17319238
132	0xbee55876	-0.44794053
133	0xbe66d79c	-0.22543186
134	0xbda31480	-0.079628944
135	0xbece4590	-0.40287447
136	0xbe94ff66	-0.29101104
137	0xbedafd3e	-0.42771333
138	0x3eae0a48	0.3399222
139	0xbebb6414	-0.3659979
140	0xbea96258	-0.33082843
141	0xbed173d4	-0.40908682
142	0x3df22d98	0.118251026
143	0x3ef4d0c6	0.47815531
144	0xbb18b229	-0.002329955
145	0x3db6664e	0.08906232
146	0xbe64838d	-0.22315808
147	0x3e19709e	0.14984366
148	0xbeb33354	-0.35000098
149	0x3d5cbb30	0.053889453
150	0xbed7cbf2	-0.42147785
151	0xbee719d8	-0.45136905
152	0xbc1b2f70	-0.009471759
153	0x3ed657d8	0.41863894
154	0xbd5e3b06	-0.054255508
155	0xbef047ee	-0.46929878
156	0xbd35de10	-0.04440123
157	0x3e7adeb8	0.24499023
158	0x3e9ffb82	0.31246573
159	0xbeb683fa	-0.35647565
160	0xbe14b9c8	-0.14523995
161	0x3e9b4fa0	0.30334187
162	0xbeabf608	-0.33586144
163	0x3b3adf00	0.0028514266
164	0xbab55b07	-0.0013836332
165	0xbee33776	-0.4437825
166	0x3d751b43	0.059840452
167	0x3e308e02	0.17241672
168	0x3d80396a	0.06260951
169	0x3ea5983e	0.32342714
170	0xbd716797	-0.05893668
171	0x3e9564e2	0.2917853
172	0xbee2b9ba	-0.44282323
173	0xbe3cb68c	-0.18429011
174	0x3e87b9aa	0.26508838
175	0x3ef5f5fc	0.48039234
176	0xbdbed178	-0.09317297
177	0x3e062d60	0.13103247
178	0xbe411f90	-0.18859696
179	0xbd794ce0	-0.06086433
180	0xbece734a	-0.40322334
181	0xbe6f978c	-0.23397654
182	0xbee7f8d2	-0.45307022
183	0x3e5324fc	0.20619577
184	0xbb1ae8db	-0.0023637328
185	0xbf02d556	-0.51106775
186	0xbdb2eab2	-0.08736171
187	0x3e208383	0.15675168
188	0xbcb6293c	-0.022236459
189	0xbe83e68d	-0.25761834
190	0xbf0d9123	-0.55299586
191	0xbef50495	-0.47855058
192	0xbc275b72	-0.010214673
193	0x3c97b8ab	0.018520674
194	0xbdc737a8	-0.097274125
195	0xbedd84e0	-0.43265438
196	0xbb1648a4	-0.002293148
197	0xbe601cba	-0.21885958
198	0xbf67a03b	-0.9047887
199	0x3f23b024	0.63940644
200	0xbc15875b	-0.00912651
201	0xbea222bb	-0.31667122
202	0xbeeb1a6f	-0.45918605
203	0xbec3a78d	-0.3821377
204	0xbdcec448	-0.100960314
205	0x3eb958f6	0.36200684
206	0xbe6eac80	-0.23307991
207	0xbeb86062	-0.36011034
208	0xbe80b77a	-0.25139982
209	0xbe73d2f4	-0.23810941
210	0x3da64b08	0.0811978
211	0x3ee02e50	0.43785334
212	0xbaf286b3	-0.0018503278
213	0x3e18708f	0.14886688
214	0xbe81af23	-0.2532893
215	0xbecfd1bd	-0.40589705
216	0xbe09d100	-0.13458633
217	0x3de8d410	0.11368573
218	0x3dcc0d80	0.099635124
219	0x3e498210	0.19678521
220	0x3e21af14	0.15789443
221	0xbd9e57c0	-0.07731581
222	0xbea9abd5	-0.3313891
223	0x3ec7a983	0.38996515
224	0xbdff1c70	-0.12456596
225	0x3ec37860	0.38177776
226	0xbdf0c890	-0.11757004
227	0x3da3f338	0.08005375
228	0xbc4ab753	-0.012372809
229	0x3e98ddef	0.29856822
230	0x3e6d3360	0.2316413
231	0xbeaa2314	-0.33229887
232	0xbb83e3e7	-0.004024971
233	0x3e9bb2c8	0.30409837
234	0x3e5e1564	0.21687847
235	0xbe5a0ebb	-0.21294682
236	0xbe89eb6e	-0.2693743
237	0x3de396d0	0.111127496
238	0xbe5e5c40	-0.21714878
239	0xbe412ed4	-0.1886552
240	0x3d8268e8	0.063676655
241	0x3edc9690	0.4308362
242	0xbea1b05b	-0.3157986
243	0x3e331065	0.17486723
244	0xbc02ca38	-0.007982783
245	0xbef7f880	-0.48431778
246	0xbe2b5370	-0.16731048
247	0x3f02856f	0.50984854
248	0xbe888b44	-0.2666875
249	0xbebb2ed2	-0.3655916
250	0xbeed2f68	-0.4632523
251	0xbe8afd4a	-0.2714637
252	0xbc00bc00	-0.007857323
253	0xbcafd340	-0.021463037
254	0xbef0216e	-0.46900505
255	0x3ecc5aea	0.39913112

linear1.bias f4 [256]
0	0xbec03b16	-0.3754508
1	0x3efd26e4	0.49443734
2	0x3ebb66dc	0.36601913
3	0x3cd8cfe0	0.02646631
4	0xbf568d64	-0.83809495
5	0xbebe1bee	-0.37130684
6	0xbefe5a64	-0.49678338
7	0x3d91d7e3	0.07121255
8	0x3e2a290f	0.16617225
9	0x3d74d54d	0.059773732
10	0xbf0820f2	-0.5317527
11	0xbed1fca0	-0.4101305
12	0xbeb99578	-0.36246848
13	0xbeaa6056	-0.33276623
14	0xbe8477ba	-0.25872594
15	0xbe3880e8	-0.18017924
16	0x3eff4036	0.49853677
17	0x3e7b5fcc	0.24548262
18	0x3ededbf2	0.4352718
19	0x3e4e6ae8	0.20157969
20	0xbea24539	-0.31693438
21	0xbc7da10e	-0.015480293
22	0xbe12073a	-0.14260569
23	0x3d78928e	0.06068664
24	0xbf2446cb	-0.6417052
25	0xbe914294	-0.28371108
26	0xbaad88fa	-0.0013239675
27	0x3e11a9b1	0.14224888
28	0xbe966f0a	-0.2938159
29	0x3e5ce47c	0.21571535
30	0x3ea551fe	0.32289118
31	0xbeb7f47e	-0.3592872
32	0x3edb2528	0.42801785
33	0x3bed1080	0.007234633
34	0xbe5a74e8	-0.21333659
35	0xbe86ecca	-0.2635253
36	0xbb889eb9	-0.004169312
37	0x3ea0991e	0.3136682
38	0xbdd8adc4	-0.10580018
39	0x3de6f868	0.112778485
40	0x3cd9bca0	0.026579201
41	0x3df62d4e	0.1202036
42	0x3fac664a	1.3468716
43	0x3d61f630	0.055166423
44	0xbd2bc560	-0.04193628
45	0x3ed79998	0.4210937
46	0x3d26429a	0.04059086
47	0xbeb47273	-0.35243568
48	0xbe51c6c5	-0.20485981
49	0xbef75afb	-0.483116
50	0xbe3a2431	-0.18177868
51	0x3e4f7944	0.20261103
52	0x3e5330f4	0.20624143
53	0xbc0e43d5	-0.008683165
54	0xbe166a00	-0.14688873
55	0x3e7e051c	0.24806637
56	0x3e443f80	0.19164848
57	0xbe74d2d1	-0.23908545
58	0xbeac4b7c	-0.3365134
59	0x3d9ca320	0.07648301
60	0xbf02b66d	-0.5105961
61	0x3e3f94da	0.18709126
62	0xbe826d74	-0.2547413
63	0xbeaa06f6	-0.33208436
64	0x3e5d90e0	0.21637297
65	0xbf11c598	-0.5694213
66	0xbf370197	-0.714868
67	0xbe9795a1	-0.29606345
68	0x3ec985d4	0.39359915
69	0x3e825043	0.2545186
70	0xbe0db4cb	-0.13838498
71	0x3eadf826	0.33978385
72	0xbefc8426	-0.4931957
73	0x3dfd65e8	0.12372953
74	0x3c625e3f	0.013816415
75	0xbef9b1a2	-0.48768336
76	0xbd58f750	-0.05297023
77	0xbefccc5c	-0.49374664
78	0xbeb776f4	-0.35832942
79	0x3e844c80	0.25839615
80	0xbe8ec465	-0.27884212
81	0x3eb2442c	0.34817636
82	0xbec9aa18	-0.39387584
83	0x3ee96fc2	0.45593077
84	0xbd3110e1	-0.043228988
85	0xbe90253a	-0.28153402
86	0xbe6147f8	-0.2200011
87	0xbeb2fb03	-0.34957132
88	0xbe4fafe8	-0.20281947
89	0x3db21728	0.08695823
90	0xbe9fdeac	-0.31224573
91	0x3ce93f68	0.028472617
92	0xbd0ad940	-0.033898592
93	0xbebcbd41	-0.3686314
94	0x3e795e9d	0.24352498
95	0x3e008384	0.12550169
96	0xbe4e7f1c	-0.20165676
97	0x3edb9d08	0.42893243
98	0x3e9f041a	0.31057817
99	0xbc1ee340	-0.009697735
100	0xbea136f8	-0.3148725
101	0xbe0b0058	-0.1357435
102	0x3ec66b9c	0.38753974
103	0xbd8a6bea	-0.06758864
104	0xbe79afe8	-0.24383509
105	0xbe19f8ca	-0.15036312
106	0x3ccdd480	0.025125742
107	0x3dd4f5a0	0.10398412
108	0x3ccc5fe0	0.02494806
109	0xbe45ec29	-0.19328369
110	0xbe2b5523	-0.16731696
111	0xbf288bad	-0.6583813
112	0x3d17bf10	0.037047446
113	0x3e9a6437	0.30154583
114	0xbec3cc7a	-0.3824194
115	0xbe632700	-0.22182846
116	0xbcf2b7e0	-0.029628694
117	0xbe7c0101	-0.24609758
118	0x3eaa6114	0.3327719
119	0x3e47589a	0.19467393
120	0xbee239f4	-0.4418484
121	0x3e283428	0.16426146
122	0xbeef954a	-0.46793586
123	0xbee03e2c	-0.43797433
124	0x3e965f8d	0.29369774
125	0x3e2b714c	0.16742438
126	0x3e55c7a3	0.20876937
127	0xbe5dcb7c	-0.21659654
128	0x3ca2a8a0	0.019855797
129	0x3eda81ee	0.42677253
130	0xbf07469d	-0.5284212
131	0xbdef5e3b	-0.11687895
132	0xbdf7f2cc	-0.12106857
133	0x3d1fd9f0	0.0390262
134	0xbd3bbba4	-0.045833245
135	0xbeebb61c	-0.46037376
136	0xbe39786f	-0.18112348
137	0xbefc2ec8	-0.4925444
138	0xbe4bfe9e	-0.19921347
139	0x3d8acb6a	0.067770794
140	0x3e85becb	0.26122126
141	0xbd7a0622	-0.061041005
142	0xbf1a403a	-0.6025425
143	0xbd5d3890	-0.05400902
144	0xbeb605ea	-0.35551387
145	0xbf346348	-0.7046399
146	0x3e12c81b	0.14334147
147	0xbeaa3d5a	-0.33249933
148	0x3eb11fe4	0.34594643
149	0xbe329b58	-0.17442071
150	0x3e96614c	0.29371107
151	0xbf4d222d	-0.80130273
152	0xbe194729	-0.14968552
153	0xbdbf87a5	-0.09352044
154	0xbf0218b8	-0.5081897
155	0x3e844d4f	0.25840232
156	0xbef3a8b8	-0.4758966
157	0x3e78f0b4	0.24310571
158	0x3ef4c216	0.47804326
159	0xbea8795f	-0.329051
160	0x3e5e2f30	0.21697688
161	0xbda00790	-0.078139424
162	0xbeffe3dd	-0.49978533
163	0x3d8ba1f0	0.068179965
164	0xbf62b4c2	-0.88557065
165	0xbd614931	-0.05500144
166	0x3db75b8a	0.089530066
167	0x3e424727	0.18972455
168	0xbdad4674	-0.084607035
169	0xbdcf0ec0	-0.10110235
170	0x3e716e04	0.23577124
171	0xbe898c02	-0.2686463
172	0x3e0cc128	0.13745558
173	0xbe528750	-0.2055943
174	0xbd311c33	-0.043239783
175	0xbef47119	-0.47742537
176	0x3edd56de	0.43230337
177	0xbf2c9642	-0.67416775
178	0xbdf31a9e	-0.11870311
179	0xbed14854	-0.40875494
180	0xbe37a97b	-0.17935745
181	0xbd2f48d0	-0.04279405
182	0x3ed49768	0.41521764
183	0xbe8406cc	-0.25786436
184	0xbf2d66d6	-0.6773504
185	0x3e674faf	0.2258899
186	0x3ef48320	0.4775629
187	0x3ebaaf02	0.36461645
188	0x3d0ace87	0.033888366
189	0x3e282edc	0.16424125
190	0x3d693017	0.056930628
191	0xbf202c6d	-0.6256779
192	0xbe2fc69a	-0.17165604
193	0x3eff2dc4	0.49839604
194	0xbf130d1b	-0.5744187
195	0xbedc00e6	-0.42969435
196	0xbedf6afa	-0.43636304
197	0xbea30712	-0.31841332
198	0x3ed06ffc	0.40710437
199	0xbed579b6	-0.4169442
200	0xbe38d8c8	-0.18051445
201	0x3e2d2984	0.16910368
202	0x3e8218c8	0.25409532
203	0xbdd59c7f	-0.1043024
204	0x3e445368	0.19172442
205	0xbe9e1962	-0.3087874
206	0xbd03e76e	-0.03220313
207	0xbe24e75a	-0.16103879
208	0x3decc630	0.11561239
209	0xbeb39148	-0.35071778
210	0xbc504c40	-0.012713492
211	0xbf3bc757	-0.73351043
212	0xbe8af480	-0.27139664
213	0x3e03a2ec	0.12855119
214	0xbec10588	-0.37699533
215	0x3e693f88	0.22778141
216	0xbf30f47e	-0.69123065
217	0xbf263cf6	-0.6493677
218	0x3e24ff22	0.1611295
219	0x3d815b49	0.063162394
220	0x3e715dcc	0.23570937
221	0x3d890147	0.06689697
222	0x3e6bd510	0.23030496
223	0xbf21b786	-0.6317066
224	0xbf52f2b3	-0.8240158
225	0x3b1e5200	0.0024157763
226	0xbef47efc	-0.4775313
227	0x3ed7498c	0.420483
228	0x3e04c1b0	0.12964511
229	0xbf15f440	-0.5857582
230	0xbeffb210	-0.49940538
231	0xbef0438c	-0.46926534
232	0x3e9120ce	0.2834534
233	0xbcb78460	-0.022401989
234	0x3e33df3c	0.17565626
235	0x3e825a26	0.25459403
236	0xbf2aaf66	-0.66673887
237	0xbed72ff6	-0.4202878
238	0xbeb7695e	-0.35822576
239	0xbf0fec56	-0.56219995
240	0x3daedae3	0.08537843
241	0xbbef037e	-0.0072941175
242	0x3e31653c	0.17323774
243	0xbe9f8dd8	-0.31162906
244	0xbe8bbd38	-0.272928
245	0x3e46abc7	0.19401465
246	0x3e33ff81	0.17577936
247	0xbf07d959	-0.5306602
248	0x3de54b80	0.11196041
249	0xbe174b19	-0.14774741
250	0xbe3dee12	-0.18547848
251	0xbf26e4a0	-0.65192604
252	0xbe947e18	-0.29002452
253	0xbde7000c	-0.11279306
254	0xbf13a22c	-0.5766933
255	0x3e052fd9	0.13006534

linear2.weight f4 [3, 256]
0	0xbcad3be0	-0.021146715
1	0x3d384dea	0.04499618
2	0xbd3ca5b0	-0.04605645
3	0xbd15f048	-0.036606103
4	0x3d2015df	0.039083358
5	0xbd227fb6	-0.039672576
6	0xbb7b57a0	-0.003835179
7	0xbcacba68	-0.02108498
8	0xba6b6e04	-0.0008980932
9	0xbc2cf209	-0.010555753
10	0xbcbfefdb	-0.023429802
11	0xbd651120	-0.055924535
12	0x3cc9d09c	0.024635606
13	0xbcd990c0	-0.02655828
14	0x3b8cb488	0.004293982
15	0xbc0e6a68	-0.008692361
16	0xbce32ec4	-0.02773226
17	0x3d578aaa	0.052622475
18	0xbd1d9fa6	-0.03848233
19	0x3c3dc720	0.01158312
20	0x3d06e03a	0.032928683
21	0x3c8314e5	0.016001174
22	0xbc9e54b9	-0.019327508
23	0x3c3aecef	0.011409028
24	0xbd43e71c	-0.047827825
25	0x3cf86d10	0.030325443
26	0x3c964f5c	0.018348388
27	0x3c96ba03	0.018399244
28	0xbc600268	-0.013672449
29	0x3cd5bab0	0.026089996
30	0xbc788a2d	-0.015169662
31	0x3c994df5	0.01871393
32	0x3cf6b79d	0.03011685
33	0xbd25b10e	-0.040452056
34	0xbcaf0280	-0.021363497
35	0x3ab4edc0	0.0013803765
36	0x3d3181c7	0.043336656
37	0x3d13a476	0.036045514
38	0x3d864712	0.06556524
39	0x3d1a5d6c	0.03768675
40	0xbcb8dc8c	-0.022566102
41	0x3c3e3d22	0.011611255
42	0xbeac7df0	-0.33689833
43	0xbb706ae0	-0.0036684796
44	0xbbfdc160	-0.0077439994
45	0x3ad90380	0.0016556829
46	0x3d42c1ed	0.047548223
47	0x3c2c0cc6	0.010501092
48	0x3b2b4ca5	0.0026138213
49	0x3c59d2d5	0.013294895
50	0xbc693943	-0.014234844
51	0xbcf05b7c	-0.029340498
52	0x3d1d66b8	0.03842804
53	0x3c2230f0	0.009899363
54	0x3d4e906a	0.050430693
55	0x3c87bb84	0.016568907
56	0x3c65bb00	0.014021635
57	0x3c3f6a00	0.011682987
58	0x3cb4ccf2	0.022070382
59	0x3d16b1fc	0.036790833
60	0x3d3b3b4d	0.04571085
61	0xbc7f1cd6	-0.01557084
62	0x3d73ea3e	0.059549563
63	0x3d6b484a	0.057441987
64	0x3c40e1c8	0.01177258
65	0x3c4f3dec	0.012649041
66	0xbc7ed302	-0.015553238
67	0xbc842e99	-0.0161355
68	0xbbb0d860	-0.0053968877
69	0x3d492cb7	0.04911491
70	0x3ccb93a3	0.024850672
71	0xbd088bb2	-0.03333635
72	0x3d188566	0.037236594
73	0x3be211e0	0.0068991035
74	0x3ce509c0	0.02795875
75	0xbcca15b4	-0.024668552
76	0x3d637c4c	0.05553846
77	0xbd1351dc	-0.03596674
78	0xbab95da9	-0.0014142293
79	0x3d716086	0.058929943
80	0x3ceaa656	0.028643768
81	0x3cdba800	0.026813507
82	0x3bd0d01c	0.006372465
83	0xba96de40	-0.0011510327
84	0xbd08e707	-0.03342345
85	0x3d25c314	0.040469244
86	0xbd6284d0	-0.05530244
87	0x3d3bdc03	0.045864116
88	0xbc763ef0	-0.015029654
89	0xbcd539c8	-0.026028529
90	0xbcb6046c	-0.022218905
91	0xbb6b1c0b	-0.003587487
92	0x3cc30ffc	0.023811333
93	0x3c9b6538	0.018969163
94	0x3d3fd4d7	0.04683384
95	0xba3df500	-0.00072462857
96	0x3c4b7648	0.012418337
97	0x3c25b2d8	0.01011344
98	0x3c95a0cc	0.01826515
99	0xbd618f4a	-0.05506829
100	0x3d4fc9c4	0.050729528
101	0xbb5686a0	-0.0032734051
102	0x3cc551e8	0.024086908
103	0x3cb6aafa	0.022298325
104	0x3d1e1ab2	0.038599677
105	0x3c92f1fa	0.017937649
106	0xbd226d64	-0.039655104
107	0xbbf12aae	-0.007359824
108	0xbd9712bb	-0.073766194
109	0x3cda2851	0.026630552
110	0xbc9fe957	-0.019520445
111	0x3ced54a6	0.028971028
112	0x3c04c800	0.008104324
113	0xbb3b2880	-0.0028558075
114	0xbbb0a383	-0.005390586
115	0x3d15a232	0.036531635
116	0x3d54cf78	0.05195567
117	0x3cbcaff5	0.023033122
118	0xbd2d84ac	-0.042362854
119	0xbabaa072	-0.001423849
120	0xbcc19edd	-0.023635322
121	0xbce510ec	-0.02796217
122	0xbd2f8ec1	-0.04286075
123	0xbd5bbefc	-0.053648934
124	0x3c758a33	0.014986563
125	0xbca2d994	-0.01987914
126	0x3cba1b81	0.022718193
127	0x3ce452fc	0.027871601
128	0xbd008b3e	-0.03138279
129	0xbd16dfb6	-0.03683444
130	0x3bd34ae4	0.0064481366
131	0xbc8c491b	-0.017124703
132	0xbb61c23f	-0.0034448055
133	0xbd5a37a0	-0.053275704
134	0x3d36e5a8	0.04465261
135	0x3d39618c	0.045259044
136	0x3d7164e4	0.058934107
137	0xbd0692b4	-0.03285475
138	0x3d07bd9e	0.033139817
139	0xbb3731f7	-0.0027953365
140	0x3d3d2efd	0.04618739
141	0xbc6434f2	-0.013928639
142	0xbcc9a816	-0.024616282
143	0xbd487216	-0.048936926
144	0xbc5c98e5	-0.013464187
145	0xbcccab0a	-0.024983902
146	0xbd156205	-0.03647043
147	0xbb08af1c	-0.0020856326
148	0xbd18018a	-0.037110843
149	0x3b13ff40	0.002258256
150	0xbd53b216	-0.051683508
151	0xbcbdb0f4	-0.023155667
152	0xba2e0b3c	-0.00066392473
153	0xbbbe9d7f	-0.005817115
154	0x3d71ed1e	0.059064023
155	0xbc91a69e	-0.017779645
156	0x3c3ef6af	0.011655494
157	0xbd269744	-0.040671602
158	0xbbedb020	-0.0072536618
159	0x3c97ce90	0.018531114
160	0xbbfcded0	-0.007716991
161	0x3d2c27e8	0.042030245
162	0xbc8be046	-0.017074715
163	0xbcd6e357	-0.026231451
164	0xbce3d054	-0.0278093
165	0xbcd51a22	-0.026013438
166	0x3a847fdf	0.0010108909
167	0x3d24fd59	0.040280674
168	0xbc2c6a89	-0.010523447
169	0x3d6e8b28	0.05823818
170	0xbd2d56c6	-0.04231908
171	0xbcb1975c	-0.02167862
172	0xbca1a488	-0.019731775
173	0xbd26480c	-0.040596053
174	0x3b9ec3ec	0.004845133
175	0xbbb478de	-0.0055075726
176	0x3c5bf640	0.01342541
177	0x3d1fea86	0.03904202
178	0xbcb524e3	-0.022112316
179	0x3d0d74a2	0.034535058
180	0x3d1fd8d8	0.039025158
181	0x3cdd91a4	0.027046986
182	0x3d5fd9de	0.054651134
183	0xbc887152	-0.016655598
184	0x3cd25ec2	0.02567995
185	0xbd0067bd	-0.031348933
186	0xbd68d2e0	-0.05684173
187	0xbd5cbf8a	-0.053893603
188	0x3cbcf827	0.023067547
189	0xbd683008	-0.05668643
190	0x3b97dcf5	0.0046344944
191	0x3c1a878f	0.009431734
192	0xbbb4d20a	-0.0055182027
193	0x3d3447e4	0.044013873
194	0x3cd4d896	0.025982182
195	0x3cba0bf8	0.022710785
196	0xbc1d1ceb	-0.009589414
197	0x3cc0621f	0.023484288
198	0xbd63cc0c	-0.055614516
199	0x3bcd36bd	0.006262629
200	0xbc989e84	-0.018630274
201	0xbb23e780	-0.002500981
202	0x3d72ea24	0.059305325
203	0x3d04a967	0.032388117
204	0x3d490504	0.04907705
205	0x3d0cf532	0.034413524
206	0xbd318caf	-0.043347057
207	0xbd0b51d0	-0.03401357
208	0xbbfd7380	-0.007734716
209	0xbd535e6a	-0.051603712
210	0x3d2f9cfc	0.04287432
211	0x3b4fec97	0.0031726712
212	0x3c48f6f8	0.012265913
213	0x3c14f108	0.009090669
214	0x3cbb833c	0.022889726
215	0x3d17afc8	0.037032872
216	0x3d338658	0.043829292
217	0x3bd16bfc	0.0063910466
218	0x3c9f019b	0.019409945
219	0x3c805ecb	0.0156702
220	0xbc8b62d8	-0.017014906
221	0xbc69adeb	-0.014262657
222	0x3c0e1138	0.008671097
223	0x3c0e4337	0.008683017
224	0x3c7871fd	0.015163896
225	0x3d7f876a	0.062385
226	0xbb56ffc0	-0.0032806247
227	0x3d11179a	0.0354229
228	0x3d085c0a	0.0332909
229	0xbd1477db	-0.036247116
230	0x3d21efad	0.039535213
231	0x3d32ab0a	0.043620147
232	0x3d38f4e2	0.045155413
233	0x3d32a698	0.043615907
234	0x3d217239	0.03941557
235	0x3d6eb868	0.058281332
236	0xbd35ca2c	-0.04438226
237	0xbcec9b2c	-0.028882585
238	0xbcabc653	-0.020968592
239	0xbc4679dc	-0.0121140145
240	0x3c277654	0.010221083
241	0xbc1648e6	-0.009172654
242	0x3d3c7cca	0.046017446
243	0xbd7ed82c	-0.062217876
244	0xbd114132	-0.035462566
245	0x3d574c0a	0.05256275
246	0x3c28121e	0.010258226
247	0xbc51c0d1	-0.012802319
248	0xbd1802f0	-0.037112176
249	0x3c4e1dc7	0.012580342
250	0xbc2eab4d	-0.0106609585
251	0xbbfae962	-0.007657216
252	0x3c0ec7a0	0.0087145865
253	0x3d1ef9cc	0.038812444
254	0x3b91f08f	0.0044537256
255	0xbcbddccc	-0.023176573

linear2.bias f4 [3]
0	0xbd891cb0	-0.06694925
1	0x3d4ce7c4	0.050025716
2	0xbab3dd96	-0.0013722654
