model/model.pth (torch, 209615 bytes, 8 tensors)

linear1.weight f4 [256, 40]
00000000: 68da 3ebe 87b4 263e e7b4 1c3d d4e7 93bd
00000010: b75d ebbd 8b62 82bd 7459 973d cada 2dbe
00000020: 4da8 f03c 2980 bc3d b569 09bd ffdd 05bb
00000030: 9c2b c9bd 1c1e 9f3d 593a b5bd 1648 ef3d
00000040: c493 ea3b e6d3 1dbe da94 b83d fb3a 40be
00000050: 9bc6 673d a464 5abd ed94 21be ba15 19be
00000060: 7218 2abe 97fc 4e3d 6c39 82bc a072 89bb
00000070: 0c84 0f3d 7a13 973d 1ef4 4fbd e080 71bc
00000080: 83e3 19be d6ef 9fbd 18b5 33bd 4a6a 8fbd
00000090: c07a 69bc c07d b83c 008c 933d 300f 19bd
000000a0: 1b68 4f3c f5d2 2a3d dd2f 7dbb 17fb 70be
000000b0: c01e 443e d482 543e 717f 3f3d 0394 723c
000000c0: bec7 173e bb8f e3bb d04a 3f3e 9e85 683b
000000d0: 5240 1f3e d998 8c3d e0d0 4a3e 1058 4e3e
000000e0: faf6 033e d43a f83d 450f e63c 42fa 18bd
000000f0: df36 033e 6928 503d 4635 67bd e156 b03a
00000100: 6c46 ec3d d78a 613d 235c d23d 9897 cc3d
00000110: e18f aebd b363 a2bd adb5 053b c4b9 11bd
00000120: 031a 373e 353b e83d 5647 a23d 63e0 f93d
00000130: 9d33 edbd b692 a2bd 39d3 2ebe 6100 b03d
00000140: db46 29bc abb3 893c 733d 773d 7fe7 cb3c
00000150: 56f7 81be 2082 d8bd ea91 49be ae7b a0bc
00000160: a57b 27be 995d 00be dfc3 8abc e305 06be
00000170: 5709 61bc 6bc7 86bc aa71 25bd b9e3 f8bd
00000180: 95dd f0bc 8628 213d 58a1 00be 6473 dabd
00000190: c97a b93d ad19 793d 0032 d8bd 40fc d8bd
000001a0: 237a 28be a5e0 f93d 6f0e 25be 5f0e bd3d
000001b0: 0c7f 043e 9a85 a3bd 3fc0 2cbd 5ddd 993d
000001c0: cf74 703d 6ac5 0bbe 7f3f 11be e6b1 14be
000001d0: fec9 0fbd 7ef7 05be 58f3 e9bd 9a62 3dbd
000001e0: 2ecb c1bd 98b4 0d3e dd21 bdbd 05aa e3bd
000001f0: fc2e d9bd 22df debd 6c97 4abd 4b03 b33c
00000200: 196a 783d 4885 a13c 918d 07be 578f ca3d
00000210: 5a14 1e3d e64b e53d bfd8 48be 4a33 6dbd
00000220: 110c 3abe 1493 8f3d c97b f03d 8bb1 1e3e
00000230: e5df 29be b353 183b 77c6 f33c 644c 01bd
00000240: d9e0 2cbe 1b8b 0e3c 43f2 17bd 5fa8 e4bd
00000250: 6e4c fe3d 0ea1 0b3e 1d42 d1bd 6e6e b2bd
00000260: 7406 a53c 0d22 a23d 31fa 84bd 05a6 e83c
00000270: 19bc 33bd c6e5 16be 4fc6 a4bd b6ad 18bb
00000280: d7f9 8fbc 0a23 84bd c0f0 183e eb48 ab3d
00000290: 3edc 9c3d 4f9d 08be 4811 163e 50d7 c63d
000002a0: ac28 2f3e dafe 333e 43d2 cf3d 79c7 dc3d
000002b0: 28e9 f8bd 3e8c 8b3d efcc 83bd 0293 a0bd
000002c0: 1807 0ebe dc1c 07be e826 c73d f928 80bd
000002d0: ebee 3d3d ba93 b6bd fad7 97bd c1ae 103d
000002e0: 7ccc 94bd 3784 5cbd 1482 c2bc 01ab babd
000002f0: a867 7abd f572 debd 4fc2 bb3d b85c 443d
00000300: b6a7 e5bd 1e73 25be 888b eb3d bcb6 debd
00000310: a697 c4bd c6b9 51bd f33c 9bbc 088d d93d
00000320: bc9a babc bb67 6dbc a9da 43be 0c16 863e
00000330: ffde 33be 6825 0fbe 02e0 23be 369f 783d
00000340: adaf 89b9 ca84 41bd 51b8 e7bc 93d0 0bbe
00000350: abf3 5cbd 49b6 823d 6bbc 58bc 3d0f 1cbe
00000360: 00b4 01bd 304c a4bd a405 e9bd 4ea2 03be
00000370: 0a5d 9e3d e540 ef3d a8bb 4cbe e1cf 0a3d
00000380: 7538 23bd 6437 cebd ad18 9c3d a14a 2c3d
00000390: 7785 e83c 8127 12bc de69 9a3d 4906 d4bc
000003a0: 93c8 823d d6c8 a4bd d2cd 30be e5c0 e7bc
000003b0: f682 25be e3ab 173d 49c3 003d 6166 db3d
000003c0: ff66 bebd 0315 10be 854d 593b 454c 373d
000003d0: 3c66 bebc 9311 33bd f0b2 de3c c83c 7a3d
000003e0: 3c85 053d 4f7d 74bd 1e64 7ebc 626d 5f3d
000003f0: 7024 f5bd 77b6 81bd 3100 9cbd a0f9 333d
-0.18638003 0.16279803 0.03825846 -0.07221952 -0.11492484 -0.06366452 0.07390109 -0.16977993
0.029377127 0.09204132 -0.033548076 -0.002042651 -0.09822771 0.07769415 -0.088490196 0.11683671
0.0071587283 -0.15412864 0.09012766 -0.187725 0.05658589 -0.053318635 -0.15779467 -0.14949694
-0.16610888 0.050533857 -0.015896522 -0.0041945726 0.03503804 0.07376762 -0.050769918 -0.014740199
-0.15028195 -0.07809417 -0.043873876 -0.07002695 -0.014250457 0.0225209 0.07204437 -0.037368
0.012659098 0.04170509 -0.0038633265 -0.23533283 0.19152355 0.20753032 0.046752397 0.014805797
0.1482229 -0.0069446242 0.18680882 0.0035480033 0.1555188 0.06865091 0.19806242 0.2015078
0.12887183 0.121205956 0.028083453 -0.03734804 0.128139 0.050819788 -0.05644729 0.0013453626
0.115368694 0.05506405 0.1027148 0.09989852 -0.085235365 -0.07929172 0.0020402477 -0.03557755
0.17881016 0.11339418 0.079237625 0.122010015 -0.1158211 -0.07938139 -0.17072763 0.08593822
-0.010331835 0.016809305 0.060361337 0.02489066 -0.25384015 -0.105716944 -0.19684568 -0.019590225
-0.1635576 -0.12535705 -0.016939102 -0.13088183 -0.013735137 -0.016452512 -0.0403916 -0.1215281
-0.029402534 0.039345287 -0.12561548 -0.1066654 0.090566225 0.060815502 -0.10556412 -0.10594988
-0.16452841 0.12201051 -0.16118787 0.09231257 0.1293909 -0.07984467 -0.042175528 0.07512925
0.058705147 -0.13649526 -0.14184378 -0.14520988 -0.035104744 -0.13082692 -0.11423367 -0.046236612
-0.094625816 0.13838422 -0.092349745 -0.11116413 -0.10604665 -0.10882403 -0.049460813 0.021852156
0.060648058 0.019716874 -0.13237597 0.09890621 0.038593628 0.11196117 -0.19613932 -0.05791024
-0.18168665 0.07010475 0.1174236 0.15497415 -0.16589315 0.0023243248 0.029757721 -0.031566992
-0.16882648 0.0087001575 -0.037096273 -0.11164927 0.124169216 0.13635656 -0.10217688 -0.08712469
0.020144679 0.07916651 -0.06493033 0.028399477 -0.043880556 -0.14736089 -0.08045637 -0.00232969
-0.017575188 -0.06451996 0.14935589 0.083635174 0.07659195 -0.13341258 0.1465503 0.09709036
0.17105359 0.17577687 0.10147526 0.10780234 -0.12153846 0.068138584 -0.06435572 -0.078405395
-0.13869894 -0.13194603 0.09724218 -0.06257815 0.046370428 -0.08914895 -0.07414241 0.03532291
-0.07265565 -0.053837027 -0.023743667 -0.09114648 -0.06113401 -0.1086177 0.09167921 0.047939986
-0.11213629 -0.16157195 0.11501223 -0.108746976 -0.09599237 -0.051202558 -0.018949961 0.10622603
-0.022778861 -0.014490063 -0.19126381 0.26188695 -0.17565535 -0.13979113 -0.16003421 0.06069871
-0.00026261565 -0.04724578 -0.028286131 -0.13653784 -0.053943317 0.063824244 -0.013228516 -0.15240188
-0.031665802 -0.08022344 -0.11378029 -0.12854883 0.077325895 0.116822995 -0.1999346 0.033889655
-0.039848763 -0.10069159 0.07621894 0.04206336 0.028383953 -0.008920551 0.07539724 -0.025881903
0.06385913 -0.08046119 -0.17266014 -0.028290221 -0.16163239 0.03702916 0.03143624 0.107128866
-0.09296989 -0.14070515 0.0033157778 0.04475047 -0.023242109 -0.043717932 0.027184933 0.06109312
0.032597765 -0.059689816 -0.0155267995 0.054547675 -0.119698405 -0.063336305 -0.07617224 0.043939233

linear1.bias f4 [256]
00000000: aa51 c0bd 2da2 143e 500e 9bbd 5fde abbc
00000010: b0a1 d43d d71c 96bc 06ed 19be f377 55be
00000020: 3f49 d63d c5af 4d3d bbf7 2c3e d925 953d
00000030: 71cf 8cbd 2ea8 8e3d aa17 863d 65b5 133c
00000040: ba3f 8fbd 6f98 ffbd 8930 e6bd ea1f a8bc
00000050: 9eb5 34be ba90 e03d 9942 6bbd fd3b 14be
00000060: cc70 8abd 8c04 05bd 9d4c 253d f159 f3bd
00000070: c51b 29be 83a3 823d 0386 a5bd 3d98 f1bd
00000080: dd02 993d e72d 14be d955 c8bd 2a8a 0b3d
00000090: 17de 54be dc57 2abe 5c6a af3d ecaa bcbd
000000a0: 3e7a 923d 32b1 033b 6d87 5bbd 87b1 d6bd
000000b0: ceb1 b23d 60c9 89bd fa33 1c3b f1f6 713c
000000c0: 50b4 78be 8ff8 32be 532d 1dbe 3c59 8f3d
000000d0: 7380 2abe 9f14 1b3c b369 ffbc aacd 723d
000000e0: b8a6 ad3d eed6 17be 1a44 e1bd e6ec 09bd
000000f0: 0fb8 23bd 8891 6cbd b317 13bd d731 b0bd
00000100: 8bc8 29be 03af be3d cf08 0e3d 7a00 c6bd
00000110: d61c e1bd 5c7f 2abe 337a 7cbe 9d83 c4bd
00000120: 5d3e d3bd a3de 91bd 3233 1fbd 1a90 46bd
00000130: 3130 42bd 2318 67be bd36 f6bd 09e9 0dbd
00000140: 4ad1 993d 73ca d9bd bf0f 12be ba22 03be
00000150: e4eb 5e3c d049 42bd dfa8 1cbe 3913 773d
00000160: a999 f8bc 071f f33d 9695 283d 1f7b b5bd
00000170: 8fa0 103e 2e80 4f3e 2cde a5bd 40f3 83bd
00000180: a032 c13c 320d 7bbe 5376 d93c a909 903d
00000190: 77b6 5b3c 0c88 d33b d663 b0bc f8be 973d
000001a0: 76df 463d 0966 f1bd 8474 33be 2be5 d8bd
000001b0: 8943 d0bc 2107 343d df37 d2bd 60da 433e
000001c0: 442c 0f3d 4a02 3ebe fab7 2ebe c7bd 61bd
000001d0: 44e2 f9bd 05e9 12be 29bb 7b3d d06d abbc
000001e0: 836b fc3d 9b9e 943e 477f 2bbe 2203 e2bd
000001f0: f473 49be 70fe e8bd 7ae9 37be b52f 02be
00000200: f018 0abe 3f4b 63bd 3050 f5bd 2bfc cebd
00000210: a694 7bbd 0a30 3cbe 8e93 d4bc 32c7 acbc
00000220: e588 953d 8846 56be 1924 0ebd c57e fe3c
00000230: c27f d8bd 5077 21be b71a 33be bef6 5dbe
00000240: 9939 633d 41ed a9bc c249 aa3e 3040 4ebe
00000250: 203a 0bbe c5b3 18be d0b3 1ebc 64c9 dbbc
00000260: 0348 f4bd b24f 9d3d 4534 c9bd b21c e8bd
00000270: 0c57 233c 3f5b 6abe 3f7e 913d 7507 dc3c
00000280: 2ddf 90bd f00b 853a 3054 20be 0f32 64be
00000290: 4f0d 12be 819c a0bd a89c fdbd 44b9 ccbd
000002a0: bc54 4dbd edfc f1bb 91d9 22be 732a 46be
000002b0: 3341 82be 1e71 e53d 428b 4cbe 06f0 58be
000002c0: 4a60 913d 107e adbd 08b7 14bd 3a3a c53d
000002d0: fb42 00bc 6df8 74bd 161e 133d 4a85 68be
000002e0: 901a d43d 5d04 06bd e5cb 25be 99d0 c3bd
000002f0: 49bc 9fbd 2721 653e 5ea0 803b 6af5 80bd
00000300: bfbc c4bd 9568 16bd 04a2 14be 4187 c13c
00000310: c443 83be 2810 25bc c5df 05bd dd20 c33c
00000320: f876 873d 823c 22bd d95a ddbc 958f ccbd
00000330: 3a68 81be b41b 26be 96af c53d f65b 13be
00000340: 5342 11bd a053 0cbd ceeb 30bc b79d 733c
00000350: 9e5e a03d 3312 67be 8304 1fbe 6fed 9a3c
00000360: f054 6fbd 83e3 3fbd 1a58 de3c 030c 623d
00000370: 9abc af3b bbad e0bd 77bd 323d d9f8 3abe
00000380: aee4 b13d 494a b2bd 5f8b 11be 0d73 9ebc
00000390: e087 4dbe 12ef 44be 9499 6d3d 7876 c4bd
000003a0: d8d6 6abe cbb2 873d 9a5d 71be 81a6 35bc
000003b0: efc2 8c3c fcb5 68be 2754 e23c 0aca 6ebd
000003c0: 75ef 8a3b b29a 97bc 746b 0abd 7ac2 e6bd
000003d0: 113f dcbd 9768 febd 29ea 873d f07a 1b3d
000003e0: ff40 e13d ea1a 00be 3776 98bc c7af b1bc
000003f0: f741 3ebe a289 2cbe 7e5c 3cbe 1b9d 4abe
-0.09390576 0.1451499 -0.07571089 -0.020980058 0.10382402 -0.018324299 -0.15031824 -0.20846538
0.10463189 0.050216455 0.16891377 0.072826095 -0.06875504 0.069656715 0.06547482 0.009015416
-0.06994577 -0.12480246 -0.11239726 -0.02052303 -0.17647406 0.109651044 -0.05743656 -0.14476009
-0.067597955 -0.03247504 0.040356267 -0.11882389 -0.165145 0.06378844 -0.08082201 -0.11796615
0.07471249 -0.14470635 -0.09781999 0.03406731 -0.20787846 -0.16635078 0.08565208 -0.09212288
0.07152222 0.002009463 -0.05359595 -0.104830794 0.0872532 -0.06727862 0.0023834691 0.014768348
-0.24287534 -0.1747763 -0.15349321 0.06999442 -0.16650562 0.009465366 -0.031178331 0.059278168
0.08479065 -0.14828083 -0.109993175 -0.03367319 -0.039970454 -0.057755977 -0.035911273 -0.08603256
-0.16580407 0.093107246 0.03467637 -0.0966806 -0.10991828 -0.16650146 -0.2465599 -0.09595416
-0.10314629 -0.07122543 -0.038867183 -0.04847727 -0.04740924 -0.22567801 -0.12022159 -0.034646068
0.07510622 -0.10634317 -0.14263819 -0.12806216 0.013606045 -0.047433674 -0.15298794 0.060321067
-0.030346708 0.11871152 0.04115828 -0.08861374 0.14123748 0.2026374 -0.080990165 -0.06442881
0.02358371 -0.24516752 0.02654568 0.070330925 0.013410202 0.006455427 -0.02153198 0.07409471
0.048552953 -0.1178704 -0.17524916 -0.10590585 -0.025422828 0.04395211 -0.10264563 0.19126272
0.034954324 -0.1855556 -0.17062369 -0.055112626 -0.1220136 -0.14346702 0.061457787 -0.020926386
0.12325194 0.29027256 -0.16747771 -0.11035754 -0.19673139 -0.11376655 -0.17960158 -0.12713511
-0.13486075 -0.055491682 -0.11978185 -0.10106691 -0.06142106 -0.183777 -0.025949266 -0.021091077
0.07301501 -0.20925343 -0.034702394 0.031066308 -0.10571243 -0.1576817 -0.1749066 -0.21676156
0.05547485 -0.020743014 0.33259398 -0.20141673 -0.13596392 -0.14912327 -0.009686425 -0.026829429
-0.11927798 0.07681216 -0.09824423 -0.11333598 0.009969484 -0.2288637 0.07104158 0.026859025
-0.070738174 0.0010150652 -0.15657115 -0.22284721 -0.1426289 -0.07842351 -0.123833954 -0.09996274
-0.050129637 -0.0073848874 -0.15903307 -0.1935213 -0.25440368 0.11203216 -0.19974998 -0.21185312
0.07098444 -0.0847131 -0.036307365 0.096302465 -0.007828469 -0.05980723 0.035917364 -0.22707096
0.10356629 -0.032719005 -0.16191061 -0.09561271 -0.077995844 0.22375928 0.0039253673 -0.06296809
-0.09606313 -0.03672083 -0.14514929 0.023624064 -0.2563764 -0.010074653 -0.032684106 0.023819381
0.06614488 -0.039608486 -0.027020859 -0.099883236 -0.2527483 -0.16221505 0.09652631 -0.14390549
-0.035463642 -0.03425944 -0.010798408 0.014869145 0.07830547 -0.22565536 -0.15529065 0.018912045
-0.058430612 -0.04684783 0.02714162 0.055187237 0.005363059 -0.109706365 0.04363772 -0.1825899
0.08686195 -0.08705575 -0.14213322 -0.01934197 -0.20071363 -0.19231823 0.05800779 -0.095929086
-0.22933519 0.06625899 -0.23570862 -0.011087061 0.017182795 -0.22725672 0.027628018 -0.05829815
0.0042399713 -0.018506382 -0.03379388 -0.11267562 -0.107542165 -0.12422293 0.066364594 0.03795904
0.10998725 -0.12510267 -0.018611057 -0.021690262 -0.18579851 -0.16849378 -0.18394658 -0.19786493

linear2.weight f4 [128, 256]
00000000: 76d0 62bd e6c7 5bb9 201c 4f3d 066e 7a3a
00000010: 35d6 8f3c 1fec 9d3b 62e8 063d ba46 b9bd
00000020: 2127 02bb 7d18 063c 80f9 b83c 4f6f 1bbd
00000030: 2cc2 e13c 4039 c73c bd9b c33a 0b91 c73c
00000040: 0eb6 02bd 6c16 4b3d 7894 28bc 5061 3e3d
00000050: cd6e 3abc 009c 283c 2afc 5ebd f015 f3bc
00000060: 4c2b 56bd 10d7 4dbc f065 71bd 2857 3c3d
00000070: e369 34bd 12f3 3ebd 0bff 80bd 90fa 80bd
00000080: 571a 18bc 0039 88b9 0af4 58bd f529 c93c
00000090: 84c6 a1bc b652 85bd 00ea ebbc 6ad0 05bc
000000a0: 0aa6 253d 8f2f cb3c 756a c43c 5483 63bd
000000b0: 3407 df3c 078b 00bd 15e3 103d dec4 0d3d
000000c0: 28a4 f8bc 96a2 5ebd 2a2d 51bd 9abe 2e3d
000000d0: 6654 5d3d a011 b43c 8443 2dbd 2e28 2cbd
000000e0: ef44 15bd 0675 c2bc a088 c43c c04f 87bd
000000f0: fc46 b93c 087a 8a3c 1caa 9bbb 5a1a 013d
00000100: 746d 103d 215a 343d 74ec 5dbd f463 56bd
00000110: ad08 07bc 5c87 303d 4998 33bc 721a 91bd
00000120: 9826 4ebd 97ad 443d 4a5d 3dbd 9c49 72bd
00000130: 3cbc 013d 7091 91bc 6c20 37bd 404b a2bc
00000140: 6f0a 00bd d885 093c 90f8 3fbd 6d65 69bd
00000150: 35e0 0bbb 6a52 c0bc 3536 bc3c 1b85 16bd
00000160: 017f 053a e9b7 053c 501f 15bd f0cf 173d
00000170: 1ce7 633d 53c0 2abd f8b4 2abd cef4 3c3d
00000180: 1291 0d3d 54e2 ec3c 8eee 7a3d 83d7 6dbd
00000190: ac0b 2b3d cd78 28bd 003e 1a39 2c21 22bd
000001a0: 178d d43c ba04 39bd 9052 113d 98fc 163c
000001b0: 888b cb3c b814 543d e82d 19bd 8e1d adbb
000001c0: 052b 87bc 8850 25bc 5329 2b3b 4e85 2dbd
000001d0: b0cb dabb 0743 2f3d 7a78 3cbd e5c0 85bd
000001e0: 6099 993c 0b5e 91bd 884e d43c 9424 8cbd
000001f0: 9ad9 463d 56e0 64bb 9292 2bbd fceb 44bd
00000200: bd8f c43c a0f4 2abd 4cc5 d9bc ebab 6d3c
00000210: ec24 7cbc 5f8b 06bd 5209 43bc 6616 09bd
00000220: 118b 6ebd 7272 173d 3b87 213d 7485 483d
00000230: 47e7 513b 3c07 5c3d dc2c 963c e01a 97bc
00000240: 2468 cf3b 324f f13c d0dc c63b b262 6c3d
00000250: 969d 2b3d c894 803b f2db a93c a4ad 0d3d
00000260: 4033 a53a c0c8 73bc 3821 62bd ff3b 94bd
00000270: 8fcc ffbc 8960 443d 4152 25bc 7025 d2bb
00000280: 008f cc3b e378 17bc 64e1 01bd c016 7b3b
00000290: 5c32 563d 9c74 76bd 2004 cbbc bb94 033d
000002a0: 1a67 84bd e2a0 d13c 988b f13b 5655 25bd
000002b0: 7e38 9abd 7476 2cbd b4dc 553c a89c 3cbd
000002c0: c099 343c b0b1 713c cb2e 173d c455 643d
000002d0: abbb 7dbd dcd2 21bc 8ac6 18bc 0eba 203d
000002e0: 2bdd 093d a0f2 013c 50ac df3c 05ff 6fbd
000002f0: 303c c5bb 5b44 863c 5162 ae3c b685 e23c
00000300: 8c16 e9bc f970 463d 4326 813c 5b8f b13c
00000310: 81bb 083c fc1f 12bd 46a9 653d 877b 033d
00000320: 829c 05bd 6b76 393c 6683 13bd 4729 1fbd
00000330: 2655 52bd bc1a 2f3d dc18 fcbc c28b 22bd
00000340: 981e 0a3d 2009 5bbc f202 83bc 35ff 9b3c
00000350: 656a 4ebd 4f29 49bd 001d 153d 7be1 9dbd
00000360: 6766 b6bd 4eec 14bd b820 9cbc d8b5 6bbc
00000370: 80fe f13c 805c 5e3c dd9c c43c ba50 3cbd
00000380: ad0d 45bd 3179 cebc 8057 cfbb ae91 86bd
00000390: e0a0 943b 6815 63bc c098 1bbb a8d6 8dbd
000003a0: 7803 cfbc 0085 2dbb 5099 713d 5a7d f13c
000003b0: 928c 70bd d7a1 053c 5e4f 1c3d 46f8 6f3d
000003c0: d77b 5bbc b752 213d ba96 93bd 98d4 4ebd
000003d0: 7034 293c a1eb 85bc 6062 b53b ddab 473d
000003e0: fff7 83bc 5058 523d 3726 9fbd bba1 3c3d
000003f0: f820 c8bc a077 073d e4aa 36bc 30ec eb3c
-0.055374585 -0.00020959936 0.05056393 0.0009553138 0.017558197 0.0048194076 0.03293646 -0.09046693
-0.0019859748 0.008184549 0.022579908 -0.03794795 0.027558409 0.024319291 0.0014923733 0.024361154
-0.031911902 0.04958193 -0.010289304 0.046479523 -0.011378956 0.0102911 -0.0544397 -0.029673547
-0.052287385 -0.012563482 -0.058935106 0.045981556 -0.044046294 -0.04661853 -0.062986456 -0.06297791
-0.009283624 -0.0002598241 -0.05296711 0.02455614 -0.01974798 -0.065099165 -0.028798103 -0.008167366
0.04044155 0.024802951 0.023976544 -0.055545166 0.027225114 -0.031382587 0.035372812 0.034611575
-0.030351713 -0.054354273 -0.051068462 0.04266224 0.054035567 0.02198106 -0.042300716 -0.042030506
-0.036442693 -0.023737442 0.02399093 -0.06607008 0.022616856 0.016903892 -0.004750503 0.03151927
0.035260633 0.044031266 -0.054180577 -0.052341416 -0.008241815 0.04309784 -0.010961601 -0.07085122
-0.050329775 0.04801711 -0.046231546 -0.05915223 0.031673655 -0.017769545 -0.044708654 -0.019811273
-0.03125995 0.008393727 -0.046867907 -0.056981493 -0.0021343355 -0.023476798 0.022975067 -0.036748033
0.00050924724 0.008161523 -0.036406815 0.03706354 0.055640325 -0.04168732 -0.04167649 0.0461319
0.034562178 0.028916515 0.06126266 -0.058066856 0.041759178 -0.04113083 0.00014709681 -0.039582416
0.025946183 -0.045170523 0.03547913 0.0092154965 0.024846807 0.05177757 -0.037397295 -0.005283064
-0.016500005 -0.010090001 0.002611716 -0.042363457 -0.0066771135 0.04278853 -0.046013333 -0.06530932
0.018749893 -0.070980154 0.025916353 -0.06842914 0.048547365 -0.0034923754 -0.041887827 -0.048076615
0.023994321 -0.0417372 -0.026583336 0.0145063205 -0.015389662 -0.03284776 -0.011904078 -0.033468626
-0.058238093 0.036974378 0.039435606 0.048955396 0.0032028721 0.053717837 0.018331937 -0.018445432
0.006329553 0.029456709 0.0060688034 0.05771131 0.041898333 0.003923986 0.02073476 0.034589425
0.0012603775 -0.0148794055 -0.05520746 -0.07238006 -0.03122547 0.047943626 -0.010090412 -0.0064131543
0.006242633 -0.00924513 -0.03170909 0.003831312 0.05229412 -0.0601698 -0.02478224 0.032124262
-0.064649776 0.02558941 0.007371377 -0.040364586 -0.07530306 -0.042105153 0.013053108 -0.046047837
0.011022985 0.014751837 0.03690986 0.055745855 -0.061946552 -0.009876933 -0.009324679 0.039239936
0.033658188 0.007931381 0.027303845 -0.058592815 -0.006019138 0.016390016 0.021287115 0.027651649
-0.028453134 0.048447583 0.015765315 0.021674803 0.008345486 -0.035675034 0.056069635 0.032100227
-0.03261996 0.011319737 -0.036013983 -0.038857725 -0.051350735 0.042750105 -0.030773573 -0.039684065
0.033720583 -0.013368875 -0.015992615 0.01904259 -0.050394434 -0.04911166 0.03640461 -0.077090226
-0.089062504 -0.03635817 -0.01905857 -0.014386617 0.0295403 0.013571858 0.02400058 -0.045975424
-0.048108745 -0.025204273 -0.0063275695 -0.06570755 0.0045357794 -0.013860084 -0.002374217 -0.06925708
-0.025270209 -0.002647698 0.0589841 0.029478718 -0.05872781 0.008156261 0.038161628 0.05858638
-0.013396225 0.039385524 -0.07206483 -0.050495714 0.0103274435 -0.016347708 0.005535409 0.048747886
-0.016109465 0.051353753 -0.07770961 0.046052676 -0.024429783 0.033073068 -0.011149142 0.028799146

linear2.bias f4 [128]
00000000: 1ab7 16bd e2b0 e93c f2bf c5bc 5e39 b539
00000010: 4e67 69bd 5fb3 4cbd be8b 49bc f9b8 5abd
00000020: 7799 8abd cfc1 2239 8d1b 7ebd f991 8abd
00000030: 4376 67bd 383e a63c c1cb e4bc b57a ddbc
00000040: b092 5cbd ac70 9bbd 84a7 a4bb ae2e 9fbd
00000050: 52e5 aebd 3f10 0fbd 767d 99bd 209d adbd
00000060: 5106 b3bd 00c3 04bd 9356 72bc 094c a4bd
00000070: 9f44 7ebd 9e4a 103c d462 afbd f8c2 c3bd
00000080: e399 02bc 38d7 bfbd fcc1 acbd 75f5 84bd
00000090: c2e0 1e3c d9fb d9bb ccaf 81bd 4bd8 b1bc
000000a0: 01c5 13bd a943 953c 782b 56bd e382 fa3a
000000b0: 1cd9 203c 59b4 af3b d439 7bbc d125 2f3c
000000c0: 09fd 3fba 4088 75bd bebb 95bd 238b 883c
000000d0: c720 8dbd 7d0b b7bd 5218 ecbc 77d0 b6bd
000000e0: 7d24 9abd abc2 e8bc da34 023d 6ba2 75bd
000000f0: a55d 80bd 70a2 9abd 8feb 89bb b070 8cbd
00000100: 1030 bfbd 85ff 19bd 5c63 41bd 61a1 b3bc
00000110: c88d b3bd 26bb 81bc 83ea 9e3c 0548 c8bc
00000120: 6cf0 babc f7dc b13c c8eb c73c 5ef3 0abd
00000130: f84c 06bd 496e 103c 4289 113d 716b 73bd
00000140: c056 08bc 5a99 9fbd 42d3 ebbc 341c c7bd
00000150: 3fc5 1d3c fb9e 9cbd 121c 193d 9bfe bfbd
00000160: b707 4abd 8476 793a 18f8 b83c 99b7 653c
00000170: 87bc b33c ef29 b7bd 4aa8 1cbd 84ad 17bc
00000180: 46b3 913b a6cb 1f3d 74e4 1fbd abd3 86bd
00000190: 8b3b 4fbd e29e 75bd 9c7c c3bd e229 80bc
000001a0: e085 9abd 71f2 a0bc d70a ec3b c2a4 87bd
000001b0: 1d3b 33bd 22e7 7ebd 265a 81bd 08ac e5bc
000001c0: 8283 67bc 4d7e 6ebd 63ab fd3c c6fb d7bc
000001d0: b599 71bd 3a8d 7dba 7d43 3cbd be38 f23a
000001e0: 29a4 8fbd 9a53 52bd a5a9 37bd 23dd 783a
000001f0: 590b 173d 5726 9fbc c3eb 813b faca 3dbc
-0.036795713 0.028526727 -0.024139378 0.00034565752 -0.056983285 -0.04997575 -0.012301384 -0.05339906
-0.06767552 0.00015521723 -0.062037993 -0.06766123 -0.056509268 0.02029334 -0.027929189 -0.02703605
-0.05385083 -0.0758985 -0.005024852 -0.07772575 -0.08539833 -0.034927603 -0.07494633 -0.08477235
-0.08741439 -0.03241253 -0.014791149 -0.08022315 -0.06207716 0.008806853 -0.08563772 -0.09558672
-0.00797126 -0.093672216 -0.08435437 -0.0649213 0.009697141 -0.006652337 -0.06332359 -0.021709582
-0.03607655 0.01822074 -0.05228755 0.0019112494 0.009817388 0.0053620753 -0.0153336115 0.0106901685
-0.0007323777 -0.05994439 -0.073111996 0.016667908 -0.068910174 -0.08937738 -0.02882019 -0.0892648
-0.07526491 -0.028413137 0.031788684 -0.059969347 -0.06267861 -0.07550514 -0.004208989 -0.06857431
-0.09335339 -0.037597198 -0.047213897 -0.021927537 -0.08767277 -0.01583631 0.019398933 -0.024448404
-0.02281972 0.02171181 0.024404421 -0.0339235 -0.032788247 0.0088153565 0.03553129 -0.059428636
-0.008321464 -0.07792921 -0.028787259 -0.09722176 0.009629547 -0.076475106 0.037380286 -0.09374734
-0.049323764 0.00095162564 0.022579238 0.014020824 0.021940483 -0.08943545 -0.03824643 -0.009257678
0.00444642 0.039012574 -0.03903623 -0.06583341 -0.050593894 -0.059965976 -0.09545252 -0.015644971
-0.07545066 -0.019646855 0.0072034406 -0.06623222 -0.043757547 -0.062232144 -0.063160226 -0.028036132
-0.014130475 -0.05822592 0.030965513 -0.026365172 -0.058984477 -0.00096722285 -0.0459628 0.0018480045
-0.07013733 -0.05134926 -0.04483952 0.0009493401 0.036876056 -0.019427462 0.0039648726 -0.011584038

linear3.weight f4 [64, 128]
00000000: 7d2d 47bd 8460 e0bc 0fc1 a8bd 7d42 e03c
00000010: 944c 8fbd 5e37 983d 3302 c23d 404b 56bc
00000020: cced 703d d470 b13c b02d 163d 4cae e13c
00000030: cb99 ab3d 68d8 30bd 802c 153a 5023 873c
00000040: 5d5a 42bd 344f 7cbd 8080 413b ccb0 49bc
00000050: 8306 50bc c2c7 8ebd 1438 103d 6580 7c3d
00000060: 9d22 6abd 4a0d 58bd 1fb4 b13d 0437 b6bd
00000070: 0e1f 5a3c a7cd 10bd cd93 873d 32fb 07bd
00000080: 5ee2 9dbd 73c0 94bd 96c1 413c 7578 b339
00000090: f7f7 323d a9b1 e9bc c5d6 27bd 4c88 1bbd
000000a0: 0497 8a3c 4bc8 a9bd ebbf 623d 1e77 d33b
000000b0: d3e3 1bbd e874 2abd c272 95bd 2314 7c3d
000000c0: 36d0 01bd bc26 24bd b546 81bd 9674 95bd
000000d0: 9727 24bd 3968 b13d 2156 3cbc ba24 853b
000000e0: bbfc a4bd 86c5 183c cf28 21bd 59e6 debc
000000f0: be3d 00bd d832 6e3d bdd6 b0bd e18c 7a3d
00000100: 8c30 02bd 59e1 a03d 480b f13c 6cb8 b13c
00000110: 6075 c73b 0ab8 9c3d ad66 2cbd a200 923d
00000120: 031c 2c3d 8856 c8bd 8fbc cdbd 9e3e 44bd
00000130: 27ed 513d 7e1b 91bd c627 7e3d 5737 82bc
00000140: 601d edbb 226f a53d 209e 933c ad3b 473d
00000150: 05ac f83b 70d4 453c ceac e9bc e119 893c
00000160: d711 acbd beb4 e2b9 18a6 723d 93d1 82bd
00000170: f815 393d ca64 a3bd ea85 f63c 2026 dabc
00000180: 2578 2abd 207b 8ebd b8db 943d bb18 a93c
00000190: b9a5 6a3d 31b0 02bd 9d57 8d3c 4042 69bd
000001a0: 7a47 703d 9865 45bc 3e38 10bd 1b3d edbc
000001b0: be49 15bd 5731 ddbb 86fe e3bc 760c b43c
000001c0: fb1e 0dbd 370e 36bd 0ba0 9abd 99fb 1b3d
000001d0: 442c 253d 089b cbbd c0b0 0abc 9899 be3c
000001e0: 2a17 1b3d 2f1f 2fbd d864 bc3d 90ba 103d
000001f0: 4247 93bd a9ba 223d 5c1e 8f3c 79ff e53c
00000200: 9145 0c3d d225 4ebd 8392 43bd cc0d 8dbd
00000210: 283a 9dbd e496 05bb e8e5 df3c e704 273c
00000220: 33a6 01be 3b00 8f3d f1b2 fc3c 5bea dd3c
00000230: ed39 2f3d 14e1 663d b014 92bd cf45 82bd
00000240: dc4f 8ebd 6108 403d a677 7b3d 36d8 82bd
00000250: d503 89bd 966c 1ebd 7910 643d bb1d dd3c
00000260: c720 97bd a722 1dbd 36bb 343d 54d0 413d
00000270: 2e64 393c e344 493d c3a9 2abd bdaf a93d
00000280: 3f1a 3abd acb0 5cbd fb64 9a3c 32a7 7dbd
00000290: 1593 01bc 23ca e3bc 711f 9f3d f0dd 64bd
000002a0: af24 ad3d 63b3 4bbd 2fd3 943d 40e8 923c
000002b0: d7ad df3c 660c 52bd ba2d 6abd 51d7 973d
000002c0: 7263 a53c 8dd6 b3bc 336b 36bd f8b5 f9bc
000002d0: ee9b d93b a5f6 5fbd b291 a13b 8650 45bd
000002e0: c7a2 68bd c9bb 6fbd 3c59 ccbd bc2b b4bd
000002f0: 4a3c 65bd 4f55 c5bc 3527 8abc b080 81bb
00000300: 8e5e 68bd e435 703c 301a 563d ddbd 803d
00000310: cf57 5fba 1e79 c03d 75c7 2ebd 615a 3e3d
00000320: b108 aabd 81d4 13bd a890 373d cb44 9abc
00000330: 782c 813c 24a3 6cbd 9612 4abd 4ecb a83c
00000340: 8480 5ebc 3971 563d cc1f 5e3d e84a 6dbd
00000350: e3aa 87bd 85c0 d1bc 587e e0bc 8621 d7bc
00000360: adc7 c5bc 1f8e 8c3d 38e6 a73c 3982 593d
00000370: 39a8 a63d 172c 16bd a4f3 08bc 84a1 afbd
00000380: d377 553d e05e b4bd 0f82 9f3c 3c95 f1bc
00000390: 81b5 ebbd afef 0cbd 8b16 29bb 983c 0b3d
000003a0: 65ac a93d 9b77 88bd 522e b23c 81ff 063d
000003b0: ff94 813c 0e92 9ebd 7c28 54bd af4e 8b3d
000003c0: 0ec0 c53d bde2 8cbc a249 413d 3104 3a3d
000003d0: 0c09 a13c c077 463d 7894 3f3c 82dd 803d
000003e0: f586 57bd 59d5 ca3d 0ab5 3ebd 746a cd3c
000003f0: 7469 96bd 7548 98bd 262f 2fbc 3b87 953d
-0.048627365 -0.027389772 -0.08239948 0.027375454 -0.06997028 0.074324355 0.09473076 -0.013079464
0.05882053 0.021660246 0.036664665 0.027548932 0.08378943 -0.04317513 0.000569053 0.01649633
-0.04744946 -0.06159897 0.0029526055 -0.012310218 -0.012696865 -0.069716945 0.03520973 0.061645884
-0.057161916 -0.05274705 0.086769335 -0.08897212 0.013313068 -0.035352375 0.06619988 -0.033198543
-0.07709192 -0.07263269 0.01182594 0.00034231288 0.04369351 -0.028527098 -0.040976305 -0.03797178
0.016917713 -0.08290156 0.05535881 0.006453409 -0.038059067 -0.041615397 -0.07297279 0.06154264
-0.031692706 -0.040076002 -0.063123144 -0.07297628 -0.04007682 0.08662457 -0.011495144 0.004063216
-0.08056017 0.009324437 -0.03934556 -0.027209448 -0.031308882 0.058153957 -0.08634708 0.06116951
-0.03178458 0.07855482 0.029424325 0.021694385 0.0060869902 0.0765229 -0.042090107 0.07129027
0.0420189 -0.097821295 -0.1004573 -0.04791128 0.051251557 -0.07085322 0.06204965 -0.015895529
-0.007236168 0.080778375 0.018019736 0.048640896 0.0075888657 0.012074575 -0.028524783 0.016735973
-0.0840184 -0.00043240743 0.05924043 -0.06387629 0.045186967 -0.07978208 0.030093152 -0.026629508
-0.041618485 -0.06957078 0.072684705 0.020641675 0.05728695 -0.03190631 0.017253691 -0.056947947
0.058661915 -0.012048148 -0.035209887 -0.028959801 -0.03644728 -0.0067502665 -0.027831327 0.021978598
-0.034453373 -0.04444715 -0.07550057 0.03808174 0.040325418 -0.09941679 -0.008464992 0.023266599
0.037863888 -0.04275435 0.09198922 0.03533417 -0.07191326 0.039728794 0.017470531 0.02807592
0.03424603 -0.050329037 -0.047747146 -0.06887397 -0.07677108 -0.0020384127 0.027331308 0.01019404
-0.12661056 0.06982466 0.030847045 0.027089288 0.04277985 0.056366995 -0.07132852 -0.06360971
-0.06948826 0.04688299 0.061393403 -0.06388895 -0.06690184 -0.038677774 0.055679772 0.026991716
-0.07379299 -0.038363125 0.04412385 0.047317818 0.011315389 0.04913796 -0.041665804 0.082854725
-0.045435186 -0.053879425 0.01884698 -0.061927028 -0.007908602 -0.027806347 0.07769669 -0.05587572
0.084542625 -0.049731623 0.072668426 0.017933011 0.027304573 -0.051281355 -0.057172514 0.07414115
0.02018902 -0.021952892 -0.044535827 -0.030482277 0.0066409027 -0.054678578 0.0049306983 -0.048172496
-0.05679586 -0.058528695 -0.099779576 -0.08797404 -0.0559657 -0.02408853 -0.016864398 -0.0039521083
-0.0567308 0.014661286 0.052271068 0.062862135 -0.00085198594 0.09398101 -0.042670686 0.04647291
-0.08302439 -0.03609133 0.04481569 -0.018831631 0.015768275 -0.05777277 -0.04933413 0.020604756
-0.013580445 0.05235407 0.054229543 -0.057932764 -0.06624391 -0.025604496 -0.027403995 -0.026261102
-0.024143064 0.06863045 0.020495519 0.053102706 0.08137555 -0.03666314 -0.00835887 -0.085757285
0.052116226 -0.088071585 0.019471196 -0.029490106 -0.115092285 -0.034408268 -0.002580079 0.033993334
0.08284835 -0.06663438 0.021750603 0.03295851 0.015818117 -0.077427015 -0.05179642 0.06802117
0.09655772 -0.017197961 0.047189362 0.045414153 0.019657634 0.048454046 0.011693113 0.06292249
-0.05261894 0.09903974 -0.04655937 0.025075175 -0.07344332 -0.07435695 -0.010692393 0.07301184

linear3.bias f4 [64]
00000000: 664c 27be 373e c0bd 6d5d 2240 6990 39be
00000010: 08ad 07bb a2d1 34be 1a92 0bbe bf78 14bd
00000020: 1f0b 90bc eb79 40be 7578 0abe 9e71 f7bc
00000030: 4712 923e 6536 42be fbac 2abe 6da2 4abe
00000040: 00ed 283f b0d9 14be 7359 9abd d329 18be
00000050: f906 dbbd af0d ffbd 2c3f 69bb 6bc1 3e40
00000060: b09c 13be ab58 883e c6e8 fdbd 2533 b83f
00000070: 068a d33e d350 f1bd 5458 68be 1973 31be
00000080: bba8 37be 232e c2bd f989 27be 03c6 9abc
00000090: bbd3 21be 8010 3f3f a00d 4bbe 1d0d 4bbe
000000a0: c4ff a9bc df55 0f3e ea44 1640 20bf 83be
000000b0: faf0 babd cd71 3cbe 248b babc 341f d0bd
000000c0: f5e1 7bbe 48c8 77be d782 dbbd bca6 fb3e
000000d0: 8e52 1dbe 7a3b 76be eb10 9fbd be99 943f
000000e0: 5274 86bd cda8 bebd dbda 0e40 71ab 01bd
000000f0: d415 67be e5aa 6fbe ae58 04be 0925 70be
-0.16337737 -0.093868665 2.5369523 -0.18121494 -0.00207025 -0.17658094 -0.13629952 -0.036247965
-0.017583428 -0.18796508 -0.13522513 -0.030205544 0.2852957 -0.18966062 -0.1666755 -0.19788523
0.65986633 -0.14536166 -0.07536592 -0.14859705 -0.10694689 -0.12453782 -0.0035590632 2.9805553
-0.1441524 0.26630148 -0.12397914 1.4390608 0.4131624 -0.11782994 -0.22689945 -0.17329063
-0.1793546 -0.09481456 -0.16361226 -0.018893247 -0.15803425 0.7463455 -0.19829416 -0.19829221
-0.020751841 0.13997601 2.3479562 -0.25731754 -0.09127994 -0.18402787 -0.022771426 -0.101622015
-0.24597915 -0.24197495 -0.10718315 0.49150646 -0.15363523 -0.24046126 -0.07766899 1.1609418
-0.06565155 -0.0930954 2.2321079 -0.03165764 -0.2256692 -0.23405035 -0.12924454 -0.23451628

linear4.weight f4 [3, 64]
00000000: b24b 90bd ee57 ccbd 472a 99be 06f5 10bc
00000010: 4435 0c3d ced2 be3c c40d 32bd bac8 dcbd
00000020: 1719 18bd 0947 c23c 23ff c9bc dc56 09be
00000030: c4ae bbbd c389 063e 9fe7 bc3d 7ce2 283d
00000040: 45e8 0fbe b6bb f9bd 07e6 d5bd 7599 efbc
00000050: 604b b1bd b5b2 7e3c b67e 683d b967 a7be
00000060: fdc5 0bbd 6997 88be a2b5 3db9 6cc1 5cbe
00000070: 72d6 26be eee7 f93c 734d 25bd 6c04 033e
00000080: 8d8e 453d a7c7 f7bd f583 423b e38a 8bbd
00000090: 6a4e cbbd 84e5 23be 2b9b e83d 0ee5 c93d
000000a0: e194 f93c 59b0 08be e46b ecbe a97c 353d
000000b0: 2253 303d 625f 463d 1f96 77be c64e febd
000000c0: 4066 79bc 84bd 3fbd 75e3 c43d 9dc9 51be
000000d0: 339b 893c 9055 0a3d e2ef 23bd 142f 01be
000000e0: 32d4 a1bb f1fe f03a 4dc0 98be 3d86 22be
000000f0: 4435 e9bc b22b 12bd f708 083d 65cf e2bd
00000100: 57bb 093d 4f58 2c3d c862 b0be e04c 8c3c
00000110: 6069 ebbd 02df 363d 1cd7 8ebc 5bed d33b
00000120: b48b f5bd ca9a 133d a8f0 b03d d4c9 89bd
00000130: bc13 1bbe 8bdc a23d 68aa fbbc 960c ae3d
00000140: cb13 fcbd fd34 b23a d5e8 12bc 051e ebbd
00000150: bd21 98bd b142 32bd db0a dbbd 4ae4 bbbe
00000160: eb64 99bd 349e 0bbe 962c 2b3d 0389 4cbe
00000170: 3057 a3be b85f dd39 1b0a 4bbd 5eb0 36bd
00000180: 2ea9 4ebd b6c8 63bb 8b5b 56bb 3011 a1bd
00000190: 39fd c6bd 9def 9dbe 4418 123d 11e8 08bd
000001a0: 527f aabc 79d2 b3bd 076b 70be b8e2 403d
000001b0: 4a57 87bd d2db 9f3c 2eca d8bb 5a2d 04bc
000001c0: 775a 913a 73e3 49bd 7933 06bd 98b4 95be
000001d0: 4ed1 80bc 4cf4 42bc f753 8b3c f28b e8bd
000001e0: 02d9 c3bd e472 133c 14de 89be 69bc 90bc
000001f0: c1c6 c6bc a767 cebc 1dc3 03be 949e 10ba
00000200: dd37 823d 7ed4 96bd 709f 4fbe bc0f 543d
00000210: 0e7a 6fbd 8010 133e 49e3 07be b8ef 04bd
00000220: 6e15 bfbd 2898 7fbd f564 923c 37f3 a1bc
00000230: 0224 17be b1fe 70bc c450 b13d 5aaf 81bd
00000240: 6523 8abd 6820 8ebd dc05 613d c621 c7bd
00000250: 7a01 6ebd 90e8 8ebc 0788 a83d 6aae dcbe
00000260: 9f9c efbb 5b86 70be bbab b4bd 5ccc f2bd
00000270: 06a9 82be 65d2 883c 6e5e 37bd 05c3 053d
00000280: 075e edbd 223b e23b f85d 9bbd 03f2 fcbd
00000290: e3d4 80bd 6a36 b2bd 6a12 dbbd 5884 7dbd
000002a0: f8fb 9e3d 8e38 09be 42c7 2bbe cd83 b83d
000002b0: 07cc 1fbe e6d6 a2bd 0ff2 0cbe c8b9 34bd
000002c0: d473 89bd c495 8a3d ef38 01be cef1 24be
000002d0: 0fec 0a3e 7a56 33bd 025d c3bd 2163 66bd
000002e0: f8cf aa3c 9c23 b0bc 1d8e d7be 454a 29bd
000002f0: ea17 06bd 4af9 21be e939 47bd 0f73 a8bd
-0.07045688 -0.09977709 -0.29915068 -0.008847481 0.034230486 0.023293879 -0.04347016 -0.10780473
-0.037133303 0.023715513 -0.024657791 -0.1341204 -0.09164193 0.1313849 0.09223866 0.041231617
-0.14053448 -0.12194006 -0.10444265 -0.029247979 -0.08656955 0.015545537 0.056761466 -0.32696322
-0.034124363 -0.26678017 -0.00018092108 -0.2155816 -0.16292742 0.0305061 -0.040357064 0.12794656
0.04823165 -0.120986275 0.0029680703 -0.068136 -0.09927066 -0.16005522 0.11357721 0.09858142
0.030466499 -0.13348521 -0.46176064 0.04430834 0.04304803 0.048430808 -0.2417836 -0.124173686
-0.015222132 -0.046811596 0.096136965 -0.20487066 0.016797638 0.033773005 -0.040023692 -0.12615615
-0.0049386257 0.0018386525 -0.29834214 -0.1587152 -0.028467782 -0.035686202 0.033211675 -0.110747136
0.033625927 0.042076405 -0.34450364 0.0171265 -0.11494708 0.04464627 -0.017436557 0.006467504
-0.11989537 0.03603629 0.086396515 -0.06727949 -0.15144247 0.079522215 -0.030720904 0.08498494
-0.12308463 0.0013596114 -0.008966644 -0.11480335 -0.0742831 -0.043520633 -0.1069543 -0.36697608
-0.07489952 -0.13634568 0.041790567 -0.19974141 -0.31902456 0.0004222372 -0.049570184 -0.04460179
-0.05045431 -0.0034757084 -0.0032708372 -0.078646064 -0.09716267 -0.30846873 0.035667673 -0.03342444
-0.020812664 -0.08780379 -0.23478328 0.047091216 -0.06608446 0.019513998 -0.0066158986 -0.008067453
0.0011089583 -0.049289178 -0.032763932 -0.29239345 -0.015724804 -0.011899065 0.017007811 -0.113548175
-0.09562875 0.00899956 -0.26927245 -0.017667966 -0.024264695 -0.02519591 -0.12867399 -0.0005516794
0.06358311 -0.073647484 -0.20275664 0.051772818 -0.05846601 0.14361763 -0.13270296 -0.032455176
-0.09330259 -0.062400967 0.017870406 -0.019769294 -0.1475983 -0.014709161 0.08657983 -0.06332274
-0.06745032 -0.06939775 0.05493723 -0.09723239 -0.058106877 -0.017444879 0.0822907 -0.43101817
-0.007312372 -0.23488753 -0.088218175 -0.11855385 -0.2551958 0.016701886 -0.04476779 0.03265669
-0.115902 0.006904022 -0.075862825 -0.123508476 -0.06290605 -0.08701785 -0.106968716 -0.06189379
0.07762903 -0.1340048 -0.1677523 0.09009514 -0.15605174 -0.07951145 -0.13764213 -0.044122487
-0.067115456 0.06766847 -0.12619375 -0.16107866 0.13566612 -0.043783642 -0.09539224 -0.05624688
0.02085112 -0.021501355 -0.4210061 -0.041330595 -0.03273765 -0.15817752 -0.04863921 -0.08225071

linear4.bias f4 [3]
00000000: a650 a1be bac8 07bf 6498 52bf
-0.31506842 -0.5304066 -0.8226378
