model/model.pth (torch, 13007 bytes, 4 tensors)

linear1.weight f4 [256, 7]
000000 72 5c 6a be 8a 5a 9b 3e 7a 7f 85 3d 75 a6 6d be
       -0.22886828 0.30342513 0.06518455 -0.2320803
000010 36 8c dc 3d 30 62 28 be 89 0e 19 be 84 fb b4 be
       0.107689306 -0.16443706 -0.14946951 -0.3534814
000020 40 cd 1e 3d bf 0a ad be be 29 79 be 8c 89 83 be
       0.03876996 -0.3379726 -0.2433233 -0.25690877
000030 52 ee 7d be f8 8c d7 3d 69 16 29 3e f7 9f 7c be
       -0.24797943 0.105249345 0.16512455 -0.24670397
000040 d8 f6 b2 be 4d 15 88 3d fa d8 8a be 74 2b 28 be
       -0.34953952 0.06644688 -0.27118665 -0.16422826
000050 95 2a 83 be 74 7d 66 be 2a 8c 8e 3e e8 55 bc be
       -0.25618425 -0.22508794 0.27841312 -0.3678429
000060 fb bb 0f bd af b2 2a be c7 1b 39 bd f0 70 8e be
       -0.03509138 -0.16669725 -0.045192506 -0.2782054
000070 f0 99 3f 3d 37 88 36 be ac 17 3e be 5a aa d4 bd
       0.046777666 -0.178254 -0.18563718 -0.103840545
000080 b5 e7 d3 3e 2e 39 2a 3e 35 0f 7d be 28 17 60 be
       0.41387716 0.16623375 -0.24712832 -0.21883833
000090 59 42 25 3e 89 84 26 3e 23 39 ea bd 00 0e 76 3e
       0.16138591 0.16261496 -0.11436679 0.24028778
0000a0 87 92 01 3e 8e e2 ae be 8a ad cc 3e e9 f6 3f 3e
       0.12653552 -0.34157223 0.3997615 0.18746532
0000b0 1b 5a 9c 3d da f6 2c 3e a2 b8 55 bd 1d cf 71 bc
       0.07634374 0.16891041 -0.052178033 -0.014758852
0000c0 7a 7a af 3e 4f 97 81 3c c6 42 92 3e f9 0c 1f 3d
       0.3427313 0.01581922 0.2856657 0.03883073
0000d0 83 2c 84 3e 82 4f 9e 3e f5 ed 46 3e b8 1f a4 3e
       0.2581521 0.30920035 0.19426711 0.3205545
0000e0 45 46 92 be 39 8b 42 3e d5 ff 82 be 42 52 89 be
       -0.28569236 0.18998422 -0.2558581 -0.2682057
0000f0 21 d6 db 3b 0e 1e df 3d a3 88 14 3e 90 2f 8f be
       0.0067088758 0.10894404 0.14505248 -0.27965975
000100 af b6 62 3c 54 0f b5 bc fa 91 42 bd 8c 76 16 bd
       0.0138375005 -0.022102036 -0.047502495 -0.03673415
000110 ac fd 3a bd ab 8f b6 3e b2 1b 81 be 0f d8 a9 be
       -0.045652077 0.35656485 -0.25216442 -0.33172652
000120 d2 e7 80 be 8b 2f e0 be c0 a8 de be 78 83 f1 bd
       -0.25176865 -0.43786272 -0.4348812 -0.11792654
000130 65 12 7e 3e a6 76 38 be 14 dc 63 be f2 58 70 3e
       0.24811704 -0.18014011 -0.22251922 0.2347143
000140 cc 7e b7 3e df 13 22 be b9 2a 59 be 53 46 15 be
       0.35838926 -0.15827893 -0.21207704 -0.14577608
000150 73 6f 39 3e b2 06 17 3e c7 b7 4d be 1d bc 05 3d
       0.18108921 0.14748648 -0.20089637 0.032650102
000160 e8 c6 f1 3d 5a ee c1 bd fd dd 2e 3e 91 fa c5 3d
       0.118055165 -0.0946929 0.1707687 0.096669324
000170 4f 0c 53 3e d5 17 eb be 6e 0e 1a bf 82 66 da be
       0.20610164 -0.4591662 -0.6017827 -0.42656332
000180 69 0b f3 3d 0d 74 37 3e 4e 57 46 3e fa c2 3d be
       0.11867411 0.17915364 0.19369242 -0.18531409
000190 1e 85 dd 3e ab 74 4d 3d 50 11 58 3e 6f 4f 72 bd
       0.43265623 0.05016009 0.21100354 -0.059157785
0001a0 f2 68 a1 bd 80 ef 8e 3e a5 ea 78 3d 3c 34 d3 3e
       -0.07881345 0.279171 0.06077065 0.4125079
0001b0 0b e8 a1 3e 69 95 9d 3e ab 1d d3 bd ae b9 a9 3e
       0.31622347 0.30778053 -0.10308393 0.33149475
0001c0 1a 59 81 3e 15 73 84 bd 7c 8e b0 3d 43 a6 9f 3d
       0.25263292 -0.06467263 0.08620927 0.07795384
0001d0 53 71 85 3e 0d a2 0a 3d ef 2f 75 3e 24 41 ae bd
       0.26063022 0.03384595 0.23944066 -0.08508518
0001e0 98 31 0b bd 6a 43 35 be dd d3 80 be bb fa c3 be
       -0.033982843 -0.17701498 -0.2516164 -0.3827723
0001f0 4c 5b 75 3e 10 db 37 bd 82 9e 07 be f2 63 53 3e
       0.23960608 -0.04488665 -0.1324406 0.20643595
000200 e8 f4 3f be 6e 38 83 be d6 f1 b9 be 58 fc a5 be
       -0.18745768 -0.2562899 -0.3631732 -0.32419086
000210 59 fb 4b 3e 24 b9 d5 3d 65 aa 1b bd 78 cd 2e 3e
       0.199201 0.104357034 -0.038004298 0.17070568
000220 75 1b 5a be 89 25 20 3e 32 1b 13 be 35 8f 4d be
       -0.21299537 0.15639319 -0.14365843 -0.2007416
000230 a8 ad 55 bd b8 33 32 be 09 e6 95 be c3 c0 0e 3e
       -0.052167565 -0.17402542 -0.29277065 0.1394072
000240 90 47 5b bd df 62 46 be 47 95 25 3e e1 ac a2 be
       -0.053535044 -0.19373654 0.16170226 -0.3177252
000250 3e 65 8d 3e dd 1c 41 3e 11 e6 ec bc d2 69 91 be
       0.27616304 0.18858667 -0.028918298 -0.28401047
000260 16 c3 82 be b0 1d 2c 3e a4 22 92 3d 8a 59 9d be
       -0.25539464 0.168082 0.071355134 -0.30732375
000270 8a b8 26 be ea 27 7a be 21 73 95 be 80 ad 5e bc
       -0.16281334 -0.24429289 -0.291894 -0.01359117
000280 ed 8b 8b be 21 3b 44 3e bf 96 3c be 5a fb 3a 3d
       -0.27255192 0.19163181 -0.1841688 0.045649864
000290 9d 64 53 bd 20 c0 ec 3d 96 95 8e 3e 4d bf 71 be
       -0.051609624 0.115600824 0.278485 -0.23608132
0002a0 d7 38 9b be e4 ab 56 be ee c4 8b be b5 67 87 3e
       -0.30316803 -0.20964009 -0.27298683 0.2644631
0002b0 7b ef 0a 3e b3 a6 38 3e 00 97 c0 bc ca f8 9e 3d
       0.13567917 0.1803234 -0.023509502 0.077622965
0002c0 91 52 2f bd e7 2a a4 3e 3a 9f f7 3e 1d b8 d2 3e
       -0.04280335 0.32063982 0.48363668 0.41156092
0002d0 9e ee 4e 3e 02 bd 7b bd 78 8a 00 be 27 8c ac be
       0.20208213 -0.06145955 -0.12552822 -0.33700678
0002e0 99 22 9f 3e ae ee 86 3e 0a 1b 27 3e 0e f1 c0 3c
       0.31081083 0.26353973 0.16318908 0.023552444
0002f0 3d 4a cc 3d 07 0b 21 bd bd 37 48 3e 77 36 fc bd
       0.09975097 -0.039317157 0.19552512 -0.12315076
000300 c7 0a de bd e2 eb d9 3d f1 f3 49 3e 92 cf 86 3c
       -0.10841899 0.10640694 0.19721963 0.0164564
000310 b8 ab 67 3d ef 57 16 be 02 5e 3d be 90 8b 2b be
       0.056560248 -0.14681982 -0.18492892 -0.16752458
000320 00 cd d4 3a 06 e1 b0 be ed d5 a6 be ee 37 ea 3d
       0.0016235411 -0.3454668 -0.32585087 0.11436449
000330 a2 e0 47 3e dc 74 c6 be 32 52 ad be 7b e9 57 bd
       0.19519284 -0.38761032 -0.33851773 -0.0527129
000340 e8 18 90 3d 9b 58 c6 3c c5 0f 91 be 3a 09 81 3e
       0.070360005 0.024212172 -0.28332344 0.25202352
000350 4d 43 c5 3e c8 2f ba 3e f4 83 7e 3e 4a c2 8f 3e
       0.3852791 0.3636458 0.24855024 0.28077918
000360 1c c4 1c be 8f f4 02 3e d0 2e 8b be 45 97 db 3b
       -0.15309185 0.12788604 -0.27184153 0.0067013823
000370 0f b0 fe bd 18 1c 31 3d 1b 93 dc 3d a8 a5 8e be
       -0.12435924 0.043239683 0.10770246 -0.2786076
000380 f7 0a cf 3d ea 43 a1 bd 46 b9 22 3e 3f 31 db bc
       0.10109513 -0.07874282 0.15890989 -0.02675688
000390 cc ee 30 3c 35 c6 c9 3d 90 8d be bd 9b a4 5b be
       0.010799121 0.09852258 -0.09304345 -0.21449511
0003a0 f8 f7 90 be 2f 8b 0e be c6 e5 13 3e 68 75 6d 3d
       -0.28314185 -0.13920282 0.1444312 0.057973295
0003b0 f0 c2 7e bd 00 e8 a0 bc 45 98 00 3e d2 6e eb 3d
       -0.062197626 -0.019641876 0.12558086 0.11495747
0003c0 58 85 9e be 0f f7 2b 3e b7 21 a3 be e7 5d 6e be
       -0.30961108 0.16793464 -0.3186166 -0.23278008
0003d0 45 6b 1b be d2 6f fb 3c 23 a1 88 be 0f 36 b3 be
       -0.15177639 0.030692969 -0.26685438 -0.3500218
0003e0 70 42 0a bc aa 5f c5 3e c8 5a 5b bd 47 ee fa 3d
       -0.0084386915 0.38549548 -0.053553373 0.12252479
0003f0 8c 7d eb 3c 40 b4 9e 3e d5 7c 9c 3e 2c 51 d0 3e
       0.028746389 0.30996895 0.3056399 0.4068693

linear1.bias f4 [256]
000000 2f a6 3a be 00 6e b7 bb 35 b4 a1 be 47 b8 db bc
       -0.18227457 -0.00559783 -0.315828 -0.026821269
000010 91 5d ba 3f 42 6d 57 3f e1 1b a0 bd f9 1a aa 3e
       1.4559804 0.8415109 -0.078178175 0.33223704
000020 ba af 1e be 09 fd 25 3e 71 c2 ef 3d b9 ff 82 3f
       -0.15496722 0.16209807 0.11707009 1.023429
000030 b5 df f5 be c9 8d 28 be ab 65 99 3f 84 25 9c 3f
       -0.48022237 -0.16460337 1.1984152 1.2198949
000040 ec d3 24 be 51 4e 11 be 03 3c cd bc 1d 3c 90 be
       -0.16096467 -0.14190032 -0.02505303 -0.28170863
000050 bc 79 d0 be b5 41 43 be 32 f1 9e be 18 2b 84 3f
       -0.40717876 -0.19068034 -0.31043392 1.0325651
000060 2b a3 ae be 1e 1d c8 3f ac 3d cf be f1 c6 45 3f
       -0.34108862 1.5633886 -0.4047674 0.77256685
000070 1b 11 6c be 5d ba d5 be 1a cd 1f 3f ca ad 7b 3d
       -0.230534 -0.41743746 0.62422335 0.061445035
000080 4c d8 59 be 38 c0 87 be 51 c7 d7 be 51 cc 64 be
       -0.21273917 -0.2651384 -0.42144254 -0.22343566
000090 9b f7 31 3f 73 ae 3b 3f e7 3b bb bd d1 34 95 3e
       0.6951844 0.73313063 -0.09142285 0.29141858
0000a0 06 6f a3 3f c1 7a c1 be 30 89 b0 3c d7 22 13 3e
       1.2768257 -0.37788966 0.021549791 0.14368759
0000b0 21 a1 0d be c8 45 eb be 83 10 88 be cd de 2e be
       -0.13830997 -0.45951676 -0.26575097 -0.17077179
0000c0 3b 75 96 3e 29 8f cd 3f 61 77 d1 be f2 16 b3 be
       0.29386315 1.6059314 -0.4091139 -0.34978443
0000d0 19 14 51 3f 2d bf d1 be d1 1b a4 be f1 7e d9 3e
       0.8167129 -0.40966168 -0.32052472 0.4247966
0000e0 71 2a 26 3f 58 6b 15 3e 30 5f 59 be 10 d2 a5 be
       0.6490851 0.1459173 -0.21227717 -0.32386827
0000f0 16 a8 75 3e 87 63 1a 3f 0c 3f 85 be c6 39 7c 3e
       0.23989901 0.60308117 -0.26024663 0.24631414
000100 75 bb 2b 3e ec 44 95 3d 9d b9 b1 3f 82 cf 5d be
       0.16770728 0.072885364 1.388477 -0.21661189
000110 89 32 8b 3d 68 76 82 be 0f 4d f9 bd 4f 23 b8 be
       0.06796748 -0.25480962 -0.12172901 -0.35964438
000120 96 1d bd bd ec 8c ae be ba 2e a5 be 4c ad a6 be
       -0.09234159 -0.3409189 -0.32262212 -0.3255409
000130 7c 1f 10 bf 3a 29 ff bd 59 3a f5 be e4 f5 d7 be
       -0.5629804 -0.12459035 -0.47896078 -0.42179787
000140 95 2e 79 be d0 0b bf 3e 18 69 fc 3e c7 c2 ca be
       -0.24334176 0.373137 0.4929893 -0.39601728
000150 be b1 a5 3e 2f 38 86 3f 7f 3c ce bd 6b 85 16 3e
       0.3236217 1.0485896 -0.100701325 0.14699332
000160 c8 c4 5f 3f 99 e2 fe 3e bf 78 fe be 56 22 be be
       0.8740964 0.49782255 -0.49701497 -0.3713557
000170 cb 1f f4 3f ad 3b d5 be 17 42 20 3f 86 a2 d3 be
       1.9072202 -0.41647092 0.62600845 -0.41334933
000180 ed fc 9c 3f 37 9d 7a 3f 4d d9 e7 bd 8d 9c 52 be
       1.2264687 0.9789614 -0.11320744 -0.20567532
000190 72 8c c2 be ab 27 20 be b1 5d d1 bd 47 b1 47 3f
       -0.37997776 -0.15640132 -0.10222948 0.7800488
0001a0 1b c1 c4 bd b1 21 db bd 7b 09 06 3f 0e b8 8f be
       -0.096071444 -0.106997855 0.52358216 -0.2807011
0001b0 89 54 e7 bd f1 17 80 be 11 99 ac bd 76 15 8b 3f
       -0.11295421 -0.25018266 -0.084276326 1.0865924
0001c0 10 8a 46 be c0 77 97 3f 94 54 d0 be 55 87 5a 3f
       -0.19388604 1.183342 -0.40689528 0.8536275
0001d0 7c ba db be 10 cc 92 be 06 3f f5 bd 6e fe 13 bd
       -0.42915714 -0.28671312 -0.119749114 -0.036131315
0001e0 bc e5 ce 3d d3 65 9a 3f 43 4a 6d be 40 a9 26 bd
       0.10102412 1.2062324 -0.2317286 -0.040688753
0001f0 51 ad 92 be b1 97 9f be 03 c4 13 3e 88 c7 61 be
       -0.28647855 -0.3117042 0.14430241 -0.22048771
000200 d7 6c a5 be f4 b5 90 be ba 02 47 3f 9f c4 cb be
       -0.323096 -0.2826382 0.77738535 -0.39798447
000210 aa c1 84 3f 65 bd b6 be 07 c3 ab bd 04 13 95 3e
       1.0371602 -0.35691372 -0.08386808 0.2911607
000220 04 05 b0 be 4d 89 eb 3f 55 9c 0d be 19 29 19 be
       -0.34378827 1.8401276 -0.13829167 -0.14957084
000230 ca 70 44 be bc fd 90 bd 54 06 80 bc b2 75 95 be
       -0.1918365 -0.07079646 -0.015628017 -0.29191357
000240 0c 35 34 3f 63 9a dc be d2 be 93 3e 25 72 cf be
       0.70393443 -0.43086538 0.28856522 -0.40516773
000250 44 9d 6c be 2c 42 d5 3f 48 54 42 be df 2d 7d be
       -0.23106867 1.6660819 -0.18977463 -0.2472453
000260 4c ee a4 be 18 fa 31 3f dc 2e 7f be cf ec 26 be
       -0.32213056 0.6952224 -0.24920219 -0.16301273
000270 43 07 9f 3e 49 00 b5 be e3 28 53 bd 67 72 70 be
       0.31060228 -0.3535178 -0.051552664 -0.23481141
000280 59 56 d0 3e da f8 a1 bd b6 ff ae 3e 2f 4a 34 be
       0.40690878 -0.07908793 0.34179467 -0.17606424
000290 c2 bf 4d be 14 a1 ea 3e 86 ce cd 3f fe 7a bd bd
       -0.20092681 0.45826018 1.6078651 -0.092519745
0002a0 23 b9 7c 3e dc b3 cd 3d 62 fc 8a be 2c 30 f5 3d
       0.24679999 0.10044071 -0.27145678 0.11972079
0002b0 ec 27 e7 3d c9 39 b7 bd 6a db 1c 3f 8b 5b f2 be
       0.11286911 -0.089465685 0.612723 -0.47335467
0002c0 e0 ea 80 be d5 18 9c 3d 39 f9 90 3f dd e1 a0 3e
       -0.25179195 0.07621924 1.1326057 0.3142232
0002d0 08 b7 a2 3e 26 0b 6f be c0 6c 6e be d8 0d c1 be
       0.31780267 -0.23344097 -0.23283672 -0.37705874
0002e0 a2 de 3a be 2c 55 fb be 6c bb 29 bd 76 71 bb be
       -0.1824899 -0.49088418 -0.041438505 -0.3661
0002f0 7b b4 bd 3e b7 7c a4 be e3 c4 4e 3f 64 e8 a7 3f
       0.37051758 -0.321264 0.80769175 1.3117795
000300 1c c2 3f 3e ee 22 88 be d8 51 eb be e0 88 7b be
       0.1872639 -0.2658915 -0.4596088 -0.24563932
000310 d4 3a 3b 3d 74 5e 8e 3f 8f a4 d4 3e d4 63 52 bd
       0.0457104 1.1122575 0.41531798 -0.051364735
000320 20 02 9c 3f 34 88 0c be 0a 32 9f be d7 3d 8f be
       1.2188148 -0.13723832 -0.31092864 -0.27976868
000330 37 65 c1 be 06 76 29 be 6f bd cf be 49 8a ba 3f
       -0.37772533 -0.16548929 -0.40574214 1.4573451
000340 94 a0 66 be 00 29 5c 3f db c9 1e be c4 5e fb be
       -0.22522193 0.8600006 -0.15506689 -0.49095738
000350 04 34 f3 bd 3e 4b ae bd 2e 26 4d bd ad d4 2d be
       -0.118751556 -0.08510445 -0.05008524 -0.1697566
000360 4b 90 03 3d cd 6f f6 bc 80 4b ca bd 08 ce af be
       0.03212003 -0.030082608 -0.09877682 -0.34336877
000370 01 98 dd bd 8b 2a 80 3d 9f 94 42 bd fe 66 a2 3d
       -0.10820008 0.062581144 -0.047505017 0.079298005
000380 b6 74 89 3e 0b 29 64 be 57 78 63 bc cd 09 30 be
       0.26846856 -0.22281282 -0.013883672 -0.17191239
000390 77 00 e1 3d bf fc 1d be e3 6f 13 be 67 0f d5 3e
       0.10986417 -0.15428446 -0.1439815 0.41613314
0003a0 6d cd 97 3f cb c8 04 3d 13 5b 92 3e c5 9d a5 be
       1.1859566 0.032418054 0.2858511 -0.3234693
0003b0 09 0c b7 be 54 5a db 3e 9f d8 a3 be da ba dc bb
       -0.3575137 0.42842352 -0.32001206 -0.0067361416
0003c0 fd ef c1 be b5 38 a3 3f ae 3e 7b be c0 6b 62 be
       -0.3787841 1.2751681 -0.24535629 -0.22111416
0003d0 23 ab f2 3e eb a1 c5 be fd 95 91 be 4c bc 74 be
       0.47396192 -0.38600096 -0.28434744 -0.23899955
0003e0 d1 c8 34 be 68 49 e5 bd 1d 52 e1 be c3 42 8b be
       -0.1765473 -0.11195642 -0.4400796 -0.27199373
0003f0 bc 3a 11 bb 92 23 3a 3f 91 b9 5e 3f f7 45 94 be
       -0.0022160253 0.72710526 0.870019 -0.2895963

linear2.weight f4 [3, 256]
000000 aa 48 cb bc 00 a5 9c bc 4b bd d1 bc e3 cb 8a 3d
       -0.024814922 -0.019121647 -0.025602957 0.067771696
000010 49 4d 98 be d7 cb 99 be c9 6d 02 3d 16 14 56 be
       -0.29746464 -0.3003833 0.03184298 -0.209061
000020 47 f2 61 bc 73 ac c1 bd 0d d0 d3 3c d4 d2 84 be
       -0.013790674 -0.0945672 0.025856042 -0.259421
000030 0f b1 9e bc d2 8f ac 3c bc 8c 95 be 74 76 8d be
       -0.019371537 0.021064673 -0.29208934 -0.27629435
000040 d5 6d f1 bd ab 38 35 bd ad 69 d6 3c 0b 1c ed bc
       -0.11788527 -0.044243496 0.026173437 -0.028944036
000050 d6 73 08 3c c3 d1 62 bd 96 89 06 3d 1b 64 50 be
       0.008328399 -0.055375826 0.032846056 -0.20350687
000060 ac 19 09 3c e4 aa d7 be 3e 32 8d bd c1 94 5e be
       0.008367937 -0.42122567 -0.068943486 -0.21736433
000070 72 cf 16 3d dc 01 53 bd 2b 26 6c be 28 52 c2 bd
       0.03681893 -0.051515445 -0.23061435 -0.09488326
000080 67 2a 07 bd 54 7c 99 bc 39 dc c5 bb 05 ad 3c be
       -0.032999422 -0.018736042 -0.0060382155 -0.18425377
000090 62 e7 45 be 92 a1 6c be a2 8a 6c 3d e9 1b 26 be
       -0.19326547 -0.23108509 0.057749398 -0.16221584
0000a0 9f c3 8c be 1e d7 96 bb 74 0c 1f 3d 7f b6 09 be
       -0.27492997 -0.0046032807 0.038830236 -0.13448523
0000b0 cb 14 0b 3d a7 7e 68 3c 69 b1 12 bd 3a 35 f7 bd
       0.033955377 0.0141903525 -0.035813723 -0.12070699
0000c0 cf 9a 16 be e1 ff 95 be 7f cd 7b 3c 91 d5 e4 bc
       -0.14707492 -0.29296783 0.015368818 -0.027933868
0000d0 09 3e 61 be 27 03 fc 3c 5b df 8b 3c d2 7d 4e be
       -0.21996321 0.030763222 0.017074278 -0.20165184
0000e0 d6 80 81 be cf 06 5c be de 2a ba bc b0 dc 85 3c
       -0.25293607 -0.21486972 -0.022725519 0.016340584
0000f0 49 22 02 be bb 7c 76 be 03 68 4e bd 66 fc 73 be
       -0.12708391 -0.24071018 -0.050392162 -0.23826751
000100 fa 9c 71 bd 49 26 00 be 5e 13 aa be b4 14 53 bd
       -0.058987595 -0.12514605 -0.332179 -0.051533416
000110 d0 1d 7e 3a 1a 6b f0 b9 dd 86 4f be 92 05 6e 3c
       0.00096937735 -0.00045856164 -0.2026629 0.014527695
000120 49 55 5f bd 7a bb 32 be 51 30 f9 bc 91 9d a9 bd
       -0.054524694 -0.17454329 -0.030418547 -0.082820065
000130 32 80 40 3b 8c 9c 4d bc b4 4c ae bd ed 14 18 bd
       0.0029373285 -0.012549531 -0.08510724 -0.03712933
000140 49 07 c9 bc f3 af 4f be b3 7d 85 be 4c b7 5f bd
       -0.024539607 -0.20281963 -0.26072463 -0.054618165
000150 e2 d9 2a be 8c 1c 82 be 53 8f d7 bd 20 47 f4 bd
       -0.16684678 -0.25412405 -0.10525384 -0.119276285
000160 16 6f 64 be ae e2 4f be 7a 47 46 3d af 49 58 bd
       -0.22308001 -0.20301315 0.04840801 -0.052804645
000170 21 d9 bd be c8 66 e7 bc 9a 61 55 be da 4d a2 bd
       -0.3707972 -0.028247252 -0.20838013 -0.07925005
000180 1e 89 95 be 35 d0 92 be 27 1d b1 bb f3 f2 f2 bc
       -0.29206175 -0.28674474 -0.0054050866 -0.029656863
000190 24 d2 ab bd 67 46 ac bd aa 81 15 be af bd 77 be
       -0.083896905 -0.08411866 -0.14600244 -0.24193452
0001a0 95 b9 ba bd 2e 50 0d bd 0c 3d 52 be f0 87 78 3d
       -0.09117428 -0.034500293 -0.205311 0.060676515
0001b0 03 18 cc 3c bc 3b 07 bd 91 43 4b bd 86 42 a8 be
       0.024913793 -0.03301595 -0.049624983 -0.32863253
0001c0 a1 f8 79 bd 1c c0 96 be 38 23 c7 3b 24 a0 70 be
       -0.061028127 -0.29443443 0.0060771964 -0.23498589
0001d0 85 5d 90 3d 9e 7f e1 bc 93 56 45 bc 7c d6 bf bd
       0.070490874 -0.027526673 -0.012044567 -0.093670815
0001e0 a4 b0 0b be 89 0e 75 be 18 ef 1d 3d 7a b8 07 bb
       -0.13641602 -0.23931326 0.038558096 -0.0020709322
0001f0 79 ca 5b bc e9 38 0f bd 22 e5 94 be bc d0 66 3d
       -0.013414972 -0.034966383 -0.29081064 0.05635141
000200 48 c3 72 bb 75 36 02 bd 2d 62 2f be 1f a1 be ba
       -0.0037042666 -0.031790216 -0.17127295 -0.0014543867
000210 df a5 c6 be 0e 2e 1b 3d 75 c8 85 bd 72 e8 26 be
       -0.38798425 0.037885718 -0.06532375 -0.16299608
000220 7f 0e 38 bb 56 9c b1 be 29 de b0 bd 67 f5 a6 3c
       -0.0028084812 -0.34689587 -0.08636124 0.020380689
000230 8f ae d7 3b bc c0 c3 bc 85 cf 18 bc 70 0f 78 3d
       0.0065820883 -0.023895614 -0.00932682 0.060561597
000240 14 b1 86 be a6 de d3 bc 16 3a 21 be 6d 62 b9 bd
       -0.26306975 -0.025863003 -0.15744814 -0.09051976
000250 64 b9 3e be d5 c1 a1 be 72 ae ec 3c 95 13 66 be
       -0.18625408 -0.31593195 0.028891776 -0.22468407
000260 8a 79 85 3b 85 00 73 be 44 6b 9a 3c b8 83 4c bd
       0.0040733265 -0.23730667 0.018849976 -0.049930304
000270 fb 97 1f be 9a 68 96 bb d7 59 2e 3d ae c3 9d bd
       -0.1558532 -0.004590106 0.042566147 -0.077033386
000280 c6 04 4f be f8 db 70 3c 4b ad 57 be 24 7a c5 3c
       -0.20216665 0.014700882 -0.210622 0.024106093
000290 d5 b9 54 bc 03 0b 38 be ed 7d 91 be 7c d2 4c 3d
       -0.012983759 -0.1797295 -0.28416386 0.05000542
0002a0 d9 5a 21 be 55 c8 c3 bd ed a8 8a bd 42 a9 ac bc
       -0.15757312 -0.09559695 -0.06770501 -0.021076802
0002b0 59 45 92 bd 2b 5c 53 3d ff d5 2e be 20 33 5b bb
       -0.07142133 0.05160157 -0.1707382 -0.003344722
0002c0 a0 0c 13 bd d0 02 8f 3c b6 4c 78 be 48 ab 30 be
       -0.035900712 0.017457396 -0.24248013 -0.17252839
0002d0 e8 74 56 be 65 3c 58 bd a0 6e 2f 3c 8a 3f a9 bd
       -0.20943034 -0.05279197 0.010707527 -0.08264072
0002e0 d4 f4 e3 bc aa 2f c3 3c 0c 07 60 bd 10 7c ae bc
       -0.027826704 0.023826439 -0.05469422 -0.021299392
0002f0 55 0e 1f be 90 6e d1 bb 5d 48 57 be 60 ca 88 be
       -0.15532811 -0.006391354 -0.21023698 -0.267169
000300 16 27 41 be 3e fc 76 bc 41 07 07 be 72 aa 46 bd
       -0.18862566 -0.015074788 -0.13186361 -0.048502393
000310 a2 7f 1f be 3a 16 6e be d2 da 3a be cc 83 1a bd
       -0.15576032 -0.23250666 -0.18247536 -0.037723348
000320 08 51 68 be 22 d1 c3 3b cd 2f 2e 3d ae 54 14 bd
       -0.22687161 0.0059758583 0.042526055 -0.03621357
000330 e8 d0 92 3d e1 fb bb 3c b4 d1 0c be 7f c8 99 be
       0.07168752 0.022947254 -0.1375187 -0.3003578
000340 3a a8 bd bd 9e 2b 88 be 39 5b 2a be 12 02 bc bc
       -0.09260602 -0.26595777 -0.16636361 -0.022950206
000350 c8 15 10 3d 67 64 49 bc 23 ba 3e be bc be 1b bd
       0.035177022 -0.012292004 -0.18625693 -0.038023695
000360 8c 34 fe 3a ea 32 c8 bc 9b bb f8 3b 46 9f 3f bb
       0.0019394322 -0.02443834 0.0075907237 -0.0029239221
000370 64 56 ba 3b 0c d6 1a bd 4c 3d 26 3c a5 77 a4 bd
       0.005686568 -0.037801787 0.01014645 -0.08030633
000380 3c d4 1b bd ba 7e bd bc 30 8a 64 3d 1a 1f 93 3b
       -0.0380442 -0.023131717 0.05579585 0.0044897916
000390 0e bf 2a 39 9b a5 36 3d 1c 10 70 bd 5c cc 0e be
       0.00016283637 0.044591527 -0.058609113 -0.13945144
0003a0 66 3b 7b be 22 8e 40 bd 27 66 58 be b9 04 8c bd
       -0.24534377 -0.04701055 -0.21132718 -0.06836838
0003b0 6c aa b3 bd d3 d6 27 be a4 f7 9c bc 92 59 1d bd
       -0.0877274 -0.16390543 -0.019161053 -0.0384155
0003c0 01 46 c8 3b 81 99 9e be 12 be 88 bd c9 c7 9e bc
       0.0061118607 -0.3097649 -0.06676878 -0.019382374
0003d0 32 74 4a be 42 cb 30 bd a6 e5 9f be 14 f1 10 be
       -0.19770887 -0.04316259 -0.31229895 -0.14154464
0003e0 da 0d af 3c 80 d0 9b ba 52 ca 59 bd d5 62 c1 3b
       0.02136891 -0.0011887699 -0.053171463 0.0059016743
0003f0 59 66 bf bd 32 0a 7c be 63 15 6e be c7 20 3f bd
       -0.09345693 -0.24613264 -0.23250346 -0.04666212

linear2.bias f4 [3]
000000 e4 fe 35 be 84 6f 3b be 94 78 80 be
       -0.17773014 -0.18304259 -0.25091994
