model/model.pth (torch, 319367 bytes, 10 tensors)

linear1.weight f4 [128, 37]
000000 47 db fd 3d ce ea a7 3d 16 d4 92 3b b1 ce 8d bc
       0.123953395 0.08199082 0.004480849 -0.017310472
000010 9a f7 0f 3d 97 d4 37 3d 6d 4b 24 be 84 8c 19 3d
       0.03514824 0.044880476 -0.16044398 0.03748752
000020 a2 f7 17 3e c4 ed 42 3d 14 a9 de 3b 8a 71 a7 bd
       0.14840558 0.047590032 0.006795058 -0.08175953
000030 05 6d ee bd 6a 6d 6e 3d 07 e0 59 bd 31 af 90 3c
       -0.116418876 0.058209814 -0.053192165 0.017661663
000040 bc 84 7f be 38 63 51 be 68 6a 57 bd 44 21 41 be
       -0.24952978 -0.20448005 -0.05259171 -0.18860346
000050 a7 f0 78 be a3 33 8d 3d 24 55 58 be 8c 14 63 be
       -0.24310552 0.068946145 -0.21126229 -0.22175807
000060 82 75 9c bd 7e 61 48 bc c0 37 a3 bd 89 87 cb 3d
       -0.076396 -0.012230275 -0.07969618 0.09937961
000070 e1 f0 0f 3d d1 6b 9d 3d 92 6f e4 3d 40 31 a1 bd
       0.03514183 0.0768658 0.11154093 -0.07870722
000080 52 ca 10 be 3a 21 1c be 81 11 34 be f6 02 0b bd
       -0.14139679 -0.1524705 -0.17584802 -0.03393837
000090 f1 81 99 bd bd 29 16 bd aa ba ec 3c 17 9d c0 3c
       -0.074954875 -0.0366609 0.028897602 0.023512406
0000a0 09 03 04 be 1c 57 d3 bd 5c 6c e1 bd c4 90 89 bd
       -0.12891783 -0.10319349 -0.11006996 -0.06717065
0000b0 14 a1 f2 bd 2c 4d 2d be 82 29 2b be 08 e9 56 bd
       -0.118471295 -0.1692397 -0.16715053 -0.05246833
0000c0 7b 68 bc bd 36 9a f0 bc c8 9b 27 3d db 6c ad bc
       -0.091996156 -0.029370409 0.04092005 -0.02117007
0000d0 9a 50 12 3e 29 7c c5 bd 6e 71 86 bd 26 2b 8d 3d
       0.1428856 -0.09642822 -0.06564604 0.068929955
0000e0 88 a1 8e bd d6 71 b6 3c 57 c7 a0 bd 6b cc 06 bd
       -0.069644034 0.022271078 -0.07850521 -0.032909792
0000f0 45 b6 df 3d 97 92 08 be 17 a6 6f bd 9c 24 08 3e
       0.10923437 -0.1333717 -0.058508005 0.13295215
000100 ac a2 b6 bd 88 f4 20 be c0 96 7e 3d 84 71 b5 bd
       -0.08917746 -0.15718281 0.062155485 -0.08859542
000110 a0 64 b9 3c c6 80 48 bd f8 e2 65 3d fc 18 bd bd
       0.02263099 -0.048950933 0.056124657 -0.09233281
000120 2c e9 42 3d e1 eb 0d 3e 4a 8f 0a be 6c 28 1d bd
       0.04758565 0.13859512 -0.13531223 -0.038368627
000130 54 31 1b be 8e 7c b5 bc 68 9d f0 bc d4 c7 62 3d
       -0.15155536 -0.022154119 -0.029371932 0.055366352
000140 1a 15 00 3e 7a fd fa 3c 99 9f eb bd 30 a4 10 be
       0.1250805 0.030638445 -0.1150505 -0.14125133
000150 e0 42 e4 bd 6d 30 15 be c1 07 01 3d f6 42 e8 3d
       -0.11145568 -0.14569254 0.031501535 0.11340897
000160 b4 6a cb 3c 65 04 37 be d0 42 e2 3c 59 d1 f0 3c
       0.024831153 -0.1787277 0.02761975 0.0293967
000170 4d d0 aa bc 25 5d f5 3d 8f 93 3f bc 12 1f fb bd
       -0.020851279 0.119806565 -0.011692896 -0.122617856
000180 8e 95 90 3d 39 8b fe bd 9a 8f b9 3d 50 0e 70 bd
       0.07059775 -0.12428898 0.09060593 -0.0586074
000190 dd b9 f1 3d 17 61 52 3b bb 31 8e 3d 4d 60 4f 3b
       0.11803029 0.0032101327 0.06943079 0.0031643093
0001a0 04 6b a8 bc cf c6 f4 bc 4f dd 7b bd 38 39 6d bd
       -0.020558842 -0.029879956 -0.061490353 -0.057915896
0001b0 9b b7 d4 bd 7f 63 3b be 1b 97 c6 bd d0 bf 36 be
       -0.103865825 -0.18299673 -0.0969679 -0.17846608
0001c0 2c 28 03 3d 85 7e 5b bc be 56 29 be 3f c5 be bd
       0.032020733 -0.013396864 -0.16536996 -0.093149655
0001d0 14 9e 38 be 38 73 07 be 27 4d 4a bd 8b 08 90 3d
       -0.18029052 -0.13227546 -0.049389984 0.070328794
0001e0 3f cb 3c bd 2d fc 5a 3c 8f e7 40 3d 51 13 d6 bd
       -0.046092268 0.013365787 0.04709583 -0.10452903
0001f0 5e bd 2a 3d f6 a9 03 bd e9 70 c3 bd 80 27 e5 3d
       0.0416845 -0.03214451 -0.0954302 0.11189175
000200 21 a0 fa 3d 8d 66 84 3d 40 71 b0 3d 4a 46 00 3c
       0.122375734 0.064648725 0.08615351 0.007829258
000210 23 72 4c bd 1a d1 f4 bd 30 2b 4a bd 63 d4 b7 3d
       -0.049913537 -0.119539455 -0.049357593 0.089760564
000220 bd 0c 12 be 2b 79 b3 3d b4 a7 8c 3c d2 2c b7 3d
       -0.14262672 0.08763345 0.01716981 0.08944096
000230 83 87 ea 3d 94 97 fa 3c 09 52 d6 bd 32 50 f2 3d
       0.11451628 0.030589856 -0.10464866 0.11831702
000240 43 d8 97 bd 59 42 16 be 8d f6 a4 bd 3b 8e cb bd
       -0.074142955 -0.14673747 -0.08054838 -0.09939238
000250 25 da 17 bd 9d 58 a8 3d cd f7 5a 3c 48 1b 33 3d
       -0.037073273 0.08220027 0.013364744 0.04372719
000260 f0 d2 45 be a9 9c ae bd a0 f9 b7 3c b9 61 98 bd
       -0.19318748 -0.08525974 0.022457898 -0.07440514
000270 ee c3 f7 3d 1c b8 21 be 44 09 de bd 40 90 30 bb
       0.120979175 -0.15792888 -0.10841611 -0.0026941448
000280 a8 c3 0e be a5 70 15 be 86 1f f2 bd 08 08 1a be
       -0.13941824 -0.14593752 -0.11822419 -0.15042126
000290 94 17 24 bd b2 f9 f1 3d 44 7b 1a be f0 5c 4b 3d
       -0.04006155 0.11815204 -0.15086085 0.04964918
0002a0 dc 4a df bd 22 6f ca bd b5 bf 09 3e c2 08 e1 3d
       -0.1090295 -0.09884478 0.13452037 0.109879985
0002b0 9a b2 00 be 00 01 57 3a 4e fb 49 bd 94 95 9f bd
       -0.12568131 0.0008201748 -0.04931193 -0.07792202
0002c0 e0 ed 1a 3d 6c 52 02 be 06 01 f8 3d 97 d0 a2 bd
       0.03782451 -0.12726754 0.1210957 -0.079499416
0002d0 de be bf 3d 49 a4 cb bd 41 07 19 be 00 97 2a ba
       0.09362577 -0.09943444 -0.14944173 -0.0006507486
0002e0 52 34 18 be 6e c3 d9 bd 9a 3f 4d 3d a2 bf 0c 3d
       -0.14863709 -0.106329784 0.050109483 0.034362443
0002f0 c9 1a 52 3c e6 a9 1c be 61 bd ee bd 09 be 18 3d
       0.012823769 -0.15299186 -0.11657215 0.037290607
000300 04 ef 14 3e b1 ab bb bc 77 e0 88 3c 3a 1f 44 be
       0.14544302 -0.022909017 0.016708596 -0.19152537
000310 d4 34 10 3d d8 1b 29 be f7 4a f0 bc 03 3a 42 bd
       0.03520663 -0.16514528 -0.029332621 -0.047418606
000320 27 6a de 3d 42 63 ed bd cf d0 8a bd a9 96 c6 3d
       0.10860091 -0.115911976 -0.06778108 0.09696705
000330 0d 9e cb bd cf 26 e9 3b 6b 0c 38 3c 22 91 bf bd
       -0.09942255 0.007115222 0.011233429 -0.09353854
000340 27 c9 cf 3d 54 e1 d1 3d c1 07 22 3e 42 13 75 3d
       0.10145789 0.10248056 0.1582327 0.05983282
000350 12 86 28 3e 75 f5 23 bd 85 98 09 be 96 f9 d5 3d
       0.16457394 -0.040029008 -0.13437088 0.10447995
000360 47 0f 2f 3e af 94 8f 3d b8 de e2 3d 39 e6 c8 bc
       0.17095672 0.07010781 0.110776365 -0.024523841
000370 e6 a3 fe 3c ac 0e 63 3e cb 2a 50 be bc 0d c9 3d
       0.031084012 0.22173566 -0.20328824 0.09817073
000380 5f af f6 3d 34 6f af 3d ed 5d f7 bd 5d 5c d9 3d
       0.12045168 0.08566132 -0.12078462 0.1061332
000390 23 ef 0e bd a9 74 07 be 78 b0 01 be 36 01 da bd
       -0.034896027 -0.13228096 -0.12664974 -0.10644762
0003a0 b3 a9 f4 bd f4 fd 0e be c7 d9 02 be 3d 73 9d 3d
       -0.1194643 -0.13964063 -0.12778388 0.076879956
0003b0 64 d5 a0 3c f4 41 1c 3e 79 36 b9 3d 0b 1f 22 3d
       0.019633003 0.15259534 0.09043593 0.039580386
0003c0 28 2b 88 bd 54 ea f7 bb b1 16 04 be ba 95 08 be
       -0.066488564 -0.007565776 -0.12899281 -0.13338366
0003d0 cc ef 87 3c 77 c6 d6 3d ed 92 d9 3d 2c 20 1b 3e
       0.016593836 0.10487073 0.10623727 0.15148991
0003e0 82 e8 ac bd 0f 09 a3 bd c4 a3 24 be 4c eb 32 bd
       -0.08442785 -0.07960712 -0.16078097 -0.043681428
0003f0 f5 b5 eb 3d fb 19 7e bd 58 aa c1 bb ea 80 7c 3d
       0.11509315 -0.062036496 -0.005910199 0.06164638

linear1.bias f4 [128]
000000 b8 25 16 be e3 f2 11 3d 74 ca db bd 2e 3e 92 bc
       -0.14662826 0.035632025 -0.10731974 -0.017851915
000010 34 8b e4 bd 7f c0 f6 3d 3f 1e 34 be b6 f7 ec 3c
       -0.111593634 0.120484345 -0.17589663 0.028926712
000020 8e f7 bd 3d 81 19 48 3e 42 ca e8 3d 19 4b c7 bc
       0.09275733 0.19540979 0.113667026 -0.024327802
000030 b4 b9 0a be d0 59 d5 3d 98 69 32 bd 82 15 87 bc
       -0.13547403 0.10417521 -0.043557733 -0.016489748
000040 98 23 d8 bd ba 66 81 3d 9c fd 51 be 5b ef 11 3d
       -0.10553664 0.06318422 -0.205069 0.035628658
000050 44 be 2e bd da 1a 8b bb f3 7e 94 bc ac 4a 3d be
       -0.04266192 -0.0042451443 -0.01812694 -0.18485516
000060 cf af 5c 3d ba 40 bc bd 17 92 2f 3d 22 8f 05 3d
       0.0538786 -0.09192033 0.04286393 0.032607205
000070 78 c5 a9 bd d4 cc a4 bd a7 78 07 bd 60 3d 44 bd
       -0.08289617 -0.0804688 -0.033074047 -0.047910094
000080 e3 18 32 be f5 61 11 be 73 7b 36 be e4 c0 38 be
       -0.17392306 -0.14197524 -0.1782053 -0.18042332
000090 27 b4 ea bb d7 25 db bd 61 34 33 3d 06 d5 bf bc
       -0.007162589 -0.10700577 0.043751124 -0.023417007
0000a0 b4 f5 96 3c 8c b7 67 3d 1b e9 3d be fa a6 be bd
       0.018427707 0.05657153 -0.18545954 -0.09309192
0000b0 9e 5e 92 bd 74 8b c4 3d 71 9f 29 be 15 8b 09 be
       -0.07146953 0.09596911 -0.16564728 -0.13431962
0000c0 7f 89 97 bd 47 12 08 be b4 15 14 bd 81 1d 1f 3d
       -0.07399272 -0.13288222 -0.03615351 0.038846496
0000d0 4c 61 d9 3a b5 e8 58 bc 6b 71 e5 3c aa 3d 0d 3c
       0.0016584783 -0.013239075 0.028008183 0.008620659
0000e0 f4 66 14 3e 65 0b ed 3c d0 8b fb bd 0a 26 ce 3b
       0.14492399 0.028936097 -0.122825265 0.0062911557
0000f0 36 08 64 3d 78 22 3a bd 2e 62 eb 3d 3e 3b 22 be
       0.055671893 -0.04544303 0.11493336 -0.15842912
000100 5a 56 7e bd 02 06 1b be ae c8 a3 3d 2c 1a 19 be
       -0.06209407 -0.1513901 0.07997261 -0.1495139
000110 71 46 71 bd cb d4 a4 bd df e6 01 be 7f 38 ea 3c
       -0.05890507 -0.080483995 -0.12685727 0.028591393
000120 ab c3 b4 3d e0 85 1e bc 3c 27 ae bd 29 36 97 bd
       0.08826383 -0.009675473 -0.08503577 -0.07383377
000130 16 d8 90 bb 1b 93 eb bd 1b 3a 33 be a9 2b d5 3d
       -0.0044202907 -0.115026675 -0.17502634 0.10408718
000140 2c 57 11 bd 6f 00 aa 3c 22 65 95 3d ba 4e dc bd
       -0.035483524 0.02075216 0.0729468 -0.107572034
000150 fc b3 42 bd a2 08 9c bd 9b 83 7b 3c d8 fe 2c be
       -0.047534928 -0.07618834 0.015351201 -0.1689409
000160 97 39 04 bc 18 e0 d0 bc 9d f4 b4 bd 01 a5 19 bd
       -0.008070371 -0.025497481 -0.08835719 -0.037510876
000170 10 34 8d 3d 78 47 c6 3d c2 fc 45 be 8e 25 81 3d
       0.06894696 0.096816 -0.193347 0.06305991
000180 95 7e 5b be 80 e4 0e 3d 03 0f c7 3d cb 36 d7 bd
       -0.21435006 0.034885883 0.0971966 -0.10508498
000190 b3 55 8e 3c 16 d3 4d bd ac fa 02 be 61 39 fa bd
       0.017374849 -0.050250135 -0.12790936 -0.122179754
0001a0 ea fa bb bd f3 ac be bd ec e6 2d be 8c 99 47 bd
       -0.091787174 -0.09310331 -0.16982621 -0.048730418
0001b0 a1 a1 ef bd a1 78 7e 3d cf bc 8a bd fd 7e 04 be
       -0.1170075 0.06212676 -0.06774294 -0.12939067
0001c0 72 6d 7f bd aa 79 78 bd 67 77 1b be fa 74 dc bc
       -0.062360235 -0.060662903 -0.15182267 -0.026911248
0001d0 95 6b c7 3d a9 63 36 bd 33 cb be 3d 54 9d 37 be
       0.097373165 -0.044528637 0.09316101 -0.1793111
0001e0 4f 1c 39 3e 2e 71 ea bd 88 52 94 bd ea 76 93 bc
       0.18077205 -0.114473686 -0.07242304 -0.018001039
0001f0 e4 3a 0c be 84 e7 33 be 49 0d 2e be 33 c9 05 be
       -0.1369434 -0.17568785 -0.16997255 -0.13065033

linear2.weight f4 [256, 128]
000000 02 44 36 bc 4c 62 c9 bc 37 11 59 3c 5c 32 b0 bc
       -0.011124613 -0.024583004 0.013248733 -0.021508388
000010 26 66 63 3d a2 95 16 be 1f 99 88 3d 32 ed 93 3d
       0.05551734 -0.14705518 0.066698305 0.07222976
000020 8c 00 be bc cf 80 9f bd e9 db f6 bc da 96 8d bd
       -0.02319362 -0.0778824 -0.030134158 -0.06913538
000030 91 e0 ee bc d4 c1 53 bd 07 ca 47 3c a1 68 16 3a
       -0.029159816 -0.05169852 0.012194163 0.0005737637
000040 ba cb d5 3a 4f 70 a3 bb a2 74 ca bd 23 41 1d 3c
       0.0016311326 -0.0049877535 -0.09885527 0.009598049
000050 2e 3a 96 bb 02 98 b7 bc f7 69 47 3c 36 14 8f bd
       -0.0045845723 -0.02241135 0.01217126 -0.06986277
000060 08 bb a8 bd a5 9e 33 bd 46 de 8c bd 76 63 20 bd
       -0.082387984 -0.043852467 -0.06878333 -0.039157353
000070 cd 4a d0 bd 8e 96 50 3c 69 56 6a 3d 7e 15 d0 3d
       -0.10170517 0.012731208 0.057211313 0.10160349
000080 df c9 4b 3d 27 34 14 3c b3 c2 b0 bd 5f ac e5 3c
       0.049753066 0.009045637 -0.08630886 0.028036295
000090 ac 6e 29 bd 55 94 d9 3d fc 9a 93 bc d1 2c 02 3e
       -0.04136531 0.10623995 -0.018018238 0.12712409
0000a0 6a 3a 5d bd ce 73 f7 3a af 97 04 bc 1a 6b 90 bd
       -0.054010786 0.0018879117 -0.008092805 -0.07051678
0000b0 92 d5 ef bc 72 7d 0b 3e ef 55 26 bd d6 f1 29 be
       -0.029276643 0.13622072 -0.040609296 -0.1659616
0000c0 e5 a4 0b 3e 0e ce 3a 3c 96 7d 72 bc c3 7b 60 bc
       0.13637121 0.011401666 -0.01480045 -0.013701382
0000d0 88 a3 1b 3c 18 c1 34 3d 01 5e f1 3c d2 f6 84 3d
       0.009499438 0.04412946 0.02946377 0.0649239
0000e0 a7 9c ea 3c 96 d3 9b bc c1 65 25 ba 4c fd b4 bd
       0.02863915 -0.01902179 -0.0006309413 -0.08837375
0000f0 cd c6 1a 3c e6 71 2e bd 2a cc 14 bd 80 0d 39 3a
       0.009446812 -0.04258909 -0.03632752 0.00070592016
000100 56 5e 73 3c bf 0b 71 3d af 81 83 3d 5c 74 cd 3d
       0.014854034 0.058849093 0.064212196 0.100319594
000110 bd 3f 50 bd 06 1f 18 3d b0 54 95 3b 56 6b 78 bd
       -0.050842036 0.03713896 0.0045572147 -0.06064924
000120 3d 43 e5 bd 9a 20 31 3d 27 e8 a3 3d a6 3d a2 bb
       -0.11194465 0.043243982 0.08003264 -0.0049511967
000130 21 b4 a7 bd e6 8d f3 bd a9 ec ba 3d 5e 3d a7 3d
       -0.08188654 -0.11892299 0.091271706 0.08166002
000140 58 8c 9c 3d 15 18 9e 3c 68 3b 24 bc d5 cc 12 3d
       0.07643956 0.019298593 -0.010023929 0.035839874
000150 f0 60 32 3e 47 c5 f7 bd 8e 05 a1 3d 0d 1f 32 3d
       0.17419791 -0.120981745 0.078623876 0.043486644
000160 37 0b d7 3d 71 ee 1a be 35 e1 1a 3c 9f 32 1a be
       0.10500186 -0.1513002 0.009453108 -0.15058373
000170 b9 36 9e bc 43 b0 b5 bc 62 26 b5 bd 7c cb 0b 3e
       -0.019313203 -0.022178775 -0.088452116 0.13651842
000180 22 d8 a8 3d b6 c2 86 3d 10 ee 66 3c f2 ac 04 3d
       0.08244349 0.06580107 0.014094844 0.032391496
000190 a7 04 33 3c ae fd c3 3d d9 b3 61 bd 5d e0 e5 bd
       0.010926402 0.0956987 -0.055103157 -0.112244345
0001a0 f5 ac 70 3d 59 8d 65 bd b5 1b f2 3d c2 0f d2 bc
       0.058758695 -0.056043003 0.11821691 -0.02564228
0001b0 45 d3 40 3d fb 52 7e 3d 57 20 67 bd a9 c9 54 3d
       0.047076482 0.062090855 -0.056427326 0.05195013
0001c0 da 80 ec bd 95 4f 1d bc c5 e1 87 3c be 2e 1e 3d
       -0.11548014 -0.009601493 0.016587147 0.038618796
0001d0 a9 77 ec bd 22 58 70 3d cd e3 d3 3d 91 44 fa bc
       -0.11546261 0.0586778 0.10346184 -0.030550273
0001e0 40 29 cb 3d 77 5b c9 3d c6 d1 eb bd 11 5f 58 bd
       0.09919977 0.09831899 -0.115146205 -0.052825037
0001f0 92 19 13 3d 36 d8 65 bd 59 78 53 3d 57 f9 0e bc
       0.035913058 -0.056114398 0.051628444 -0.008726439
000200 17 82 59 bb 2b 2c 4c bd 6e 27 c0 bd 0e 54 99 bd
       -0.0033189112 -0.04984681 -0.093825206 -0.07486735
000210 fa 15 27 3d dd b9 09 bc 1a 09 0b bd 9f 06 a2 3d
       0.040792443 -0.00840613 -0.033944227 0.07911419
000220 9e 8a c3 bc aa a2 ef bd 6a 75 2c bd aa 09 1c 3d
       -0.023869809 -0.117009476 -0.042104162 0.038095154
000230 76 39 92 3d 14 86 49 bc d0 57 b1 3b 60 d8 af 3b
       0.07139866 -0.012300033 0.0054120794 0.00536637
000240 8e 3c 58 3d fe 97 5e 3c ec 25 78 bd 75 4d b3 3c
       0.052792124 0.013586042 -0.06058304 0.02188752
000250 c7 be 1e bd d8 e0 5a bd a5 54 a7 bd c6 91 33 bd
       -0.03875616 -0.053437084 -0.081704415 -0.043840192
000260 8e 64 ac bd c6 e7 27 bd 11 d0 91 3d ed 6f 4a 3d
       -0.08417617 -0.04099252 0.07119764 0.049423147
000270 61 a1 bb bc 7c 27 4c 3d c0 68 a4 3a e2 cd de bc
       -0.0229041 0.049842343 0.0012543425 -0.027197782
000280 0e 4a 49 bd d9 39 9d bd 7f db a4 3c 75 a1 a2 3d
       -0.04914289 -0.07677049 0.020124195 0.07940952
000290 77 58 ab bd a1 0c 8f 38 4e 40 df bb f5 49 19 bd
       -0.08366483 6.821124e-05 -0.0068130856 -0.037424047
0002a0 0c 67 48 3d 41 bd 94 3d 53 71 85 3d ec 81 18 bd
       0.0489264 0.0726266 0.065157555 -0.03723328
0002b0 f8 a9 93 3c ab 96 49 3d f3 f4 c5 bd 77 30 07 bc
       0.018025383 0.049215954 -0.09665861 -0.008251301
0002c0 08 7d d9 bc 00 e4 81 bd 89 c8 f0 3c be 38 20 3d
       -0.026548877 -0.06342316 0.029392498 0.039116614
0002d0 80 4f 42 3c 0d 72 96 bd 1a 76 34 3d ae 1a 05 3d
       0.011859775 -0.07345972 0.044057943 0.032496147
0002e0 fe df 33 3d b6 e2 ef bd 68 29 50 bd 2c b4 c6 3c
       0.043914787 -0.117131636 -0.050820738 0.024255835
0002f0 c3 94 01 be be 51 8f bb 26 93 17 3d a0 a8 e4 bd
       -0.12654404 -0.004373758 0.037005566 -0.11164975
000300 de 29 7b bd 99 17 bc bd ff d7 88 3d b2 62 a2 bd
       -0.061319225 -0.091841884 0.06681823 -0.07928981
000310 ef f7 0e 3b 94 95 48 bc b7 1f b0 bd e4 e9 ac bd
       0.002181526 -0.012242693 -0.08599799 -0.084430486
000320 e8 5b 34 bc 80 ad 6a 3c 06 54 18 3d 66 1c 79 3c
       -0.01100824 0.014323592 0.037189506 0.015204525
000330 ce fd 48 bd 63 85 17 be da cc 7d 3d ab d6 aa bb
       -0.049070172 -0.14796977 0.06196294 -0.0052135787
000340 0d bb 89 3c e6 b0 67 bd 51 08 3e bd 9f 7e 1c bc
       0.016812826 -0.056565188 -0.04639465 -0.009551673
000350 9a db 5a 3d 6d 94 d9 bd e7 cb 22 bc d1 04 5d bb
       0.053432085 -0.10624013 -0.009936309 -0.0033724795
000360 ad 37 37 bd 36 e9 31 bd 60 23 0d bb a6 d4 7b bd
       -0.04473083 -0.043435298 -0.0021535978 -0.061482094
000370 94 44 7b 3b 10 dc b0 bd 3e 5d 1c 3d 68 23 9f 3c
       0.0038340436 -0.086357236 0.03817486 0.019426063
000380 d9 72 49 bd 94 e9 92 3d 0c d5 e2 bd 99 93 86 3d
       -0.049181793 0.07173458 -0.11075792 0.06571121
000390 e0 eb e0 bd 2c 03 0a 3d 0a fd fb bc 40 db 2a bc
       -0.109824896 0.03369443 -0.030760307 -0.01042825
0003a0 52 d8 ad bd 28 15 96 3c 54 5e 90 3d 69 65 4e 3c
       -0.084885255 0.018320635 0.07049242 0.01259742
0003b0 20 0b cd bb f6 5f 49 ba cf 21 50 bd 26 0f 9f bd
       -0.0062574297 -0.0007681841 -0.050813492 -0.07766561
0003c0 82 a3 6c 3d d0 fc a7 3d fa 19 af bd 94 14 87 3a
       0.05777312 0.08202517 -0.085498765 0.0010305815
0003d0 e0 b0 51 3d fe 82 4b 3d d0 bb 85 3c 77 82 5a bd
       0.05119407 0.04968547 0.016324908 -0.053347077
0003e0 b0 ad ef bb a0 27 a1 bd 2d ae ac 3d 9c fc 99 bd
       -0.0073144063 -0.07868886 0.08431659 -0.075188845
0003f0 34 31 8c bc 68 a4 5b 3d 43 d1 90 3d e7 c0 aa bd
       -0.017113306 0.053623587 0.070711635 -0.083375745

linear2.bias f4 [256]
000000 a0 1c d0 3d 3f 11 d4 bd 05 52 1f 3d 48 88 9f 3b
       0.1016171 -0.10354852 0.03889658 0.004868541
000010 ff ec 9d bd 14 a1 83 bd 9b 66 ce 3d be 68 7e 3c
       -0.07711219 -0.064272076 0.10078164 0.015527902
000020 a2 ad 04 3d 1b 08 63 3d fc bb 6b 3d b9 e3 a6 3c
       0.03239215 0.05542765 0.057552323 0.020372258
000030 66 f9 95 b9 c8 5c 33 3d c0 d1 77 bd 9e 59 ca bd
       -0.0002860531 0.043789655 -0.060502768 -0.09880374
000040 4a c4 84 3b 4d 87 5a bd 8c 60 75 bd b7 9e c0 bd
       0.00405172 -0.05335169 -0.059906527 -0.094052725
000050 0b c0 c1 3d 17 67 d6 3c ed ed 4f 3d 4c ce d3 3c
       0.094604574 0.026172204 0.050764013 0.025855206
000060 fc a9 b4 bc 78 b1 94 bc bf 13 5f bc 03 ab 19 bd
       -0.022053711 -0.01815103 -0.013615548 -0.037516605
000070 08 bb e5 b9 2b a9 2f 3c 5e 18 c5 bd a6 10 43 3c
       -0.00043817633 0.010721485 -0.09623788 0.011905825
000080 94 5e f6 3c e2 0b de bb 01 70 22 bc f4 88 37 3e
       0.030074395 -0.006776319 -0.009914399 0.17923337
000090 78 9a 6e 3d 24 be 69 bd ca c5 19 bd 1c 26 95 bd
       0.05825278 -0.057066098 -0.037542142 -0.072826594
0000a0 5c de e8 bc f8 80 53 3c 0b de 01 3c 8e 52 7d bd
       -0.028426342 0.0129091665 0.007926474 -0.06184631
0000b0 ac 28 e3 bd 17 6d cb bd e5 c1 c9 bd 02 3d 68 bc
       -0.11091742 -0.099329166 -0.098514356 -0.014174702
0000c0 1a fb c0 bd a9 e3 a7 bd a7 23 c1 bd 5f 6d 85 bc
       -0.09422894 -0.081977196 -0.09430628 -0.016287504
0000d0 95 b0 cb 3c e1 ec 0f 3d be be d0 3b 0f bb d9 bd
       0.024864474 0.035138015 0.0063703945 -0.10631382
0000e0 23 8b 80 3d 79 4e b5 bd 25 1c 06 3c 7a b0 b6 3b
       0.06276538 -0.08852858 0.008185421 0.005575237
0000f0 72 a2 46 bd 33 d5 ca 3b 7e 69 1e 3c 8d fb c7 bd
       -0.048494764 0.006189966 0.009668706 -0.097647764
000100 65 35 8b bd 29 5d 01 be 6a 22 75 bd 2a 61 0d 3d
       -0.067972936 -0.12633194 -0.059847273 0.03451649
000110 1d 1a 70 bc 63 0a de bc 42 62 0c bd 57 9b a0 3b
       -0.014654663 -0.027104562 -0.034273393 0.0049013305
000120 74 1e e3 bd 89 ad 10 bd 83 35 80 bd 95 b8 aa bd
       -0.11089793 -0.035321746 -0.062602066 -0.083359875
000130 32 04 80 bd 22 34 57 3b de 03 41 bc 5e cc a4 bd
       -0.062508 0.003283747 -0.011780707 -0.080467924
000140 f6 b1 32 bd 43 d8 4a 3c c2 e3 61 ba 20 f1 96 3b
       -0.043626748 0.012380662 -0.00086170074 0.004606381
000150 25 ce 08 3b 1d 4d 85 bd 3a f1 1f bc c1 bb 0e be
       0.0020874825 -0.06508849 -0.009762103 -0.1393881
000160 d8 8c ee 3c 5b 20 a5 bd df 4e 28 3e f8 53 6d bd
       0.029119894 -0.08062812 0.16436337 -0.057941407
000170 15 76 93 3d 16 d9 af bd c8 53 01 3e 69 a3 12 bc
       0.07200257 -0.08586328 0.12629616 -0.008950093
000180 20 f1 5c bd fc c3 68 3d ce 59 be 3c a6 ec 9a bc
       -0.053940892 0.05682753 0.023236182 -0.01891167
000190 e1 1b 7b 3c 6a df a1 3d 33 b8 c7 3c c8 dd b7 bc
       0.015326471 0.07903941 0.024379825 -0.02244462
0001a0 6e 3b 4c bd 68 c3 9f bd 14 0d b0 bd 80 44 96 bc
       -0.049861364 -0.07800943 -0.085962445 -0.01834321
0001b0 7f c3 c4 bd 88 67 3e bd c4 d1 21 3d 3f 8e 1b bc
       -0.096076004 -0.046485454 0.03950669 -0.009494363
0001c0 00 7e 75 bd 34 43 89 3b 8b 8d 73 bd 24 cc e2 bd
       -0.059934616 0.0041889194 -0.059461158 -0.11074093
0001d0 be 7a 90 bc 38 af a9 bd 2f 61 d3 bd b3 39 bd ba
       -0.017636653 -0.082853734 -0.10321271 -0.0014436751
0001e0 6a 96 1b bd 5f f2 fe 3c c5 14 18 bd 07 69 9d bd
       -0.037985243 0.03112143 -0.037129182 -0.07686048
0001f0 92 f8 af bd 7a b2 59 bd fb 2d 24 bd 48 8b 96 bd
       -0.08592333 -0.053148724 -0.040082913 -0.073507845
000200 56 f3 1f 3c f6 6e 6b bd d0 8b e2 bc 3b 15 e4 bd
       0.009762606 -0.057478867 -0.027654558 -0.11136862
000210 91 ef 55 bd 94 7d b6 bb dd da e0 3c ae b2 14 3e
       -0.05223042 -0.0055691693 0.027448112 0.14521286
000220 b1 56 88 bb 68 a6 8d bd 59 6e bd bd 8f 95 83 3d
       -0.004160725 -0.06916505 -0.09249563 0.064250104
000230 cc ce 32 3b e3 5a 64 ba 70 55 42 3d e5 b6 f9 3d
       0.0027283905 -0.0008711053 0.04744476 0.121930875
000240 53 be 84 bb 72 63 32 bd 14 0d 98 bb e4 15 64 3d
       -0.0040510087 -0.04355187 -0.004640231 0.05568494
000250 dd 2e 13 3d 43 3c 13 bd 56 db 6a bd a5 94 ae 3c
       0.035933364 -0.035946142 -0.05733808 0.021311114
000260 04 fb f6 3c 35 73 48 3d 32 93 9b bb a9 2f c2 3d
       0.03014899 0.048937995 -0.0047477717 0.09481747
000270 42 d3 e6 bd 9e f5 17 bd 4d f3 b8 bb 7b fb d7 bc
       -0.11270763 -0.037099473 -0.005644238 -0.026365032
000280 57 79 86 bd e5 78 99 bd 67 7f e2 bd ce e9 75 bd
       -0.065661125 -0.07493762 -0.11059456 -0.060037427
000290 f8 ea e3 3d 79 c4 13 3c 50 6a de 3c f8 2d 0a bc
       0.11128801 0.009019011 0.027150303 -0.008433811
0002a0 2b eb 4b bd 92 cf 27 bd 12 e3 f2 3a 5a 71 ab bd
       -0.04978482 -0.04096944 0.0018530807 -0.083712295
0002b0 f6 92 21 3d d8 de 73 bd 7f 3a 86 bd 07 55 73 bd
       0.039446793 -0.059538692 -0.06554126 -0.05940726
0002c0 45 a0 47 bd 0a f7 89 bd ef d4 0e bd 25 61 a8 3c
       -0.04873683 -0.06736572 -0.034871038 0.020554135
0002d0 a4 23 00 be 88 36 e7 3c d7 28 02 3c 25 79 14 3b
       -0.12513596 0.028224245 0.007944307 0.0022655216
0002e0 2a f6 8d bd af 2f 04 3e 91 5a 73 bb ac 81 a5 bd
       -0.06931718 0.12908815 -0.003713284 -0.080813736
0002f0 51 ab 38 bc 92 cf ab 3d f5 53 29 3c 7a 0a c1 bd
       -0.011271314 0.083892 0.010334958 -0.09425826
000300 39 91 f0 3c 9b ea 87 bc f3 50 35 bc c6 c0 b4 3c
       0.029366123 -0.01659136 -0.011066663 0.022064578
000310 f8 17 e7 3d 8d 32 93 bd 84 cd a8 3c 89 11 89 bd
       0.112838686 -0.07187376 0.02060581 -0.06692798
000320 62 85 8a bc 3b e0 18 bd a4 26 ca bb 1f 2c bb bd
       -0.016909305 -0.037323218 -0.006169157 -0.09139275
000330 d3 4b 18 bd a2 03 c5 3d 36 4c 3c bd 31 0d 2f 3d
       -0.037181687 0.096198335 -0.045971118 0.04273719
000340 61 19 d2 3d 7a 9e f4 3c 56 a0 a5 bd 11 ee ab bd
       0.10258747 0.029860724 -0.08087222 -0.08395017
000350 17 fa 41 bd 2a 11 15 bd 17 c0 26 3d a9 ce ac bd
       -0.047357645 -0.036393322 0.040710535 -0.08437855
000360 91 f2 6f bd 6d b8 60 bd d8 84 62 bd a0 e7 a3 3c
       -0.05858094 -0.054863382 -0.05530247 0.020007908
000370 b7 c7 d2 bc 63 13 f7 3c 46 c5 90 bd 45 39 be bd
       -0.025729997 0.030160611 -0.07068877 -0.09288267
000380 59 d7 6b bc e4 0a ac 3d ca 74 5a bd 20 37 e7 bc
       -0.014394605 0.08400515 -0.053334035 -0.028224528
000390 1e 4d 31 3d 3b 75 85 bd a9 8e 15 bd 1c 4f e0 bd
       0.043286435 -0.065165006 -0.036513004 -0.10952589
0003a0 7a c3 1a 3c 7c 5c f5 3c 40 92 38 bb 14 f3 e4 3c
       0.009446019 0.029951327 -0.0028163344 0.02794794
0003b0 24 c8 f7 bc 43 36 dc bc 6c 28 2c 3d 58 2d 55 3e
       -0.030246802 -0.026881343 0.042030737 0.20818079
0003c0 90 f4 23 bd 5b a0 42 3c 81 f6 1e bd 3e d5 bc 3c
       -0.040028155 0.011879052 -0.038809303 0.0230509
0003d0 b5 4f a9 bc 9b 70 89 3c 4f 4e 8d 3d c2 90 6b 3d
       -0.02066789 0.016777327 0.06899702 0.0575111
0003e0 c5 81 0a bc 12 eb b4 bd 04 ef 95 bd 29 4c ab bd
       -0.008453791 -0.088338986 -0.07320979 -0.08364136
0003f0 53 ab 41 bd 36 db 3d 3d e9 cc 59 3d 89 54 fa 3c
       -0.047282528 0.046351634 0.053173933 0.030557888

linear3.weight f4 [128, 256]
000000 5c d4 0d 3c 51 53 21 bd b2 20 cf bd 28 c1 32 3d
       0.008656587 -0.039386097 -0.10113658 0.04364124
000010 b7 3b fd 3b 22 b6 5a 3d c0 90 85 3d 66 89 ad bc
       0.007728066 0.05339635 0.065217495 -0.02118368
000020 19 4b c5 3c 17 17 a9 bd e7 91 ab bc 60 2f 93 bc
       0.02408366 -0.08256357 -0.020943595 -0.017966926
000030 94 f7 3e 3d 13 f4 76 3d 4f cb 8b bb c3 10 17 bd
       0.046622828 0.06029136 -0.0042661796 -0.03688122
000040 1a 63 b7 3c 16 7e 2b 3c 6e dd 8b bd 04 0f 6f bd
       0.022386122 0.010467073 -0.06829344 -0.05836393
000050 41 25 c2 bb db 87 8d 3d 93 0e 5c bb be b2 87 bc
       -0.005924851 0.06910678 -0.0033578023 -0.016564723
000060 5a 87 2a bd be 97 1b 3d ac b1 92 bd a2 95 99 3b
       -0.041632988 0.03798651 -0.071627945 0.004687027
000070 d5 da 1c 3b c4 a2 f8 bc 69 6b c4 bc 5c a6 0a 3d
       0.0023934145 -0.03035105 -0.023976998 0.03385006
000080 33 77 ed 3c 6c e4 0e 3d fd f9 f0 3b 36 95 da bd
       0.028987503 0.03488581 0.0073540197 -0.10672991
000090 13 a5 d4 3d ec 2c 8f 3c 01 68 6b bd a9 10 8a 39
       0.10383048 0.017477475 -0.057472233 0.00026333824
0000a0 4c e3 0d bd 83 a6 40 3a 22 28 80 bd 2e 8e bd bc
       -0.034640595 0.0007349031 -0.06257655 -0.023139086
0000b0 34 42 eb 3c a6 1d 13 3d 3d 25 18 3d 4f e6 9f 3c
       0.028718092 0.035916947 0.03714489 0.019519
0000c0 3d 0c 59 bc 40 96 29 3c 1c 63 3c bd 90 a9 85 bc
       -0.013247547 0.010350764 -0.045992956 -0.016316205
0000d0 78 a4 ca 3d 6f c6 af 3b 9f d5 5b bd 6c a1 3f 3d
       0.09894651 0.0053642313 -0.05367052 0.046784803
0000e0 af 3f 48 3d 60 07 10 bb ed a5 7e bd eb 39 fb 3c
       0.04888886 -0.0021977052 -0.062169958 0.030667266
0000f0 66 62 a7 bc 12 5a e6 ba 9e f9 bd bc 48 e3 80 3c
       -0.020432662 -0.001757445 -0.023190316 0.015733376
000100 14 11 fd 3c 1d 1a a9 3c 40 67 5d bd 6b 8b b4 bc
       0.030891933 0.020642335 -0.054053545 -0.022039136
000110 16 7f 83 3d ac 06 32 3d 93 d0 3e bd b6 71 26 3d
       0.06420724 0.043463394 -0.04658563 0.040635787
000120 ba 09 9e 3d ef a6 ae 3d 0b 63 50 bc 01 2c 8c 3b
       0.07716699 0.08527934 -0.012718926 0.0042777066
000130 a1 99 0b 3d 26 f8 86 bd 66 a7 da bd b0 0b 8f 3b
       0.03408206 -0.06590299 -0.1067646 0.004365407
000140 31 66 0d bd 97 c1 cc 3c 20 ad 03 bd 1b 79 31 bd
       -0.034521285 0.024994655 -0.032147527 -0.043328386
000150 e3 0b 4b 3d cd 13 28 bd ec cf 50 bd 7e 11 4c 3d
       0.049571883 -0.04103451 -0.05097954 0.04982137
000160 6c 8c 20 3c f4 40 0c 3d 19 c5 9d bd 36 13 24 ba
       0.009799104 0.03424163 -0.07703609 -0.0006258966
000170 b9 bd ad bd c8 d2 ff bc f4 16 80 bd e7 ba bc 3c
       -0.08483452 -0.031228438 -0.06254378 0.02303834
000180 71 80 6b 3c 36 7f bb 3b 79 62 34 bb b4 3a 4c 3d
       0.014373885 0.005721952 -0.0027524515 0.04986067
000190 42 87 9a bc ef 2e 65 3d c8 e1 49 bd ff 3d 2d 3d
       -0.018863324 0.055952962 -0.049287587 0.042295452
0001a0 d7 99 79 3d ec 62 0d bd 16 3d 8e 3d 97 07 be 3c
       0.06093773 -0.034518167 0.06945245 0.023196978
0001b0 f0 10 90 bd 25 30 09 bd 46 6e 55 3d 73 67 95 bd
       -0.070344806 -0.03349318 0.052107118 -0.07295122
0001c0 3d 22 de 3c db 00 45 3d ca 1c 72 bc d2 b8 25 3d
       0.027115935 0.04809652 -0.014777372 0.04045946
0001d0 71 33 71 3d b7 0e fd bd 98 e1 8e 3d d4 eb 1f 3d
       0.05888695 -0.12356322 0.06976622 0.039043263
0001e0 2c 46 87 bd a4 6a fc 3c 16 46 47 bd 76 f4 a7 bc
       -0.06605181 0.030812569 -0.048650824 -0.02050231
0001f0 db 97 4b 3d 7b db 5a 3d 4a b5 ae bc e3 7c 7d 3c
       0.049705368 0.05343197 -0.02132668 0.01547167
000200 54 2f 2d bd 56 60 13 bd 54 a4 12 be f6 f9 1a bd
       -0.042281464 -0.035980545 -0.14320499 -0.037836038
000210 08 05 5e 3d 1f bb 06 3d 2d 59 14 bd d0 d1 e5 bd
       0.054204017 0.032893296 -0.036217857 -0.11221659
000220 4e 4d 8e bd 2d 11 8d 3d 6e 0e 42 bd 97 6f 06 bd
       -0.069483384 0.06888042 -0.047377042 -0.032821264
000230 c8 08 04 3c 03 78 26 3d 1c fc 6f bc e0 36 cb 3c
       0.008058734 0.040641796 -0.01464751 0.02480644
000240 91 e5 db bb 41 ed 3e 3b 90 b0 1a bd ba 5f 3f 3d
       -0.006710716 0.0029133114 -0.03776604 0.04672215
000250 2e a9 0b 3d 0a 6a 0a 3d d6 b0 a1 bb 1b a9 e4 3c
       0.03409689 0.033792533 -0.0049344106 0.027912667
000260 72 0a b0 bc 44 d7 67 3d 0a 4f 86 3d 1b 38 e0 3c
       -0.021489356 0.056601778 0.06558044 0.027370503
000270 65 90 55 3c 69 5a 3a 3d 6e 31 50 3d 30 e8 17 3c
       0.013034915 0.045496378 0.05082839 0.009271666
000280 aa 6d 2f 3d 91 f9 a7 bd dd 5a 81 37 b4 e9 7b bd
       0.042829193 -0.08201898 1.542031e-05 -0.061502174
000290 06 9b dc bc 3f d5 c7 bc 93 0f 22 bd f3 21 1a bd
       -0.02692939 -0.024393676 -0.039565634 -0.037630033
0002a0 12 b7 36 3d 11 33 a6 bc 12 01 81 bd bc 22 19 3d
       0.044608183 -0.020288022 -0.06299032 0.03738664
0002b0 0e 63 d1 bc 56 8d 9d 3d 66 2a 8f 3c 7a 0c cd 3c
       -0.025559928 0.07692973 0.017476272 0.025030363
0002c0 86 f6 29 bd eb 65 0a 3d 63 87 98 3b 41 25 74 3d
       -0.04149487 0.033788603 0.004654811 0.05960584
0002d0 ac 6e 69 3d 49 6a 43 3d a3 c2 14 bb 58 4b 6e bd
       0.05699031 0.047708783 -0.002269902 -0.058177322
0002e0 10 67 94 3b 6c e6 91 3c 8a f4 e3 bc a5 82 01 3d
       0.0045288876 0.017810069 -0.027826566 0.031618733
0002f0 a2 ee 1a 3c 5e 19 7a bc 0e aa ca 3c f6 c0 28 3d
       0.009456309 -0.015264837 0.024739292 0.041199647
000300 3f 6a 89 bc e7 f7 70 3d 7a d5 dc bd 07 cb 1f 3c
       -0.016774295 0.058830168 -0.10782905 0.009752995
000310 49 78 09 be 92 12 aa 3d 8b 66 91 3d 31 a3 b3 bc
       -0.13424791 0.08304323 0.07099637 -0.021928402
000320 a7 c3 1a bc c2 5d 95 bc e1 46 08 3e 50 1a d2 bb
       -0.009446061 -0.018233184 0.13308288 -0.006411828
000330 b4 a0 73 3b ec 51 24 3d 72 c9 89 bb c9 56 8d bd
       0.0037174644 0.04011719 -0.0042049224 -0.069013186
000340 47 0b 45 3c 74 5f b4 3c 52 dd 0d bd aa bb 1e bd
       0.0120266145 0.022018172 -0.034634896 -0.03875319
000350 ed b1 31 bc 5e 17 10 3d 64 e7 b1 3d 59 50 67 3c
       -0.0108456435 0.035178535 0.086867124 0.0141182775
000360 90 0a a5 3b 17 64 ae 3c 21 5e 3b bd 06 c6 77 3d
       0.0050366595 0.021287961 -0.045744065 0.060491584
000370 44 69 13 bd ea 38 1c 3d f1 2f 0a bd 1c 4b 02 bd
       -0.03598906 0.038140215 -0.033737127 -0.03180991
000380 f8 81 b9 3c c0 cb b1 3d 0c 1a 41 3c 46 4f b3 bd
       0.022644982 0.0868144 0.011785995 -0.087553546
000390 b2 a7 42 bd 01 49 4b bd 4b 05 64 3d b6 21 b1 bd
       -0.047523208 -0.04963017 0.05566911 -0.08649008
0003a0 82 49 eb 3c fc eb 30 3d 3c 68 38 3d 39 31 6e bd
       0.028721575 0.043193802 0.04502128 -0.05815241
0003b0 3c ee 98 3c a6 ed a3 3d 1d e6 32 bc c1 ed f5 3c
       0.018668287 0.08004312 -0.010919121 0.030020596
0003c0 18 0e 95 3d 29 33 ad bb 56 dc 6c bd b5 20 0f 3c
       0.07278079 -0.00528564 -0.057827316 0.008735825
0003d0 ca 4e 83 3d 78 5c 19 3d 41 78 c8 bd 2e cc 5b 3c
       0.06411512 0.0374417 -0.097885616 0.013415379
0003e0 e6 c3 03 3d 90 7c 17 bb 3b 2c 0b ba 57 72 7e bd
       0.032169245 -0.0023115017 -0.000530902 -0.06212076
0003f0 e2 70 f6 bc c9 f2 42 bd 87 46 d3 bd ed 6f 64 bd
       -0.030083124 -0.04759482 -0.103161864 -0.055770803

linear3.bias f4 [128]
000000 b3 84 b5 bb 18 9b eb bb 10 52 0a 3e 50 00 32 3c
       -0.0055395006 -0.0071901195 0.13507867 0.010864332
000010 d2 ad 48 bd 14 b3 bf bd a5 dd f0 3c 74 9a 76 3c
       -0.048993893 -0.09360328 0.029402563 0.015051473
000020 f8 43 80 3d 39 9f c1 bd 2f e8 aa 3d 9c 52 a8 bd
       0.06262964 -0.094541974 0.08345067 -0.082188815
000030 d4 c9 1b bc 9a 16 09 bc 6d c6 ea bc b3 fa 81 3c
       -0.009508569 -0.008367205 -0.02865907 0.015866613
000040 59 93 cb bc ec 35 3c 3c 74 2c 76 bd e7 3c 0c bd
       -0.024850534 0.011487465 -0.060100988 -0.03423777
000050 3b 80 a0 bd 6c ba e1 bc 3c 6d b0 bd e0 16 58 bd
       -0.07836958 -0.027554713 -0.08614585 -0.05275619
000060 78 6d bd bd 9b e5 7f bd c3 ee 43 bd f2 c1 53 bc
       -0.09249395 -0.06247483 -0.047835123 -0.012924658
000070 c4 67 29 bc 7a b5 d6 bc 53 c6 32 3e 34 0a c2 bd
       -0.010339681 -0.026209582 0.17458467 -0.09474602
000080 35 78 48 bd 17 66 55 bd 61 0a 72 3c e7 bd 90 bd
       -0.048942763 -0.052099314 0.014772982 -0.07067471
000090 db f5 b2 bc b7 35 e7 3d ef b1 c4 bc 0d 01 8d bd
       -0.021845749 0.11289542 -0.024010627 -0.06884966
0000a0 71 7e f5 bc 22 6b 45 bc b5 1a 38 bd fb 9d fa bc
       -0.029967519 -0.012049468 -0.044947345 -0.03059291
0000b0 9b 84 19 bd 44 eb 9f bd f7 d2 0c 3d c2 dd 83 bd
       -0.037479978 -0.07808545 0.03438088 -0.06438781
0000c0 6a 13 73 3d c6 6f a1 3c f7 20 c6 3b 38 be 71 bc
       0.059344687 0.019706618 0.00604641 -0.014754824
0000d0 e6 81 da bd 8d 75 50 3c 71 46 ab 3d 57 f3 a5 3c
       -0.106693074 0.012723339 0.08363045 0.020257635
0000e0 a5 37 9e bd 6c 10 0c bd 03 12 47 bd 89 12 47 3d
       -0.07725457 -0.03419535 -0.04860116 0.04860166
0000f0 15 12 c6 3b 8e 57 4b 3b 01 26 2f bd ee 5c 19 bd
       0.006044636 0.0031027528 -0.042760853 -0.03744214
000100 b6 a4 af bc f5 28 9a bd 12 14 6b 3d cc aa 8c bd
       -0.021440845 -0.07527343 0.057392187 -0.068685144
000110 19 4a 7f bc 37 13 f5 3c 71 84 e5 bc 91 38 17 3c
       -0.015581631 0.029916389 -0.028017255 0.009229795
000120 74 3e da bc c8 74 71 bd c7 98 66 bb 1d 23 6c bc
       -0.026641108 -0.058949262 -0.0035186277 -0.0144126685
000130 45 95 93 bd 44 59 a2 3c 08 5b 32 bd 90 33 a1 bd
       -0.07206205 0.019817956 -0.043543845 -0.07871163
000140 4e ec af bc b8 20 85 3d c7 39 96 bc e9 d7 1b bd
       -0.021474984 0.06500381 -0.018338097 -0.038047705
000150 83 07 ac bd ba 5e 1d bd 0a 37 31 bd 11 19 33 bd
       -0.0839987 -0.038420416 -0.04326538 -0.043725077
000160 9a 86 3b bd a3 69 71 bd 00 16 aa bc d0 57 15 bc
       -0.045782663 -0.058938634 -0.020762444 -0.009115174
000170 99 6f 89 bd 22 d6 ca 3d a6 26 2e 3d 0e ad 0e 3d
       -0.06710739 0.09904124 0.042517327 0.034833007
000180 13 5d 0a 3d 6b 49 f2 ba ad 61 d6 bd bb 03 91 bd
       0.03378017 -0.0018485015 -0.10467849 -0.0708079
000190 96 30 b5 bd 8b a8 da bd 82 bb d7 3b 9c 0e 85 3a
       -0.08847158 -0.10676678 0.006583632 0.0010151449
0001a0 fd 88 76 bd c4 19 60 bc 02 de 8a bd e1 cf c8 bd
       -0.060189236 -0.013678018 -0.06780626 -0.09805275
0001b0 43 31 d3 bc 73 20 5a 3d 19 db a8 bd d7 f8 53 bd
       -0.025780326 0.053253602 -0.082449146 -0.051750984
0001c0 af b2 d6 3c 05 d9 ef 3c 35 c5 00 3c bd 93 36 bc
       0.02620825 0.029278288 0.007859518 -0.011143622
0001d0 93 d7 53 bc 62 1b b5 bd a0 45 7b bd c0 2c 5c 3d
       -0.012929815 -0.088431135 -0.061345696 0.053753614
0001e0 b6 7c 0a be 6e 3f 21 bd a8 cc 9e bd 51 88 9a bc
       -0.13524136 -0.039367132 -0.07753879 -0.018863829
0001f0 3f fb d4 3c 74 d9 1b bd fa 06 5c bb b4 15 72 bd
       0.02599871 -0.038049176 -0.0033573494 -0.05910273

linear4.weight f4 [64, 128]
000000 1b 9a 20 bd 91 2d 06 bd de b3 d2 bd 2a a4 e1 3b
       -0.039209466 -0.0327583 -0.10288213 0.006886025
000010 bb 87 e2 bd de e7 bc 3d d9 89 e9 3c 25 58 96 bd
       -0.11061045 0.09223913 0.028508114 -0.07341031
000020 5d f9 9f 3d 02 a1 e3 bd 4d d8 57 bc 1e 76 d8 bd
       0.07811234 -0.11114694 -0.013174129 -0.10569404
000030 10 53 ba bd f5 b8 13 bc 3a 92 72 bd 87 81 ad 3d
       -0.09097874 -0.009016265 -0.059221484 0.08471971
000040 69 a1 a6 3c cd 14 36 be c9 55 61 bd 0e 19 97 bd
       0.020340638 -0.17781372 -0.05501345 -0.07377826
000050 3c ba 4c bd c4 0c 86 3c 9f 3f 2d bd 83 79 b1 3c
       -0.049982294 0.016363509 -0.042297002 0.021664387
000060 2e 78 7b bd 4c da 6f 3c f7 c7 c4 3d 34 bb e5 3c
       -0.06139391 0.014639448 0.09608453 0.028043367
000070 35 ae 14 3d fe 69 dc bc 92 26 2a b9 c5 7a 16 3d
       0.03629895 -0.02690601 -0.00016226832 0.036738176
000080 48 f3 ee bb 4d fb f9 3c bc 99 8d bc db 92 08 3d
       -0.007292185 0.030515337 -0.01728522 0.033343177
000090 d8 f1 5f 3d 9f 79 91 bd 51 9d b0 3d 84 41 a1 bc
       0.054674 -0.071032755 0.08623756 -0.01968456
0000a0 51 a3 ac 3c 48 d5 19 bd 2f d9 65 be 0b c4 01 3d
       0.02107397 -0.037556916 -0.2244613 0.0316811
0000b0 0f 89 93 bd a6 48 e3 bc d5 ba 41 bc da 39 0f 3d
       -0.07203876 -0.027744602 -0.011824329 0.03496728
0000c0 c6 c7 c7 bd 62 d5 84 bd 45 90 97 bb 0e 83 fa bd
       -0.09754901 -0.06486012 -0.0046253526 -0.12232028
0000d0 a4 8e a2 bc 71 a8 8e 3c fc 16 71 bd 6a f7 11 3d
       -0.019843407 0.017414303 -0.05885981 0.035636343
0000e0 f6 e8 09 bd 8d 06 91 3c 66 04 84 bd 52 0f 36 be
       -0.033669434 0.017703319 -0.064461514 -0.17779282
0000f0 14 86 e7 bb b0 f3 4a bd 10 2c 94 bd 77 d7 97 bd
       -0.007065544 -0.049548805 -0.07234967 -0.074141435
000100 96 b4 89 3d 3b 3d 69 3c c9 d4 e1 bd 28 7d 43 3c
       0.06723897 0.01423579 -0.11026914 0.011931695
000110 0c 97 70 3d d2 d6 1c bd 6a 5e 63 bc a6 3d 2a 3d
       0.0587378 -0.038290806 -0.013877491 0.0415627
000120 b5 cf 91 bd 00 c3 5c bb c5 f9 03 be 58 8a 0b bd
       -0.07119695 -0.0033685565 -0.12888248 -0.03406748
000130 04 c7 f6 bc fa 9a 29 bd 14 a4 4a 3d da e6 57 3d
       -0.030124195 -0.041407563 0.049472883 0.05271039
000140 28 55 cc 3d c6 6e e6 bb 0e 8a 97 3d 30 0e 08 3c
       0.0997718 -0.007032248 0.07399379 0.008304164
000150 a3 d4 5c bd 3b 48 4a 3c 85 ee 84 bd 4a a4 67 3d
       -0.053913724 0.012346323 -0.064908065 0.056553163
000160 42 7b 01 be 64 60 8f bd f7 e9 36 3c e5 be 38 bd
       -0.12644675 -0.07000807 0.01116418 -0.045103926
000170 36 9d 5c 3d f7 0b bb bb 89 70 4a 3d ea 07 96 3c
       0.053860866 -0.0057082134 0.04942373 0.01831432
000180 86 7f d0 bd 0e c3 28 bd 7f df a0 3d 38 c8 8a bd
       -0.10180573 -0.041201644 0.078551285 -0.0677647
000190 50 25 87 bd b0 39 1d 3d af 8c 0b be 6d 4e 57 bd
       -0.06598914 0.038385093 -0.13627885 -0.052565027
0001a0 4b 05 56 3d 8c c5 c3 bc 38 bb a4 bd 30 1e 42 bd
       0.05225114 -0.023897909 -0.08043522 -0.04739207
0001b0 33 30 c1 bc 0d 81 41 bd 3f 5a 39 bd ae cb 84 3c
       -0.023582553 -0.047242213 -0.04525208 0.016210403
0001c0 24 c1 bd bd d0 2b d2 bc 62 70 bd bb 05 8c a4 bd
       -0.09265354 -0.025655657 -0.0057812193 -0.08034519
0001d0 40 d4 05 bd 8a af 16 3c 53 f6 27 be 51 78 d9 bd
       -0.03267312 0.009197125 -0.16402559 -0.10618652
0001e0 90 0f 4a bd fa ff 79 bd a2 f8 2b bd 26 6f 20 bc
       -0.049331248 -0.061035134 -0.04198516 -0.009792125
0001f0 dd 44 95 3c f2 40 08 bd d0 18 b5 bd 80 7e 4f ba
       0.018221313 -0.03326506 -0.08842623 -0.00079152733
000200 3d 34 43 3b ca 5d a4 3d 34 56 9b bd ac 0d ea 3c
       0.0029785775 0.08025701 -0.07584801 0.028570972
000210 98 2c a7 bd f5 75 35 bd 6e b6 2a be a3 bc 6c bd
       -0.081628025 -0.044301946 -0.16671154 -0.057797085
000220 01 b3 ea bc 5e 47 6f be b2 2d c3 3b 58 c6 a6 3d
       -0.028649809 -0.23367068 0.005956375 0.081433
000230 ab c1 8d bd 08 e4 fa 3d 8d 8a a2 3c e4 af 7b 3d
       -0.06921705 0.12250525 0.019841457 0.06144704
000240 a9 4e 56 3d 66 fd b4 bd 6c 3c cd bc bc c8 4e bd
       0.05232111 -0.088373944 -0.025053225 -0.050484404
000250 30 50 15 bc 01 2b 4e bd 9c cf c2 3d a9 0c bd bd
       -0.0091133565 -0.05033398 0.095122546 -0.0923093
000260 08 65 0c 3b da 60 a4 bd 28 e4 18 3d 4d 0b aa bd
       0.0021422524 -0.080262855 0.03732696 -0.08302937
000270 cc fc bb bc 60 93 42 bc 34 db fe 3c 67 b7 14 be
       -0.022947691 -0.011875957 0.031110384 -0.14523087
000280 37 eb 1d bd 00 7a 43 3b 76 e8 01 3d 67 51 17 bd
       -0.038554396 0.0029827356 0.031715833 -0.036942866
000290 50 26 20 bc e5 1f 91 3c c2 c3 9c bd 0c e9 26 3c
       -0.009774759 0.017715404 -0.07654525 0.010187399
0002a0 d3 cf 85 3d 51 dc ad 39 f2 26 dc bd 1c 6d 8a bb
       0.0653378 0.0003316128 -0.10749616 -0.0042244326
0002b0 59 36 46 3d 38 e4 52 3d 71 7c 43 3d 5d 6f aa bd
       0.048391674 0.051487178 0.0477261 -0.08322022
0002c0 0a 49 48 3d dc 28 c1 bd 6b 89 f8 3b 0f 26 8d 3c
       0.04889778 -0.094316214 0.007584741 0.017230062
0002d0 03 8e 83 3d 33 9c cf bd ac 21 7f bd 57 c1 15 3d
       0.06423571 -0.101372145 -0.06228797 0.036561336
0002e0 69 f2 8b bc 50 31 70 bc ef ab d6 bc 68 5c 27 3c
       -0.017083364 -0.0146601945 -0.026205031 0.010214902
0002f0 d4 58 8f 3c b1 47 d4 3d ed 27 08 be 0c 49 cd 3d
       0.017498411 0.103652366 -0.1329648 0.10023698
000300 4b da c5 3d a8 8a 83 3d 9c 69 1b 3d 71 0f 51 bd
       0.09660777 0.06422931 0.037942514 -0.051040117
000310 67 d9 1b bd 56 c3 0b 3c b7 3e cb 3d bc 41 8b 3c
       -0.038049128 0.008530458 0.09924071 0.016999118
000320 ce 91 5d bd 73 c0 5c bd a9 ee 1b 3d 15 72 9a bd
       -0.05409413 -0.05389447 0.0380694 -0.07541291
000330 d4 be 95 3c 9e 8e 10 3d d8 34 96 ba 24 57 0d 3d
       0.01827947 0.03529226 -0.001145984 0.034506932
000340 e0 68 8f 3d 0e 72 a8 bc a0 50 4a bc 20 53 5c bd
       0.07002425 -0.020562198 -0.012348324 -0.05379021
000350 64 e0 86 3d 09 f5 c0 bd a7 c1 56 3d 7a c9 99 3d
       0.06585768 -0.09421737 0.052430775 0.07509132
000360 f5 20 81 bd db 1a 49 bd a0 b3 51 3b 0c 55 d6 3c
       -0.06305114 -0.049097877 0.0031997934 0.0261636
000370 6c eb 83 bc 04 80 21 3c 36 68 0d 3d c1 c7 bc 3d
       -0.016103469 0.009857181 0.03452321 0.092177875
000380 3f b2 eb 3c f1 03 2b 3b a9 0e 20 bd 14 c2 a4 be
       0.028771518 0.0026094879 -0.03907648 -0.3217932
000390 aa 3f f4 bc d6 16 98 38 1f e8 ec b9 95 61 63 3c
       -0.029815514 7.252178e-05 -0.0004518637 0.013878246
0003a0 bc 29 22 bd 70 c3 b5 bc e5 24 46 3c b2 ba 76 3c
       -0.039590582 -0.022187918 0.012093757 0.01505916
0003b0 35 1d 89 3d 84 8b ea 3d d6 44 70 3d 88 ee 97 bd
       0.06695024 0.11452392 0.058659397 -0.07418543
0003c0 b5 52 c1 be 02 8e 9d bd e8 e5 9e 3d 76 4f 33 bd
       -0.37758413 -0.076931015 0.07758695 -0.04377695
0003d0 21 27 62 bd c6 8a ae 3c 63 9c 26 be 77 24 ae 3d
       -0.055213097 0.021306407 -0.16270594 0.08503049
0003e0 c1 36 95 3b 44 23 81 bc 7b 44 a7 bd 55 db 21 3c
       0.0045536463 -0.015763886 -0.081673585 0.009878953
0003f0 0e 25 0e bd e4 50 12 3c 31 b1 93 3d f9 a5 a0 bc
       -0.034703307 0.008930419 0.07211531 -0.019610392

linear4.bias f4 [64]
000000 09 60 de 3c cf 61 9e bd 49 23 05 bd cc 26 78 bb
       0.027145403 -0.07733499 -0.032504354 -0.0037864922
000010 f8 75 e5 bd 47 a2 b0 bd 50 23 a3 3d e0 f2 be bc
       -0.112041414 -0.08624702 0.0796572 -0.023309171
000020 6d 8f ee bd 89 d6 62 bd 1e 53 44 3d 15 e7 15 3c
       -0.1164845 -0.055380378 0.04793083 0.0091493325
000030 de fd 30 bd 18 0d f9 bc 33 a3 07 bb fc 46 93 bd
       -0.043210857 -0.030401751 -0.002069664 -0.071912736
000040 a7 52 02 3d 32 c7 08 be de 2c cd 3c a9 a5 14 be
       0.031817105 -0.13357237 0.025045808 -0.1451632
000050 e2 8f 2a bc fc 4c 01 bd 36 a4 85 bd 42 fb 12 3e
       -0.010410281 -0.03156756 -0.065254614 0.1435366
000060 d8 f0 83 3c d7 c2 79 3c 57 71 29 bb d3 21 70 3d
       0.016106054 0.015244207 -0.002585491 0.058626007
000070 aa e7 de 3d 42 12 7f bd cd 68 85 bd e2 d0 fd bd
       0.1088403 -0.06227327 -0.0651413 -0.12393357
000080 d4 43 49 3d 3a 0f f1 bc ba a6 98 bb b6 2e 9c bd
       0.04913695 -0.029426206 -0.004658547 -0.07626097
000090 3f 0e c3 bd 14 75 3e bc c7 7d d7 bd 3f c3 72 bd
       -0.095242016 -0.011624593 -0.10522037 -0.059268232
0000a0 b6 cc b1 bd 30 cf ab bc c4 70 22 3e 35 cb a7 bd
       -0.08681624 -0.020972818 0.15863329 -0.081930555
0000b0 cb 88 00 bd 65 04 e4 3c 89 ac 2a 3b 4d 90 c0 3d
       -0.031380456 0.027834127 0.002604278 0.09402523
0000c0 ab 13 a2 3d b2 05 e4 ba 3f cb c5 bd ff 68 34 bc
       0.079139076 -0.0017396717 -0.09657907 -0.011011361
0000d0 bb d9 82 bd aa f4 91 bc f2 89 95 bd ff 58 79 3d
       -0.06389185 -0.01781686 -0.073017016 0.06087589
0000e0 29 73 9a bd 49 e7 14 3e 5a 91 99 bd 13 1c bf bd
       -0.07541496 0.14541353 -0.07498427 -0.093315266
0000f0 35 46 32 3d 53 b1 88 3d e5 df 04 bc 08 2e 03 bc
       0.043523986 0.06674447 -0.008110021 -0.00800658

linear5.weight f4 [2, 64]
000000 6f 20 8f 3c 18 6b b1 3d 87 36 4a bd 54 82 a0 bc
       0.01747152 0.08663005 -0.049368408 -0.019593395
000010 1f cb aa bd aa 80 94 bc a5 dc 1d bb ca a8 d7 3d
       -0.083395235 -0.018127758 -0.0024087813 0.10530241
000020 31 1b a4 bd f6 44 e8 3c 82 8f 1d 3d 58 9c 85 bc
       -0.08012999 0.028353196 0.038466938 -0.016309902
000030 82 9e 16 bc 57 22 94 3d 2a 3e 7a 3d 9b ac fe bd
       -0.009193065 0.07233112 0.06109444 -0.12435266
000040 9e f3 ac bd d7 c0 b5 3d 87 b3 ad bb 6e d5 0d bd
       -0.08444904 0.08874672 -0.0053009423 -0.03462737
000050 9e 5a b8 bb 7d f9 4b 3c bb 3f b5 3d 12 6b a3 3d
       -0.005626037 0.012449619 0.08850046 0.079794064
000060 04 56 55 bb 54 a2 20 bd 65 3d 62 bc 69 c0 2a 3d
       -0.003255249 -0.03921731 -0.013808583 0.041687403
000070 3b ba cd 3d bd a4 2f 3d 22 8f 76 3d 24 43 07 3d
       0.10045286 0.042881716 0.060195096 0.033023015
000080 c2 70 53 3d a5 aa 93 3d de 59 48 3d f4 b5 19 3e
       0.051621206 0.07210282 0.04891383 0.15010816
000090 22 ea 8b bd 60 51 8f bd 5b 5e 90 bd b7 4a ac 3d
       -0.06831767 -0.06997943 -0.07049247 0.08412688
0000a0 92 00 3d bd 40 8c b8 3c b3 fa d0 3d 88 5b ba bc
       -0.046143122 0.022527814 0.10204067 -0.022748724
0000b0 b4 7a fa 3d b2 69 b2 bd 61 b1 e5 3d 00 af 05 3e
       0.12230435 -0.08711566 0.11215473 0.13055038
0000c0 01 f2 89 3d 42 e4 24 3d 60 cf d4 3d 31 f9 04 3a
       0.06735612 0.040256746 0.10391116 0.0005072533
0000d0 c4 ab 8c 3d 4e 34 21 3d e7 96 83 bd 58 df ff 3d
       0.06868699 0.039356522 -0.06425267 0.12493771
0000e0 7d bd 0d 3e 9c d3 29 3e f7 6d 48 bc a8 5f 8a bd
       0.13841815 0.16584629 -0.012233249 -0.06756526
0000f0 0f 72 96 bd ed e4 17 3e 14 8b c4 bc d0 2e ee 3d
       -0.07345974 0.14833422 -0.023992099 0.116300225
000100 31 26 d7 bd 52 9f 1f 3d 9d e6 9c bb c2 77 8e 3c
       -0.10505331 0.0389703 -0.0047882334 0.01739109
000110 df d8 06 bd be ea 99 bd 0a da 05 3d c2 5b 5e 3d
       -0.03292167 -0.07515477 0.03267864 0.054286726
000120 91 56 52 bd 55 db 80 3d 3f a0 dd 3c 26 f7 09 bc
       -0.051352087 0.06291834 0.02705395 -0.008420741
000130 f2 95 cd bc 33 c7 b9 bc 9d 4f a9 bd fe 3a b6 bd
       -0.025095914 -0.022677993 -0.08267138 -0.088979706
000140 4c 6b b5 bc 89 49 aa bc 95 3d af 3d 1f 9a 94 bd
       -0.02214589 -0.020787017 0.08556668 -0.07255959
000150 ee 98 4c bd 86 98 d5 bc 5c 21 63 3d 55 2c ae 3d
       -0.049950533 -0.026073705 0.055451736 0.085045494
000160 99 33 a3 3c a1 0f 34 bd 91 cf 01 bd 4d 8b 66 3d
       0.019922065 -0.043960217 -0.03169209 0.05628519
000170 67 ec bb 3d db 56 f4 3c cc d9 99 bd e3 ef bb bd
       0.091759495 0.029826572 -0.075122446 -0.09176614
000180 85 16 4b 3e 22 b3 fe bb 2a 98 28 3d 2b f1 41 3d
       0.1983281 -0.007772819 0.04116074 0.047349136
000190 69 73 84 bd 92 e7 08 bc d7 14 89 3d 60 68 91 3c
       -0.06467325 -0.008355992 0.06693428 0.017749965
0001a0 1c 5e f5 3c 34 5d e6 3c 0c 17 e5 3d d8 59 42 3d
       0.029952101 0.028120615 0.111860365 0.047448963
0001b0 a4 12 03 3d bc f6 00 bc 35 9e 76 3d d1 7b f5 3d
       0.0320002 -0.007871326 0.06020947 0.11986507
0001c0 58 64 81 3d 54 9f 41 bc 88 65 bb bc 2a 9a b6 bc
       0.06317967 -0.011817772 -0.022875562 -0.022290308
0001d0 ae 95 ca bd 68 3d 26 3d 21 0a b6 3d d0 aa af bd
       -0.098918304 0.040585905 0.08888651 -0.08577502
0001e0 f1 d7 30 3c 20 70 cd bc 36 e2 5a 3c 90 af c6 bc
       0.010793672 -0.02507788 0.013359597 -0.024253637
0001f0 d8 1b e9 bc f1 8f d8 3d 98 59 86 bd c1 0f b0 3d
       -0.02845566 0.1057433 -0.065600574 0.08596755

linear5.bias f4 [2]
000000 6b 96 ee bc 4c 8f 3d bd
       -0.02912446 -0.046279237
